4.2_Analysis/Train_Models/model_3/EEGNet_SoftTripleLoss_best.pth (torch, 80754 bytes, 18 tensors)

_orig_mod.encoder.conv1.weight f4 [8, 1, 1, 64]
0	0xbe8f8150	-0.28028345
1	0xbe7ea082	-0.24865916
2	0xbe91738b	-0.28408465
3	0x3d733d7f	0.05938482
4	0x3e9dc984	0.30817807
5	0x3eecbcb1	0.4623771
6	0x3eae13fb	0.3399962
7	0x3e990331	0.29885247
8	0x3dc5f403	0.09665682
9	0xbe5ac803	-0.21365361
10	0xbe71492a	-0.23563066
11	0xbef79ebe	-0.48363298
12	0xbed9a050	-0.4250512
13	0xbd86a050	-0.06573546
14	0x3cc5ae5c	0.024130993
15	0x3eaea28a	0.34108382
16	0x3ecb5c7b	0.39718994
17	0x3e9ec17d	0.31006995
18	0x3d668483	0.056278717
19	0xbe32c2f5	-0.17457183
20	0xbe56845a	-0.20948926
21	0xbde04258	-0.10950154
22	0xbc891db6	-0.0167378
23	0x3d6c70b9	0.05772469
24	0x3e45f28c	0.19330806
25	0x3e66b919	0.22531547
26	0xbcda2339	-0.026628124
27	0xbe3d6ae0	-0.18497801
28	0xbea1bcb5	-0.31589285
29	0xbe6542b4	-0.22388726
30	0xbe48ac5f	-0.19597004
31	0x3e15d06e	0.14630291
32	0x3dcee198	0.10101622
33	0x3e80f3a9	0.25185898
34	0x3db9e7d6	0.09077422
35	0x3c8d4848	0.01724638
36	0xbdfc227c	-0.12311265
37	0xbe912247	-0.28346464
38	0xbceef5b4	-0.029169895
39	0x3dcbe2ca	0.09955366
40	0x3e2dcd6b	0.16972892
41	0x3e805230	0.25062704
42	0x3db4304a	0.08798273
43	0x3d8d6d03	0.06905558
44	0xbdbd5663	-0.092449926
45	0xbdfa4389	-0.122199126
46	0xbd838854	-0.06422487
47	0xbdce4c85	-0.10073189
48	0xbd8eb0f3	-0.06967344
49	0x3e6f1ab8	0.23350036
50	0x3e121bb7	0.14268385
51	0x3b976567	0.0046202424
52	0x3ce972f5	0.028497199
53	0xbe2196a2	-0.15780118
54	0xbd9c5b70	-0.07634628
55	0xbdbe0f86	-0.092803046
56	0xbd4d61eb	-0.05014221
57	0x3d9ffd70	0.07812011
58	0x3df0fc30	0.11766851
59	0x3e072a17	0.1319965
60	0x3d83126a	0.063999966
61	0xbe2467d4	-0.16055232
62	0xbe1e61ae	-0.1546695
63	0x3ce176fb	0.027522555
64	0xbf61ec13	-0.88250846
65	0xbefa89b8	-0.48933196
66	0xbdfcdad2	-0.12346424
67	0x3c71b7bd	0.014753279
68	0xbbb98a0c	-0.0056622084
69	0xbdcf91fa	-0.10135265
70	0xbd5e2fe2	-0.054244883
71	0xbdcc5ae5	-0.09978274
72	0xbe7b8967	-0.24564134
73	0xbe38cee4	-0.18047673
74	0xbd8b47fb	-0.068008386
75	0x3cae2298	0.02125673
76	0xbe60a7a3	-0.21938948
77	0xbde84f24	-0.1134322
78	0xbcc7e6c9	-0.02440204
79	0xbdf043a5	-0.11731652
80	0xbe73ab89	-0.23795904
81	0xbe2a6a94	-0.16642219
82	0xbe1615bb	-0.14656727
83	0xbe2717d2	-0.1631768
84	0x3c503604	0.012708191
85	0x3ca92fdc	0.020652704
86	0xbb6321ee	-0.0034657675
87	0xbe07c9f7	-0.13260637
88	0xbe767129	-0.24066605
89	0xbda43897	-0.08018606
90	0xbd6bbbb6	-0.057552062
91	0x3d71f91a	0.059075452
92	0xbdc0755f	-0.09397387
93	0xbd81edd0	-0.06344187
94	0xbd40a037	-0.047027793
95	0xbdc892e0	-0.09793639
96	0x3d1055f7	0.035238232
97	0xbd394c62	-0.04523886
98	0xbda95c54	-0.08269563
99	0x3df747b9	0.12074227
100	0xbdc12930	-0.09431684
101	0xbcde2e43	-0.027121669
102	0x3dc53498	0.09629172
103	0xbd3e30a6	-0.046433114
104	0x3ceabc39	0.028654205
105	0x3c40c758	0.011766277
106	0x3d9626f8	0.073316514
107	0x3caf8eba	0.021430362
108	0x3dd5e97a	0.10444923
109	0xbcfb0548	-0.030642167
110	0x3d3ed494	0.04658945
111	0x3e3daed8	0.18523729
112	0xbcc66377	-0.02421735
113	0x3defca74	0.11708537
114	0xbd1e1f27	-0.038603928
115	0x3dea46d5	0.114392914
116	0x3d1bc212	0.038026877
117	0x3e119749	0.14217867
118	0x3d45789e	0.048210733
119	0x3e015789	0.12631048
120	0x3ea4651f	0.321084
121	0x3db1e2ed	0.08685861
122	0x3dd676eb	0.104719006
123	0x3c96b9bf	0.018399118
124	0x3e45d8ab	0.19320934
125	0x3e340366	0.17579421
126	0x3f044780	0.516716
127	0x3f55098f	0.8321771
128	0xbf74f1a9	-0.95681244
129	0xbe663274	-0.22480184
130	0xbd720856	-0.05908998
131	0xbc3593eb	-0.01108263
132	0x3d0f0d29	0.03492466
133	0xbe54bcec	-0.20775193
134	0xbe806f1d	-0.25084773
135	0xbe6646f4	-0.22488004
136	0xbe0ae3b4	-0.13563424
137	0xbe128b8f	-0.1431105
138	0xbc969a38	-0.018384084
139	0x3de8eafb	0.11372944
140	0x3d959aa9	0.0730489
141	0xbd2be61d	-0.0419675
142	0xbb5ef96d	-0.003402318
143	0x3d547da6	0.05187764
144	0xbd52210c	-0.051301047
145	0x3cdf6f57	0.02727477
146	0x3e367820	0.17819262
147	0x3d4a7503	0.049427997
148	0x3e33546e	0.17512676
149	0x3d9d36e4	0.07676485
150	0x3b9c86b0	0.004776798
151	0xbc66559c	-0.014058497
152	0x3c9010e1	0.017586173
153	0x3d83b4fb	0.06431004
154	0x3dca1013	0.09866347
155	0x3e364172	0.17798403
156	0x3bf4fc74	0.007476384
157	0x3d8cf14c	0.06881961
158	0xbd66963e	-0.056295626
159	0x3db442b4	0.08801785
160	0x3cdc0557	0.026858015
161	0x3df772d8	0.120824516
162	0xbcdecef6	-0.027198296
163	0x3e164907	0.14676295
164	0x3d813b9c	0.06310198
165	0xbb00596e	-0.0019584554
166	0x3db52ce9	0.088464566
167	0x3e3f0f34	0.18658143
168	0xbd839dae	-0.064265594
169	0x3c84e60a	0.016222972
170	0x3e1c74d4	0.15278941
171	0x3d7b6e56	0.06138452
172	0x3e286852	0.16446045
173	0x3e58f379	0.21186627
174	0x3d87b831	0.066269286
175	0x3d81601e	0.06317161
176	0x3e0c9aca	0.13730922
177	0x3ddcfc31	0.10790289
178	0xbcf63f3d	-0.030059451
179	0x3e7d1859	0.24716319
180	0x3e6e6025	0.23278864
181	0x3d2f8884	0.0428548
182	0xbccb0f7d	-0.024787659
183	0xbce9814a	-0.028504033
184	0xbe0a05bc	-0.1347875
185	0xbe1ed4b8	-0.15510833
186	0xbe566d6a	-0.20940176
187	0xbd5ec945	-0.054391164
188	0x3e18fe4b	0.14940755
189	0x3d69aaa4	0.0570475
190	0xbea90022	-0.33007914
191	0xbf5a3321	-0.85234267
192	0xbe93afa5	-0.28844944
193	0xbdb7d234	-0.0897564
194	0xbd774599	-0.060369108
195	0xbb661dbe	-0.0035112943
196	0x3e0e721b	0.13910715
197	0x3e411734	0.18856508
198	0x3e5098da	0.20370808
199	0x3dcf2f27	0.101164155
200	0x3d9db89f	0.07701229
201	0x3e0cd418	0.13752782
202	0xbd09782f	-0.03356188
203	0xbe333984	-0.17502409
204	0xbe43ddcf	-0.19127582
205	0xbe4d3bf9	-0.20042409
206	0xbe6c76a1	-0.23092128
207	0x3d19e801	0.03757477
208	0xbcc53b0d	-0.02407601
209	0x3d3dfa71	0.046381418
210	0x3df9348a	0.12168224
211	0x3e485867	0.19564973
212	0x3dfad7a7	0.12248164
213	0xbc15ea9b	-0.009150173
214	0x3b816003	0.003948213
215	0xbe724b70	-0.2366159
216	0xbeb20ffe	-0.34777826
217	0xbe5806ee	-0.21096393
218	0xbeab5933	-0.3346649
219	0xbe772340	-0.2413454
220	0xbc8f2e28	-0.017478064
221	0xbd30150b	-0.04298882
222	0x3d35b8ac	0.04436557
223	0x3e3d467a	0.18483916
224	0x3e5368c8	0.2064544
225	0x3cbd5e3d	0.023116225
226	0x3d22c4bf	0.039738413
227	0xbda20502	-0.079111114
228	0xbcad762d	-0.021174515
229	0xbdf919e8	-0.12163144
230	0xbe7c42cb	-0.24634854
231	0xbe21913d	-0.1577806
232	0xbe0fa9b4	-0.1402958
233	0xbe3a998e	-0.18222639
234	0x3cd0e6a1	0.025500597
235	0x3da10ced	0.078637935
236	0x3d8bab88	0.06819826
237	0x3e678ab0	0.22611499
238	0x3e7ca47a	0.24672118
239	0x3e834b82	0.25643545
240	0x3f03a7b8	0.51427794
241	0x3ef9302d	0.48669568
242	0x3e82d828	0.2555554
243	0x3ea85569	0.32877663
244	0x3e6273dd	0.22114511
245	0x3e98a338	0.29812026
246	0x3ea6f0b8	0.3260553
247	0x3e0443a3	0.12916426
248	0xbd1e8fc1	-0.038711313
249	0x3c9b61fc	0.018967621
250	0xbe49d6aa	-0.19710794
251	0xbe172050	-0.1475842
252	0xbe239607	-0.159752
253	0xbe61bce2	-0.2204471
254	0xbe99db6f	-0.30050227
255	0xbeb7005c	-0.35742462

_orig_mod.encoder.batchnorm1.weight f4 [8]
0	0x3f862819	1.0480987
1	0x3f030477	0.5117869
2	0x3f7d14d7	0.98859924
3	0x3f45cc79	0.77265126
4	0x3f4b47f7	0.79406685
5	0x3fa7bd7f	1.3104705
6	0x3f5fa867	0.87366337
7	0x3f8a051c	1.0782809

_orig_mod.encoder.batchnorm1.bias f4 [8]
0	0xbd4c2187	-0.04983666
1	0xbdf87347	-0.121313624
2	0x3e570c18	0.21000707
3	0x3ddf1b15	0.10893837
4	0x3ec5f98d	0.38666955
5	0x3e80ea4d	0.25178757
6	0x3db2ebc7	0.08736377
7	0x3e1721cd	0.14758988

_orig_mod.encoder.batchnorm1.running_mean f4 [8]
0	0x384baa35	4.855749e-05
1	0x3ae8405d	0.0017719377
2	0x3a16014d	0.000572224
3	0xb9877c24	-0.00025841699
4	0x37b62755	2.1714406e-05
5	0x38f081a6	0.00011468241
6	0xb803f589	-3.1461506e-05
7	0x392bc746	0.00016382066

_orig_mod.encoder.batchnorm1.running_var f4 [8]
0	0x3ee67d5f	0.45017526
1	0x40eea643	7.4577956
2	0x4030a75f	2.7602155
3	0x40455a6f	3.0836446
4	0x3f693767	0.9110016
5	0x3f0ed868	0.5579896
6	0x3fcfb14f	1.6225985
7	0x40ee6f3e	7.4510794

_orig_mod.encoder.conv2.weight f4 [16, 1, 93, 1]
0	0xbb7cc20a	-0.0038567805
1	0x3d0ff0ff	0.03514194
2	0xbc8d65b5	-0.017260412
3	0xbdb77f61	-0.089598425
4	0x3d2b076a	0.041755117
5	0x3c873b13	0.016507661
6	0x3d1784fe	0.036992066
7	0xbd0ce387	-0.034396674
8	0x3c7a5b96	0.015280625
9	0x3ccde709	0.02513458
10	0x3a8194cd	0.0009886265
11	0xbda8f0b1	-0.08249033
12	0xbdad88b8	-0.08473343
13	0xbd0c10ea	-0.034195818
14	0x3d2d3050	0.042282403
15	0x3d7c4bb1	0.061595622
16	0x3d894384	0.06702331
17	0x3ca27b6f	0.019834248
18	0xbd7432da	-0.05961881
19	0xbd758205	-0.05993845
20	0xbc21bc21	-0.009871514
21	0x3d8bb3b8	0.06821388
22	0x3d828a2e	0.06374012
23	0x3c3d1966	0.0115417
24	0x3e24993c	0.1607408
25	0x3e30ce1e	0.17266127
26	0x3cff4ddb	0.031165054
27	0x3d2aee60	0.04173124
28	0xbbf6ea44	-0.007535251
29	0x3ce28865	0.027652929
30	0x3dc50dc5	0.09621767
31	0x3b9ed348	0.004846964
32	0x3cf72b00	0.030171871
33	0x3dfe926e	0.12430273
34	0x3e033161	0.12811805
35	0x3e0973e7	0.1342312
36	0x3e4278b3	0.18991356
37	0x3e2d9e62	0.1695495
38	0x3df21c4c	0.118218035
39	0x3dcc5d50	0.099787354
40	0x3dade2fa	0.08490558
41	0x3e53fdd6	0.207023
42	0x3e662c79	0.22477902
43	0x3e1aaada	0.15104237
44	0x3e1ba9db	0.15201513
45	0x3c21fbe7	0.009886718
46	0xbd5e5ff8	-0.05429074
47	0x3dcc3b49	0.09972245
48	0x3d824652	0.06361069
49	0x3e3f98e4	0.18710667
50	0x3c812dfc	0.015768997
51	0xbe84d0fa	-0.25940686
52	0x3d230709	0.03980163
53	0x3e74b2a4	0.23896271
54	0xbe31a8a1	-0.17349483
55	0x3c97a2f1	0.018510314
56	0xbe5526a6	-0.20815524
57	0x3ba9210d	0.0051614107
58	0xbd8c7a79	-0.06859297
59	0xbddebe67	-0.1087616
60	0xbe05be33	-0.13060836
61	0xbdb5259c	-0.08845064
62	0xbe0a1ca4	-0.13487488
63	0xbe461426	-0.19343624
64	0xbd8cb3ea	-0.068702534
65	0xbe2a52b6	-0.16633114
66	0xbe12d5e2	-0.14339402
67	0x3dbf4b7e	0.09340571
68	0x3d28e42a	0.04123322
69	0x3c453610	0.012036815
70	0xbc88f3e9	-0.016717868
71	0xbdef13fa	-0.11673732
72	0xbe3c861c	-0.18410534
73	0xbdf19fbd	-0.11798046
74	0xbd86a25e	-0.06573938
75	0x3cbb6c97	0.022878928
76	0x3d3b4ed8	0.045729488
77	0x3c198035	0.009368946
78	0x3aeeff8e	0.001823412
79	0xbbdd8ce7	-0.0067611816
80	0x3d2eb24f	0.042650517
81	0xbe3192d3	-0.17341165
82	0x3d0e9ac7	0.034815576
83	0x3d885874	0.06657496
84	0x3dee1bf5	0.11626426
85	0x3d5f9a01	0.05459023
86	0x3d997c92	0.07494463
87	0x3d957142	0.07296993
88	0x3e40805a	0.18798962
89	0x3d953c3b	0.07286879
90	0xbc811640	-0.01575768
91	0x3c889176	0.016670924
92	0xbce8c7d8	-0.028415605
93	0x3a9291e8	0.00111824
94	0x3a8d52c6	0.0010782115
95	0x3c4586b9	0.012056046
96	0xbc9d1ab2	-0.019177768
97	0x3c7244f1	0.014786945
98	0x3c4f23c3	0.012642804
99	0xbc0b8e09	-0.008517751
100	0xbc026ff2	-0.00796126
101	0xbb65631f	-0.0035001708
102	0xbb606dbc	-0.0034245094
103	0x3b124483	0.0022318668
104	0x3babed8e	0.0052468246
105	0xbcb64778	-0.022250876
106	0x3bf80d1d	0.0075699226
107	0x3a929e2a	0.0011186053
108	0xbc8ccb63	-0.017186826
109	0x3bc4ad60	0.006002113
110	0xbb00a550	-0.0019629784
111	0xbc17f879	-0.009275549
112	0xbc8d0940	-0.017216325
113	0x3c480a1b	0.012209441
114	0x3c791367	0.01520238
115	0xbbcb57e7	-0.006205547
116	0xbbdf24ac	-0.0068097916
117	0xbc3dd182	-0.011585595
118	0x3c91df92	0.017806802
119	0xbb990300	-0.004669547
120	0xbb985974	-0.0046493355
121	0xbc553e9e	-0.013015417
122	0x3dab9d39	0.08379597
123	0xbc35a492	-0.0110866
124	0xbd8b0e58	-0.06789845
125	0xbcdf5e26	-0.027266573
126	0x3d28607d	0.041107643
127	0xbc0df314	-0.008663911
128	0x3c0709c0	0.008242071
129	0x3bdc1407	0.0067162546
130	0x3c9896fa	0.018626679
131	0xbc4f8c6c	-0.0126677565
132	0x3dd64b3c	0.104635686
133	0x3d1d9da3	0.038480412
134	0xbc62257b	-0.013802881
135	0x3d4a4c2f	0.04938906
136	0x3bbe612a	0.0058099227
137	0x3b959046	0.004564318
138	0xbc88d83d	-0.016704673
139	0xbad3dd2f	-0.001616394
140	0xbba601fb	-0.005066154
141	0xbbd1ce04	-0.006402733
142	0x3c5834f9	0.013196223
143	0xbe439650	-0.19100308
144	0x3cab7af2	0.020932648
145	0x3eddddb5	0.43333212
146	0xbc3c8a5b	-0.011507596
147	0x3cb43ef8	0.022002682
148	0xbae9e856	-0.0017845731
149	0x3d0ec2b6	0.03485366
150	0xbb064eee	-0.0020493823
151	0x3c690e25	0.014224564
152	0xbc8c5d1b	-0.01713424
153	0xbc7cc0ea	-0.015426854
154	0x3dc4b6d0	0.09605181
155	0x3de6818c	0.11255178
156	0xbda561be	-0.080752835
157	0xbd83244e	-0.06403409
158	0xbd097b88	-0.033565074
159	0xbc0898fb	-0.008337255
160	0x3db8f2a7	0.09030657
161	0x3c2a3a3f	0.0103898635
162	0xbe2d849d	-0.16945119
163	0xbdab90f6	-0.083772585
164	0xbd0a9980	-0.033837795
165	0xbe3260be	-0.17419717
166	0xbe25811a	-0.1616253
167	0xbc08ead2	-0.008356767
168	0xbe7f980c	-0.24960345
169	0xbe033396	-0.12812647
170	0xbe8969d7	-0.26838562
171	0xb9ab483b	-0.00032669478
172	0x3e935aa5	0.28780094
173	0x3eb728bf	0.35773274
174	0x3e49847f	0.1967945
175	0xbdad4804	-0.084610015
176	0xbe41e2c2	-0.18934157
177	0x3c32ed41	0.010920824
178	0xbb143a38	-0.002261771
179	0xbe48d75a	-0.196134
180	0xb91ea0d9	-0.00015127975
181	0x3eb196af	0.34685275
182	0x3d012c89	0.031536613
183	0x3c19ce2c	0.009387534
184	0xbc01e535	-0.007928182
185	0xba91c0d8	-0.0011120094
186	0x3ab705f0	0.0013963562
187	0x3bc6efa3	0.0060710474
188	0x3bb3c6e6	0.005486357
189	0xbb1e4c23	-0.0024154268
190	0xbd074926	-0.033028744
191	0x3c019a94	0.007910389
192	0x3b4ea3fb	0.0031530845
193	0x3ba090ef	0.00490009
194	0x3c950dc3	0.018195039
195	0x399103cd	0.00027659387
196	0x3c9831a0	0.01857835
197	0xbd10e8fc	-0.03537844
198	0xbd256d5d	-0.0403875
199	0xbc527c31	-0.012846992
200	0xbd3db5e1	-0.04631603
201	0xbd0ccc72	-0.03437466
202	0xbd12d856	-0.035850845
203	0xbcaaf961	-0.020870866
204	0x3cc71c23	0.024305409
205	0xbcdf9ba2	-0.027295891
206	0xbcd25085	-0.02567316
207	0xbcf0a406	-0.029375087
208	0xbca25387	-0.01981522
209	0xbd6d283a	-0.05789969
210	0x3c8936fe	0.016749855
211	0xbbf3f1cd	-0.0074445964
212	0xbc0c47eb	-0.008562068
213	0xbd46ada3	-0.048505437
214	0xbd141a1d	-0.036157716
215	0x3cf41d43	0.02979911
216	0x3d4da7e8	0.050208956
217	0x3d26d609	0.040731464
218	0xbd7737df	-0.060356017
219	0xbcc8646c	-0.024461947
220	0x3d8bbe15	0.06823365
221	0xbca65838	-0.020305738
222	0x3c653e69	0.0139919305
223	0x3c05675b	0.008142318
224	0xbbb635cc	-0.0055606123
225	0xbc7a2814	-0.015268344
226	0x3c8e94cd	0.017404938
227	0x3c99463e	0.018710252
228	0x3d706d5f	0.058698054
229	0x3c8f27aa	0.017474968
230	0x3e2aee07	0.16692363
231	0x3da15e2f	0.07879292
232	0x3a553a1d	0.0008133965
233	0x3e0476dd	0.12935968
234	0x3e01e397	0.12684475
235	0x3e84c2dc	0.25929916
236	0x3da32461	0.07965923
237	0xbd87de26	-0.06634168
238	0xbdcb997f	-0.099413864
239	0x3e43ed36	0.19133458
240	0x3b0ed58b	0.0021794762
241	0x3dd60dcd	0.10451851
242	0xbdab57e3	-0.083663724
243	0xbd4675fb	-0.04845236
244	0x3d85e408	0.06537634
245	0x3ed57480	0.41690445
246	0xbde6298a	-0.11238392
247	0xbdbacd70	-0.09121215
248	0xbeba07ec	-0.3633417
249	0xbe2f8369	-0.17139973
250	0x3e9cc6f5	0.30620542
251	0xbd245273	-0.040117692
252	0xbd312877	-0.04325148
253	0x3cd213ce	0.02564421
254	0xbd0f224f	-0.03494483
255	0x3cdde2d6	0.027085703

_orig_mod.encoder.batchnorm2.weight f4 [16]
0	0x40819123	4.048967
1	0x4082ebec	4.091299
2	0x3eb2c966	0.3491928
3	0x3e503378	0.20332134
4	0x408df0b6	4.4356337
5	0x4078e14f	3.8887517
6	0x4082e01d	4.0898576
7	0x40a8b63b	5.272245
8	0x408294ac	4.0806484
9	0x4091ad60	4.552414
10	0x409379dd	4.608626
11	0x409659d1	4.698464
12	0x4081cb6a	4.056081
13	0x408d06df	4.4070888
14	0x4090d20a	4.5256395
15	0x3fbd58c4	1.4792714

_orig_mod.encoder.batchnorm2.bias f4 [16]
0	0xbffd77ef	-1.9802226
1	0xc003d67b	-2.0599658
2	0x3d566c77	0.052349534
3	0x3ca8945d	0.020578558
4	0xc05d3158	-3.4561367
5	0xc0192ab9	-2.3932326
6	0xbf6ade9b	-0.9174592
7	0xc0190c1d	-2.3913643
8	0xbfcd9a1d	-1.6062657
9	0xc01d1cd4	-2.4548845
10	0xbffa1c89	-1.9539958
11	0xbfa82f17	-1.3139371
12	0xc000f040	-2.0146637
13	0xc00f058c	-2.2347136
14	0xbf45af8e	-0.77221
15	0xbd905a58	-0.07048482

_orig_mod.encoder.batchnorm2.running_mean f4 [16]
0	0xbd978bbd	-0.073997
1	0xb80c0a51	-3.338821e-05
2	0x3c5cd5da	0.013478721
3	0xbccd6cc1	-0.025076272
4	0x3dc9e6fd	0.09858511
5	0xbd87abab	-0.0662454
6	0x3ce3beab	0.027800879
7	0x3f024dca	0.50899947
8	0x3e0c2398	0.13685453
9	0x3f45d4c2	0.7727777
10	0xbcb9e255	-0.022690931
11	0x3bd451c5	0.0064794743
12	0xbd58c15d	-0.05291878
13	0xbcfb93af	-0.03071007
14	0x3d51075a	0.0510324
15	0xbdd25947	-0.102709346

_orig_mod.encoder.batchnorm2.running_var f4 [16]
0	0x406ae0fc	3.669982
1	0x3e510907	0.204136
2	0x3e8ba3e1	0.27273467
3	0x3ee0ab53	0.4388071
4	0x3fe657ce	1.7995546
5	0x3f40b697	0.7527861
6	0x3f44f9d3	0.769437
7	0x3fa18663	1.2619137
8	0x3fc26aa4	1.5188794
9	0x3ecce3be	0.40017503
10	0x400912ee	2.1417804
11	0x3f958a43	1.1682819
12	0x3ebe19a1	0.37128928
13	0x3ec90d70	0.39268064
14	0x3f95b669	1.1696292
15	0x40518e05	3.2742932

_orig_mod.encoder.sepconv3.depthwise.weight f4 [16, 1, 1, 16]
0	0x3ea81c60	0.32834148
1	0x3e31e4ab	0.17372386
2	0x3dad0e1c	0.08449957
3	0xbd3f9cf7	-0.046780553
4	0x3da91532	0.08255996
5	0x3d2de7f5	0.04245754
6	0x3e11b059	0.14227428
7	0x3e187130	0.14886928
8	0x3e154a47	0.14579116
9	0x3dba20d9	0.090882964
10	0x3d8b1ed1	0.06792987
11	0xbcade29c	-0.02122622
12	0x3dc0c601	0.09412766
13	0x3c21da5f	0.009878724
14	0x3e38b2b6	0.18036923
15	0x3e90fbdc	0.28317153
16	0xbee77031	-0.45202783
17	0xbd89aa68	-0.067219555
18	0xbc7bf298	-0.015377663
19	0xbd285d52	-0.041104622
20	0xbbea0bc3	-0.0071425154
21	0xbdc7d409	-0.09757239
22	0xbc43dd4b	-0.011954616
23	0xbe594084	-0.21216017
24	0xbe125040	-0.14288425
25	0xbd8fee54	-0.07027879
26	0xbd0d8fca	-0.034560956
27	0xbd23ee59	-0.040022228
28	0xbb00790b	-0.0019603397
29	0xbdb6f4e9	-0.08933432
30	0xbd831872	-0.06401147
31	0xbec5e37f	-0.38650128
32	0x3e3fc201	0.1872635
33	0xbcf9a0aa	-0.030472118
34	0x3e562c64	0.20915371
35	0xbd95ea56	-0.07320087
36	0x3ebaaa44	0.36458027
37	0x3deef7ac	0.116683334
38	0xbd5524c9	-0.052037034
39	0xbe937464	-0.28799736
40	0xbdf6fcf9	-0.120599695
41	0xbefae324	-0.4900142
42	0xbf0eecb6	-0.5582994
43	0xbf303a06	-0.68838537
44	0xbf27e3ab	-0.6558177
45	0xbf303d31	-0.6884337
46	0xbf0d91a7	-0.5530037
47	0xbedbed01	-0.42954257
48	0x3baab360	0.0052093714
49	0x3eac8769	0.3369706
50	0x3e8a72ed	0.27040806
51	0x3e6cfd40	0.23143482
52	0x3e0487fe	0.12942502
53	0x3ca75d70	0.020430297
54	0xbe1cd6cf	-0.15316318
55	0xbf06d362	-0.52666295
56	0xbee3e77c	-0.44512546
57	0xbf120a5d	-0.57047063
58	0xbf356742	-0.70860684
59	0xbf730dd0	-0.9494295
60	0xbf7fa9c8	-0.9986844
61	0xbf777639	-0.9666477
62	0xbf50500c	-0.8137214
63	0xbf088d37	-0.53340477
64	0xbeffdab1	-0.49971536
65	0x3ea2ad37	0.31772777
66	0xbe208c74	-0.15678579
67	0x3ecd42a0	0.40089893
68	0xbde5a040	-0.11212206
69	0xbe34e911	-0.17667033
70	0xbded1352	-0.11575951
71	0x3e8a8a49	0.27058628
72	0xbeab6314	-0.33474028
73	0xbe5515c0	-0.20809078
74	0x3edb1170	0.4278674
75	0xbe0cd180	-0.13751793
76	0xbe5728da	-0.21011677
77	0x3d9b92a6	0.0759633
78	0x3ec57fc4	0.3857404
79	0xbee838d7	-0.45355865
80	0xbe878f58	-0.2647655
81	0xbe09a2a1	-0.13440944
82	0xbd62355b	-0.055226665
83	0xbd7a05e7	-0.061040785
84	0xbd2ebed3	-0.042662453
85	0xbd641e90	-0.05569321
86	0xbdc0d9d3	-0.09416547
87	0xbdc9ecba	-0.09859605
88	0xbdc282cc	-0.09497604
89	0xbd806529	-0.06269295
90	0xbd0c9634	-0.034322932
91	0xbcfc3331	-0.030786129
92	0xbca1feb8	-0.01977478
93	0xbd2425f2	-0.04007525
94	0xbe0246ff	-0.12722395
95	0xbe9e24ef	-0.30887553
96	0xbeba68bc	-0.3640803
97	0x3e8406d6	0.25786465
98	0xbed6da15	-0.41963258
99	0x3ee6a1c2	0.45045286
100	0xbba45425	-0.0050149136
101	0xbe120ade	-0.14261958
102	0xbd8e270a	-0.0694104
103	0xbdc7ccf6	-0.0975589
104	0x3e0be8f2	0.1366308
105	0xbdc0acd3	-0.094079636
106	0xbeaad36e	-0.33364433
107	0x3ee4b65a	0.44670373
108	0x3d14153a	0.036153056
109	0xbe8ba83c	-0.2727679
110	0x3daba570	0.08381164
111	0xbe855bc9	-0.2604659
112	0xbe50cfb5	-0.20391734
113	0xbdb8cea7	-0.09023791
114	0xbd3f80ef	-0.04675382
115	0xbcc3c256	-0.023896378
116	0xbc6e334e	-0.014538599
117	0xbcad88a0	-0.021183312
118	0xbd79823e	-0.060915224
119	0xbda8ee16	-0.08248536
120	0xbd9a558e	-0.075358495
121	0xbd82220d	-0.06354151
122	0xbd27c744	-0.04096152
123	0xbc792ed6	-0.01520892
124	0xbcbff321	-0.023431363
125	0xbd77c53d	-0.060490835
126	0xbde578bf	-0.11204671
127	0xbe3ee8d9	-0.18643512
128	0x3ebc8011	0.36816457
129	0x3e22e3a7	0.15907155
130	0xbe009798	-0.12557828
131	0x3e0eabb7	0.13932692
132	0xbdf47d79	-0.119379945
133	0x3d52e0f5	0.051484067
134	0x3d209a61	0.039209727
135	0x3e70136a	0.23444906
136	0x3df24550	0.118296266
137	0x3e09b1bf	0.13446711
138	0xbcbf3772	-0.023341868
139	0xbda78a0c	-0.08180627
140	0x3db4f651	0.088360436
141	0xbdb7035a	-0.08936186
142	0x3e0b6f20	0.1361661
143	0x3ea770f9	0.3270338
144	0x3e899b91	0.268765
145	0x3e23fb27	0.16013776
146	0x3daf8eaf	0.085721366
147	0x3db830b5	0.08993665
148	0x3d8d806c	0.0690926
149	0x3d8c5732	0.06852569
150	0x3d328926	0.043587826
151	0x3db3da06	0.08781819
152	0x3da08a3a	0.078388646
153	0x3d7f1114	0.062272146
154	0x3d92b1be	0.07162808
155	0x3d54f367	0.05198994
156	0x3d967e4e	0.073483095
157	0x3ddaca9d	0.10683177
158	0x3e114849	0.14187731
159	0x3e805d45	0.2507116
160	0xbe522ec3	-0.2052565
161	0xbe09cff7	-0.13458239
162	0xbdab159c	-0.08353731
163	0xbd926e02	-0.071498886
164	0xbd2e72f6	-0.042590104
165	0xbda0723b	-0.07834288
166	0xbd20d69f	-0.03926718
167	0xbd8c17b9	-0.06840462
168	0xbd238033	-0.039917182
169	0xbd601c8e	-0.054714732
170	0xbd8ceeb7	-0.06881469
171	0xbd02f71d	-0.031973947
172	0xbd9002fd	-0.0703182
173	0xbd892996	-0.06697385
174	0xbdee5b50	-0.1163851
175	0xbe4a5b5b	-0.19761412
176	0x3eb80871	0.3594394
177	0x3dfe8074	0.12426844
178	0xbe1e7b3f	-0.15476702
179	0xbdc49a3d	-0.09599731
180	0xbdbeb047	-0.09310966
181	0x3e78c892	0.24295262
182	0xbe338418	-0.17530859
183	0x3e60d9f2	0.2195814
184	0x3e4ce712	0.20010021
185	0x3e79438e	0.24342176
186	0xbe7a933a	-0.24470225
187	0x3ab0f689	0.0013501208
188	0xbe8852cd	-0.26625672
189	0x3e81f0dd	0.25379077
190	0xbd47375d	-0.048636783
191	0x3ebb5c0f	0.36593673
192	0x3edbf9a8	0.4296391
193	0xbe4eeab5	-0.20206721
194	0x3cf081fe	0.02935886
195	0x3e0678df	0.13132046
196	0xbde9462b	-0.113903366
197	0x3e4e2e29	0.20134796
198	0xbe80a44f	-0.25125358
199	0x3eb401a4	0.35157502
200	0x3e53bdec	0.20677918
201	0xbdfbabef	-0.12288653
202	0xb9caa2d8	-0.0003864977
203	0x3e63217f	0.22180746
204	0xbe889e5d	-0.26683322
205	0x3e8013c0	0.25015068
206	0xbe5c909c	-0.21539539
207	0x3ed66a58	0.4187801
208	0x3e656454	0.22401553
209	0x3ded0fa4	0.11575249
210	0x3d67c93b	0.056588393
211	0x3d0e1e2c	0.034696743
212	0x3d3a72e1	0.045519713
213	0x3d50e71e	0.05100166
214	0x3db36186	0.087588355
215	0x3dff3ca6	0.1246274
216	0x3de9c37f	0.11414241
217	0x3dd919ce	0.10600625
218	0x3d8eb2f0	0.06967723
219	0x3d325939	0.04354212
220	0x3d2426f9	0.04007623
221	0x3d3dea50	0.046366036
222	0x3dc49b56	0.095999405
223	0x3e78ab65	0.24284132
224	0xbe99d74e	-0.30047077
225	0xbe0a5fca	-0.13513103
226	0x3ecbb988	0.39789987
227	0xbd1b38b9	-0.03789589
228	0xbdb66229	-0.08905441
229	0xbe79231d	-0.24329801
230	0x3edba3a7	0.42898294
231	0xbe9be1b0	-0.30445623
232	0xbe637b9c	-0.22215122
233	0xbc5c3d51	-0.013442353
234	0x3e113303	0.14179616
235	0x3e88c64d	0.2671379
236	0xbe563498	-0.209185
237	0xbe78ba48	-0.2428981
238	0x3ed076e0	0.40715694
239	0xbebba3b5	-0.36648336
240	0x3e20e77a	0.15713301
241	0xbe775a2d	-0.24155493
242	0xbe8d1fee	-0.27563423
243	0x3e8ef44d	0.27920762
244	0xbe20a562	-0.15688089
245	0x3ec18c07	0.37802145
246	0xbef44ec7	-0.47716352
247	0xbee4b828	-0.4467175
248	0x3eee684c	0.46563947
249	0x3ee34713	0.44390163
250	0xbeee2f87	-0.46520635
251	0x3e9f910a	0.31165344
252	0xbd802b30	-0.06258237
253	0x3e6c2e36	0.23064503
254	0xbeb0f35a	-0.34560663
255	0xbde6213a	-0.11236806

_orig_mod.encoder.sepconv3.pointwise.weight f4 [16, 16, 1, 1]
0	0x3e6de7cf	0.23232959
1	0x3ee5e59c	0.4490174
2	0xbedbfc2b	-0.42965826
3	0xbdeef27d	-0.11667345
4	0xbd333db6	-0.043760024
5	0xbe99f248	-0.30067658
6	0xbcd6088d	-0.026127124
7	0xbbff4f98	-0.0077914707
8	0xbd44f75d	-0.048087467
9	0xbf5ce9e7	-0.86294407
10	0xbe058812	-0.13040188
11	0x3e59f3a0	0.21284342
12	0x3ca7356e	0.02041122
13	0x3d9f26b1	0.07771052
14	0xbda485ed	-0.08033357
15	0xbe0e03da	-0.13868657
16	0x3f11c154	0.5693562
17	0x3e067f64	0.13134533
18	0x3f818f97	1.0121945
19	0xbe7e36a6	-0.24825534
20	0xbd2fdfc8	-0.042938024
21	0xbd2a8a55	-0.04163583
22	0xbd27a312	-0.040927
23	0x3d929df9	0.07159037
24	0xbe2bcaff	-0.16776656
25	0xbdb1185d	-0.08647225
26	0x3e180f61	0.14849617
27	0xbdc9f81c	-0.09861776
28	0xbcdf7f59	-0.027282404
29	0x3e6b7f77	0.22997843
30	0xbc59dc9d	-0.013297227
31	0xbce6c0fc	-0.028168194
32	0xbe0a8726	-0.13528118
33	0xbe2b441d	-0.16725202
34	0x3fa5303c	1.2905345
35	0x3db8de3a	0.09026761
36	0x3c9d04e3	0.01916737
37	0xbe292a76	-0.16520104
38	0xbcaba7db	-0.020954063
39	0x3d7ef2f2	0.06224341
40	0x3dea3a34	0.114368826
41	0xbe347336	-0.17622074
42	0xbd328b50	-0.04358989
43	0x3d95566b	0.072918735
44	0xbdd2d68e	-0.10294829
45	0xbd560c43	-0.052257787
46	0x3d2c6ca2	0.042095788
47	0x3dcdade6	0.10042934
48	0xbde5fe45	-0.11230139
49	0xbaf1bbf6	-0.0018442858
50	0xbd44c288	-0.048037082
51	0xbefb7af2	-0.49117237
52	0xbf698a3d	-0.9122656
53	0x3d9652a6	0.07339983
54	0x3d5b3ef8	0.05352685
55	0xbc96ca05	-0.018406877
56	0xbd039ae4	-0.032130137
57	0x3bce50c4	0.006296249
58	0xbce3733d	-0.02776491
59	0xbc43da05	-0.011953835
60	0xbd83b072	-0.06430139
61	0xbe223bcd	-0.15843125
62	0x3cdf662e	0.027270403
63	0x3d485ed1	0.04891855
64	0x3da9f922	0.082994714
65	0xbe9fd5a8	-0.31217694
66	0xbe321e39	-0.17394342
67	0xbf64c3ff	-0.89361566
68	0xbd413477	-0.047169175
69	0xbd9f3104	-0.07773021
70	0x398ed6ed	0.00027244483
71	0x3dd9993a	0.10624929
72	0x3dbefaba	0.09325166
73	0xbd3ac679	-0.045599435
74	0x3de0b4f3	0.10972013
75	0xbd698cb9	-0.05701897
76	0xbcc07a0d	-0.023495698
77	0x3e58f286	0.21186265
78	0x3cef53cc	0.029214762
79	0xbdc6deb2	-0.097104445
80	0xbe087745	-0.13326748
81	0x3dbb7804	0.091537505
82	0x3ca75994	0.020428456
83	0x3bc47c73	0.005996281
84	0x3d227055	0.03965791
85	0x3eb23ae6	0.3481056
86	0xbf85b680	-1.044632
87	0x3d992f5f	0.074797384
88	0xbdb0322e	-0.08603321
89	0x3ccaed98	0.024771497
90	0xbd5a6638	-0.05332014
91	0xbd819bea	-0.06328566
92	0xbe2a401c	-0.16626018
93	0x3d31a858	0.043373436
94	0xbc372f00	-0.011180639
95	0x3c4247d5	0.011857946
96	0xbc38aa3d	-0.011271057
97	0x3d899d88	0.067195
98	0x3c8dbc45	0.017301688
99	0x3d427d20	0.04748261
100	0x3d24186f	0.040062364
101	0xbda90001	-0.08251954
102	0x3d146aff	0.036234852
103	0xbc973e83	-0.018462425
104	0xbd676898	-0.056496233
105	0x3ce296ab	0.027659735
106	0x3dd9d804	0.10636905
107	0xbd5919c0	-0.053003073
108	0xbd308bb0	-0.043101966
109	0xbd8ec24a	-0.069706514
110	0x3c67297f	0.0141090145
111	0xbfe24fed	-1.7680641
112	0x3d8308f9	0.06398196
113	0x3d1f8c97	0.038952436
114	0xbe4b833b	-0.19874279
115	0x3ede25b2	0.43388134
116	0x3c64d079	0.013965719
117	0xbc8248b8	-0.015903816
118	0xbdd430ca	-0.10360868
119	0x3da496ee	0.080366
120	0x3e1c082e	0.15237495
121	0x3cda1360	0.026620567
122	0x3f516a03	0.81802386
123	0x3d2e8be5	0.042613883
124	0x3d20f9fe	0.03930091
125	0x3e4aab99	0.19792022
126	0xbca2e519	-0.019884633
127	0xbccea8eb	-0.02522703
128	0x3d0672f2	0.032824464
129	0x3d20bdd0	0.03924352
130	0x3cd3a346	0.02583469
131	0x3f4a75ce	0.79086006
132	0xbf314e0f	-0.6925973
133	0x3caa4999	0.020787047
134	0x3d26273e	0.040564768
135	0xbbbaf52b	-0.005705496
136	0xbd05a069	-0.032623682
137	0x3d2192bc	0.039446577
138	0xbc18d7ae	-0.009328766
139	0xbcb08ca8	-0.021551445
140	0xbdd83ebc	-0.10558841
141	0xbdb6e91f	-0.08931183
142	0x3c8510dd	0.016243393
143	0x3d9964df	0.07489943
144	0x3c8df5d1	0.017329128
145	0xbe149d23	-0.14513068
146	0x3bd6719a	0.006544304
147	0x3e2e84b9	0.17042817
148	0xbca7cb6f	-0.020482747
149	0x3e8e1b8b	0.2775539
150	0x3d5634df	0.052296516
151	0x3dca49a1	0.09877325
152	0xbe3ab373	-0.18232517
153	0xbe7efbc1	-0.24900724
154	0xbcbed52b	-0.023295006
155	0xbd2deebc	-0.042464003
156	0x3f742262	0.95364964
157	0xbdfda312	-0.12384619
158	0x3d8810c5	0.066438235
159	0x3bb65113	0.005563864
160	0xbf27fa93	-0.6561672
161	0xbdc33b34	-0.095327765
162	0x3eccbd8a	0.39988357
163	0xbe669b59	-0.22520198
164	0x3bba6fed	0.005689612
165	0xbd0c8c81	-0.034313682
166	0xbe4f984c	-0.2027294
167	0xbd1ee683	-0.03879405
168	0xbbac1c34	-0.0052523855
169	0x3bd7a534	0.006580973
170	0x3e43c834	0.1911934
171	0x3d9e9c64	0.07744673
172	0x3deadee1	0.11468292
173	0x3c09ccc6	0.008410638
174	0xbe0070cb	-0.12543027
175	0xbf10c76f	-0.5655431
176	0xbd0958d1	-0.033531968
177	0xbe8ee5f7	-0.27909824
178	0xbd0856bf	-0.033285853
179	0x3f829058	1.02003
180	0x3ccd6a45	0.025075087
181	0xbd26b767	-0.04070225
182	0xbd935216	-0.07193391
183	0x3d545607	0.051839855
184	0x3e29cb1f	0.16581391
185	0xbdfcacf4	-0.12337676
186	0xbdae2e2b	-0.085048996
187	0xbbbc1c7f	-0.0057407017
188	0xbe1ea828	-0.15493834
189	0x3df31001	0.11868287
190	0x3d86d50e	0.06583606
191	0x3e0d438c	0.13795298
192	0xbe03ad26	-0.1285902
193	0x3e0f5a94	0.13999397
194	0x3d9640e9	0.073365994
195	0xbd15b31e	-0.036547773
196	0x3d4b02e2	0.049563296
197	0x3c843a50	0.016141087
198	0x3d3f34e0	0.046681285
199	0x3d92f1a0	0.071749926
200	0xbd527635	-0.051382262
201	0x3d8037d9	0.06260652
202	0x3d41425a	0.04718242
203	0x3f841f19	1.032199
204	0xbda8df60	-0.082457304
205	0x3c628c5c	0.01382741
206	0x3d97f1a4	0.07419136
207	0x3d8f4a0a	0.06996544
208	0x3d267a1d	0.0406438
209	0xbe26b818	-0.16281164
210	0xbde685e2	-0.11256005
211	0xbdfcfc1e	-0.12352775
212	0xbdbef062	-0.09323193
213	0xbe13b3b8	-0.14424026
214	0xbe083653	-0.13301973
215	0x3f5bae62	0.8581296
216	0x3dfe51d2	0.1241795
217	0xbbb65fa4	-0.0055656005
218	0x3d81b705	0.06333736
219	0x3d1c066e	0.03809207
220	0xbc7e4fdb	-0.015521969
221	0xbf1a4bcf	-0.60271925
222	0x39061351	0.00012786432
223	0xbb86ad98	-0.0041100495
224	0xbe38a0cb	-0.18030088
225	0x3df76ba2	0.12081076
226	0x3d86ef46	0.065886065
227	0xbcad2319	-0.0211349
228	0x3cca5924	0.024700709
229	0xbdff04e0	-0.12452102
230	0xbb1b898c	-0.0023733107
231	0x3e169df5	0.14708693
232	0x3d0956ee	0.03353017
233	0xbdae301a	-0.085052684
234	0xbe03190e	-0.12802526
235	0xbca1a94a	-0.019734044
236	0xbd057981	-0.03258658
237	0xbd1a64ff	-0.037693974
238	0xbf9b5ae3	-1.2137111
239	0xbcccc9ac	-0.024998508
240	0xbd283b95	-0.041072447
241	0x3ec521fd	0.38502494
242	0x3e873d52	0.2641397
243	0xbe579924	-0.21054512
244	0xbace4874	-0.0015738145
245	0x3e2f3479	0.1710986
246	0xbd8e3515	-0.06943718
247	0xbd76bc19	-0.060237978
248	0x3f43bf0e	0.764634
249	0xbd07f0cb	-0.033188622
250	0x3db3856c	0.087656826
251	0xbd5f1543	-0.054463636
252	0x3de3241b	0.11090871
253	0xbe258e62	-0.16167596
254	0xbda1f0f1	-0.07907284
255	0xbb95b0cd	-0.0045681954

_orig_mod.encoder.batchnorm3.weight f4 [16]
0	0x3f3172f0	0.69316006
1	0x3f33818c	0.7011955
2	0x3f4c3c4d	0.7977951
3	0x3fa4e1af	1.2881373
4	0x3f204053	0.6259815
5	0x3fc012e7	1.5005769
6	0x4004c11a	2.074286
7	0x3f4a0f25	0.7892936
8	0x3f9d5a2d	1.2293144
9	0x3f852b23	1.0403789
10	0x3f81bd63	1.0135921
11	0x3f313126	0.6921562
12	0x3f5e3f04	0.86814904
13	0x3f558acd	0.8341492
14	0x3fb8cc45	1.4437338
15	0x3f5778d6	0.84168756

_orig_mod.encoder.batchnorm3.bias f4 [16]
0	0xbda6c85a	-0.08143683
1	0xbd2104b5	-0.03931113
2	0xbde956ea	-0.11393531
3	0xbe30cccf	-0.17265628
4	0xbb89718f	-0.0041944454
5	0xbe5f8c8f	-0.21830963
6	0xbf1484f9	-0.580154
7	0xbded9387	-0.11600404
8	0xbe469016	-0.19390902
9	0xbe2522db	-0.16126578
10	0xbe6960b5	-0.22790797
11	0xbd5a826e	-0.053347044
12	0xbd50aa05	-0.050943393
13	0xbe325bcd	-0.17417832
14	0xbe509269	-0.20368351
15	0xbdaf11fe	-0.085483536

_orig_mod.encoder.batchnorm3.running_mean f4 [16]
0	0x3e3a0639	0.18166436
1	0xbe8dd3a3	-0.27700529
2	0xbeb1ca30	-0.3472457
3	0xbd95255b	-0.072825156
4	0x3e3299c7	0.17441474
5	0x3ea30eff	0.3184738
6	0x3b4ad344	0.0030948678
7	0xbd239727	-0.039939072
8	0xbe89d7b5	-0.26922384
9	0xbd55d9ef	-0.05220979
10	0x3db2daba	0.08733125
11	0xbdec57a2	-0.11540152
12	0x3e9d11ed	0.3067774
13	0xbe5437e3	-0.20724444
14	0x3ec83fb0	0.3911109
15	0x3de2afbe	0.110686764

_orig_mod.encoder.batchnorm3.running_var f4 [16]
0	0x40991ae9	4.784535
1	0x40519f6a	3.2753549
2	0x4053b336	3.3078132
3	0x40e6fd9a	7.218457
4	0x3fe2ebcf	1.7728213
5	0x411d027f	9.813109
6	0x40fe89a1	7.9543004
7	0x401ac071	2.4179957
8	0x40979a87	4.737613
9	0x40aa5e4b	5.3240104
10	0x4065e15c	3.5918798
11	0x400e76c5	2.225999
12	0x410224a6	8.133947
13	0x407775b1	3.8665583
14	0x417a5466	15.645605
15	0x405a1256	3.4073691

_orig_mod.Dense.weight f4 [64, 240]
0	0xbc46d34b	-0.012135337
1	0xbbcc5c36	-0.0062365783
2	0x3b9a1e7b	0.0047033406
3	0xbc6c78b9	-0.014433079
4	0xbbf698e4	-0.00752555
5	0x3c314cd6	0.010821542
6	0xbc84ab4d	-0.016194964
7	0xbc47375f	-0.012159198
8	0xbceb225f	-0.028702913
9	0xbc50df82	-0.012748601
10	0xbcde5c5c	-0.02714365
11	0xbb3e2be0	-0.002901785
12	0x3ba5c671	0.0050590564
13	0xbc51201b	-0.012764002
14	0xbc040d4a	-0.008059809
15	0xbcb7384b	-0.02236571
16	0xbb7da2e5	-0.003870183
17	0xbc950c3e	-0.018194314
18	0x3b9bb345	0.004751595
19	0xbc5be95c	-0.013422336
20	0xbc1d2926	-0.00959233
21	0xba189168	-0.0005820007
22	0xbd0101b2	-0.031495757
23	0x3baffea7	0.005370933
24	0x3cffc293	0.03122071
25	0x3c112cc7	0.008860773
26	0xbc812faf	-0.015769808
27	0xbc125841	-0.008932174
28	0xbc4f28c2	-0.012643995
29	0xbcead8eb	-0.028667888
30	0x3c406a1f	0.011744051
31	0x3ca90338	0.020631418
32	0xbc268a40	-0.010164797
33	0x3b7582f4	0.0037462087
34	0xbb964622	-0.004585997
35	0xbc8c57a5	-0.017131636
36	0xbaecd4fe	-0.0018068848
37	0xbcdbfc7b	-0.02685379
38	0x3bc98453	0.0061498075
39	0x3d02cbed	0.03193276
40	0x3c4e1797	0.012578866
41	0xbc150b02	-0.009096863
42	0xbc5b08ea	-0.0133688245
43	0x3b4fda97	0.0031715983
44	0x3bbff661	0.005858228
45	0xbc8dbeaa	-0.01730283
46	0x3cb950d6	0.022621553
47	0x3c08ef1e	0.008357791
48	0x3cc7f8d9	0.024410652
49	0x3cc6c524	0.024263926
50	0x3cb6ece0	0.022329748
51	0x3c0c8eed	0.008578998
52	0x3c8c649a	0.017137814
53	0x3becca8c	0.007226294
54	0x3aae2b0d	0.0013287977
55	0xbb3580b8	-0.002769513
56	0x3afa6ae4	0.0019105342
57	0x3c1e246a	0.0096522365
58	0x3c1d2f76	0.009593835
59	0x39f92b36	0.00047525176
60	0xbd1f0b90	-0.038829386
61	0xbbadeed5	-0.005308012
62	0x3be27e0f	0.006912
63	0xbc182c07	-0.009287841
64	0x3cb038f7	0.021511538
65	0x3c3d991c	0.011572149
66	0xbc2e27d4	-0.010629613
67	0x3b865d32	0.004100465
68	0xbba4f599	-0.0050341603
69	0xbce69f15	-0.028152028
70	0xbcb8e1cf	-0.022568611
71	0xbcfe883d	-0.031070823
72	0x39f9afdc	0.00047624006
73	0xbc83211a	-0.016006995
74	0xbca21d6a	-0.019789416
75	0x3c2c0ee1	0.010501594
76	0x3c13b69e	0.009015707
77	0xbbc3c81d	-0.005974783
78	0xbc765fd6	-0.0150374975
79	0xbc2207e4	-0.009889577
80	0xbcb03bf5	-0.021512965
81	0xbcef5fee	-0.029220548
82	0xbbf3de0e	-0.0074422425
83	0xbcc91e33	-0.024550533
84	0xbc999e2f	-0.018752186
85	0xbc90d129	-0.01767786
86	0xbd0603c0	-0.03271842
87	0xbc6de660	-0.014520258
88	0x3ad30592	0.0016099683
89	0xbbcb2cd8	-0.006200414
90	0x3ce16ae6	0.027516793
91	0x3cc28940	0.023747087
92	0x3c64ca2e	0.013964219
93	0x3bb6f6a8	0.005583603
94	0x3cff1cb0	0.031141609
95	0x3c8a89e1	0.016911449
96	0x3c5bf18e	0.01342429
97	0x3c3ffde7	0.01171825
98	0x3b6c76ce	0.0036081555
99	0x3c9244dd	0.017855102
100	0x3c66b24b	0.014080594
101	0x3ca19d39	0.01972829
102	0x3cd95892	0.026531491
103	0x3ca920b3	0.020645475
104	0x3cd81519	0.026377248
105	0x3c1a3116	0.009411117
106	0xbce2d534	-0.027689554
107	0xbc47c38c	-0.012192618
108	0xbd14eaa0	-0.03635657
109	0xbd11633b	-0.035495024
110	0xbc9d1448	-0.01917471
111	0xbc7629df	-0.015024631
112	0xbc3c3e26	-0.011489427
113	0xbca6b7f5	-0.02035139
114	0xbd233c78	-0.03985259
115	0xbaa87989	-0.0012853603
116	0xbcab18a2	-0.02088577
117	0xbc84e9ed	-0.016224826
118	0xbb73a7e3	-0.0037178926
119	0xbc67143c	-0.014103945
120	0x3cfcf013	0.030876195
121	0xbb574d4c	-0.003285247
122	0x3c612509	0.01374174
123	0x39105277	0.0001376363
124	0xbb4f7397	-0.003165459
125	0xbb6a8851	-0.0035786817
126	0x3c32be74	0.010909665
127	0xb9c3a7ca	-0.0003731831
128	0x38e5e095	0.000109614026
129	0x3bf73f62	0.0075453976
130	0x3d2604b0	0.040531814
131	0x3cc24f0b	0.023719331
132	0x3c8e35fe	0.01735973
133	0x3a97ba2d	0.001157587
134	0x3c376ec3	0.011195841
135	0xbbe73714	-0.0070561264
136	0xbb915e31	-0.0044362773
137	0xbc81fe77	-0.015868409
138	0xbc996112	-0.018723045
139	0xbc083b4e	-0.008314921
140	0xbcc5f667	-0.024165345
141	0xbc03b1d5	-0.008038004
142	0xbb854ac0	-0.004067749
143	0xbcd18237	-0.025574787
144	0x398b1c53	0.0002653325
145	0xbbc38cac	-0.005967697
146	0xbc8a2387	-0.016862644
147	0xbb10617f	-0.0022030768
148	0xbb8a1043	-0.0042133643
149	0xbc804642	-0.015658502
150	0x3bf57d86	0.00749177
151	0x3beec693	0.0072868555
152	0xbc7f7226	-0.01559118
153	0x3a515323	0.00079851056
154	0xbb12cc6a	-0.0022399672
155	0xbc3a3961	-0.011366219
156	0xbc6004f9	-0.013673061
157	0xbcd783c8	-0.026307955
158	0xbc3a4bda	-0.0113706235
159	0x3c4c11c6	0.012455409
160	0xbae8dcf0	-0.001776604
161	0xbcc871ac	-0.024468265
162	0xbca7d4e9	-0.020487266
163	0xbb576c6e	-0.0032871026
164	0x3c1becfd	0.009516952
165	0x3ca980c5	0.020691285
166	0x3a10a4f8	0.00055177463
167	0xbb91989d	-0.0044432417
168	0xbcabc1ba	-0.0209664
169	0xbd0f54b2	-0.03499288
170	0xbceee34f	-0.029161124
171	0xbc9542ba	-0.018220294
172	0xbcedb3ec	-0.029016457
173	0xbce78488	-0.028261438
174	0xbc891be5	-0.016736934
175	0x3c52b21b	0.012859846
176	0x3c75fec7	0.015014357
177	0x3c28ef59	0.010310971
178	0x3c3e7cf3	0.01162647
179	0xbbe500fd	-0.006988643
180	0x3a82d740	0.0009982362
181	0x3c90c120	0.017670214
182	0xbc18ca35	-0.009325554
183	0xb8eda0ba	-0.00011330978
184	0x3c5204db	0.01281854
185	0x3aad7d04	0.001323611
186	0x3c407a20	0.011747867
187	0xbbfeaa37	-0.007771756
188	0x3c91a12b	0.017777046
189	0x3c2786df	0.010225027
190	0x3cc93735	0.024562458
191	0x3c82e564	0.015978523
192	0x3ba9182d	0.0051603527
193	0x3baa12db	0.005190236
194	0x3cb67612	0.022273097
195	0x3ca4a30d	0.02009728
196	0x3b7893e8	0.0037929956
197	0x3cbed760	0.023296058
198	0x3c3b65ce	0.011437846
199	0x3ca159ce	0.019696143
200	0x3cacc1aa	0.02108844
201	0x3ca12532	0.019671056
202	0x3c249593	0.010045427
203	0x3c2544e3	0.010087225
204	0xbbdd66c1	-0.006756634
205	0xbac2a8ec	-0.0014851368
206	0xbc523104	-0.012829069
207	0xbb20ff81	-0.0024566355
208	0xbc383d74	-0.01124512
209	0xbcc5e501	-0.02415705
210	0x3c30726c	0.010769468
211	0x3c32acd3	0.010905462
212	0x386b649f	5.6122077e-05
213	0x3c80f14c	0.01574006
214	0xbb609430	-0.0034268014
215	0xbac3b374	-0.00149308
216	0xbbc7279e	-0.006077721
217	0xbc214c52	-0.009844856
218	0xbbad14e5	-0.005282032
219	0x3bb774f9	0.005598661
220	0xbbccc468	-0.0062489994
221	0x3a6fda8a	0.00091496913
222	0x3c952099	0.01820402
223	0x3bf99b93	0.007617423
224	0x3c47eb97	0.012202165
225	0x3b94300d	0.0045223297
226	0x3c794373	0.015213835
227	0x3b5c8a21	0.0033651667
228	0xba89689f	-0.001048345
229	0xbbb5a555	-0.0055433908
230	0xbbc7f807	-0.006102565
231	0xbbf2cda2	-0.0074097672
232	0xbc2eda34	-0.010672141
233	0xbab21305	-0.001358599
234	0x3cf60639	0.030032264
235	0x3b0c2714	0.0021385597
236	0xbcadcebe	-0.021216746
237	0xbce03b03	-0.027371889
238	0xbc2ec7f1	-0.010667787
239	0xbc8c0c2d	-0.01709565
240	0x3b445ff2	0.0029964414
241	0x3c635a27	0.013876474
242	0x3c9403c1	0.018068196
243	0x3c31a814	0.010843296
244	0xbb4d45cb	-0.0031322117
245	0xbbee06f2	-0.0072640115
246	0xbc053853	-0.0081311045
247	0x3ca13692	0.019679341
248	0xbbfe0ff1	-0.007753365
249	0x3c12d4e4	0.00896189
250	0x3cafe0c7	0.021469487
251	0x3c8d3dbb	0.01724135
252	0x3a565137	0.0008175554
253	0x3c3c0a00	0.011476994
254	0x3c8187e1	0.015811862
255	0xbcf298be	-0.029613849

_orig_mod.Dense.bias f4 [64]
0	0x3d1e2694	0.03861101
1	0xbd2fc34b	-0.042910855
2	0xbc95e845	-0.018299231
3	0xbb48821d	-0.0030595132
4	0x3c78a271	0.015175448
5	0x3ca3d063	0.019996827
6	0xbc0f4e28	-0.008746661
7	0x3db1d8c4	0.08683923
8	0xbc832e8d	-0.016013408
9	0xbc828f77	-0.01593755
10	0xbc954600	-0.018221855
11	0xbcd61c29	-0.026136475
12	0x3c20e8c3	0.00982112
13	0xbc3b4fd4	-0.011432607
14	0x3c5164d6	0.012780389
15	0xbd3d6c4f	-0.04624587
16	0xbc9f9be5	-0.019483516
17	0x3d08480a	0.033271827
18	0xbcb877d6	-0.02251808
19	0x3c684d22	0.014178546
20	0xbc22f82b	-0.009946863
21	0xbd8334f7	-0.064065866
22	0xbc89296e	-0.016743388
23	0x3c52e4bf	0.01287192
24	0xbc3fa8db	-0.011697973
25	0xbc886dee	-0.016653981
26	0xbd26a9b1	-0.040689174
27	0xbce3d536	-0.027811628
28	0xbc2cee61	-0.010554881
29	0x3d04b4de	0.03239905
30	0xbc3781dd	-0.011200395
31	0xbb503bb0	-0.0031773858
32	0xbd76ca33	-0.060251426
33	0xbc01bb48	-0.0079181865
34	0x3c8615d9	0.01636784
35	0x3d7fe677	0.062475648
36	0xbbcf80be	-0.006332486
37	0xbb65533e	-0.0034992243
38	0x3d4ee111	0.05050761
39	0xbdc0d74e	-0.09416066
40	0x3d476205	0.048677463
41	0xbd43581c	-0.04769145
42	0x3d8e327f	0.06943225
43	0x3c8b25e7	0.016985847
44	0x39631090	0.00021654577
45	0xbcac93eb	-0.021066627
46	0x3c48aaa1	0.012247712
47	0xbd57bacd	-0.05266838
48	0x3d07097f	0.03296804
49	0xbd3b717f	-0.045762535
50	0x3d604340	0.054751635
51	0xbc50ccfc	-0.012744185
52	0x3f22dcc7	0.6361813
53	0x3d694a62	0.056955703
54	0xbc466641	-0.01210934
55	0xbac756e9	-0.0015208396
56	0x3d752d75	0.059857804
57	0x3d358a19	0.044321153
58	0xbc277d52	-0.01022275
59	0xbd26880f	-0.0406571
60	0x3d1c4f14	0.038161352
61	0xbcc780ef	-0.024353473
62	0xbc8ab3f8	-0.016931519
63	0x3d308d70	0.043103635
