4.2_Analysis/Train_Models/model_3/EEGNet_SoftTripleLoss_final.pth (torch, 80779 bytes, 18 tensors)

_orig_mod.encoder.conv1.weight f4 [8, 1, 1, 64]
00000000: 60b4 d4be 46ce 8cbf b4e5 8abf 4664 febd
00000010: d96c 093f de81 9a3f 27f2 d03f 79cc a73f
00000020: b326 433f 1a6e 79bc dbae 46bf 04c6 c6bf
00000030: 180a b8bf fd9e 56bf cca4 4fbe 1473 843f
00000040: 47f4 a53f d375 883f e7be 873e cd8e 60bf
00000050: ff8c 81bf 47bf 36bf b3af 25be 2654 533f
00000060: 2e7c 833f c22d 4c3f c965 be3d acf5 62bf
00000070: efd8 9abf 032a 68bf d243 ccbe 601e 753f
00000080: 689b 423f 4fd7 0c3f bc48 5cbd ada3 b6be
00000090: 421c 0bbf 2710 1abf eb3c edbd 43d8 823e
000000a0: afb3 033f 8a0d 2f3f f692 e53e eafa 463e
000000b0: 3a9d 5bbe f89e cfbe a4a2 bebe 7229 71be
000000c0: 30bf dd3d 8519 213f 6c9a 183f 6157 7b3e
000000d0: d3ac 31be fa4f 2ebf 405f 30bf 581d fbbe
000000e0: c48d a53d 7fdf 1b3f c6c8 2f3f 83f9 963e
000000f0: 00d9 02bf fc84 8fbf 2de0 1dbf 8bc6 a73f
00000100: e1cc 89c0 74ee b2be b0ef 8f3f fd54 563f
00000110: 897d 083e ca12 25bf 70c1 69bf c65b 60bf
00000120: bb0d d7be fd90 3b3d 72fa 693e 514c 923d
00000130: a979 4dbe 5a88 91be 7460 c8be 2903 1cbf
00000140: 5636 dabe 8004 2cbe 9df9 eabd 6a4e 7dbe
00000150: a2f2 303b a74d 48bd 32f0 42be a657 e0be
00000160: 5680 ddbe 0632 47be c9e1 06be 7496 71bc
00000170: 3084 d1bd 210c 93bd e4a8 fabd b017 a3be
00000180: 3f4f a3bd 0203 babd 0e5b e0bd fc14 7d3d
00000190: 93a0 dcbd 1155 08bb 6633 1b3e c2a3 4e3c
000001a0: 1e57 193e ea24 113e 132f 203e 31e2 b03c
000001b0: e82f d13d ddc0 0e3c 14f7 303e 21ba cf3e
000001c0: 8c0f 9a3e a1f7 e23e 9fa5 2e3e 8c36 0d3e
000001d0: b9f7 eebd d1d8 41bd b7cd f93c 9bc1 e73e
000001e0: ddef 6c3f c038 463f 661b 0d3f e283 5cbd
000001f0: 0f32 16bf 882b 48bf e389 1d3f 55fb 7540
00000200: b7f9 56c0 8c19 713d 1871 863f 4968 553f
00000210: 644f 843e d345 23bf 1737 63bf e4e6 34bf
00000220: 046e a3be 20b8 403d 7d5d ff3e 4ae4 2e3f
00000230: 739e 033f 3eb6 a1bc 9b87 afbe 2365 ddbe
00000240: b22d fcbe a008 5abd 16c7 1b3f 8134 3f3f
00000250: 86ca 5d3f 1b7f 8d3e 4be5 c8be 5704 35bf
00000260: eb96 16bf 88d4 f0bd f1cf 023f f9c6 703f
00000270: 4c91 2d3f 79f3 823e 88d8 04bf cf0d 39bf
00000280: ac23 14bf 96c3 60bb 5714 ac3e 10ce 413f
00000290: ef3d 103f 3e3b 113e 0a3c 47be 86de b1be
000002a0: 9ad8 17bf ce4d 5fbe 72d0 bb3e f6a8 123f
000002b0: 769a 3e3f 9f9d 163f 7556 903d 4b46 3cbe
000002c0: ddc4 48be cea7 f3bd d2dc 813c 868e 213f
000002d0: de3a 433f 00ac 003f 32ba 303e 964e 0ebe
000002e0: 5f1b f0be 1c11 1fbf 4fb6 1ebf 1d57 10be
000002f0: be27 413f 7bc4 863f ddcc c13c 7265 3ec0
00000300: fca5 8bbf b0fa 1cbd fe22 a03e 07bb 5c3e
00000310: 0977 57bc 0ecd b4be 5e32 01bf fb47 f0be
00000320: 5a56 3fbe 0aa4 8f3e 35e5 c43e dd7e 833e
00000330: 388b 6e3c e232 b9be 03d3 27bf 7171 b7be
00000340: 2c0c 17be 7937 993e b142 253f bc1e 353f
00000350: 3a70 8a3e eae7 debe e25e 7bbf 96bb c1bf
00000360: d4df c4bf d3ce 72bf e25d c1be a075 e73e
00000370: 588b 883f d337 903f 8678 763f c519 1c3f
00000380: 5330 883e 4aec 8dbe 468a e7be 7ea7 1ebf
00000390: fd34 14bf 0ea8 36bf 7c32 65bf 812a 52bf
000003a0: 335a 31bf feb7 e2be af0a 833e 1f48 683f
000003b0: ca98 c03f c798 0140 fb5d ff3f 4518 cd3f
000003c0: b678 a53f d334 2f3f cd69 ad3d d9c6 c23d
000003d0: 4250 4b3e 6d07 143f 3d0a 493f 2508 043f
000003e0: 8657 5f3d 29b7 84be 2c98 41bf dc00 42bf
000003f0: 2275 24bf d3c2 fbbe 318c 0cbf 9ee0 82bf
-0.41543865 -1.100045 -1.085135 -0.124214694 0.53681713 1.2070882 1.6323899 1.3109275
0.76230925 -0.015224004 -0.7761056 -1.552918 -1.437808 -0.83836347 -0.20277709 1.0347619
1.2965173 1.0660957 0.26512834 -0.87717897 -1.0121154 -0.71385616 -0.16180305 0.82550275
1.0272272 0.7975732 0.09296758 -0.88656116 -1.2097453 -0.90689105 -0.39895493 0.95749474
0.7601838 0.55016035 -0.053780302 -0.3567175 -0.54339993 -0.60180897 -0.11583885 0.2555562
0.5144605 0.68380034 0.44838685 0.19431654 -0.21446696 -0.4055097 -0.3723346 -0.23550966
0.10827482 0.62929565 0.5961063 0.24545051 -0.17351083 -0.68090785 -0.6889534 -0.49045825
0.0808368 0.608879 0.6866573 0.29487237 -0.51112366 -1.1212459 -0.6167019 1.3107466
-4.3062596 -0.3494755 1.1245022 0.8372343 0.13329138 -0.64481795 -0.9131079 -0.87640035
-0.42002663 0.04579257 0.22849444 0.071434624 -0.20065941 -0.2842434 -0.39136088 -0.6094232
-0.4261958 -0.16798592 -0.11473391 -0.24736944 0.002700009 -0.04890218 -0.1903694 -0.4381687
-0.43261975 -0.19452676 -0.13172068 -0.0147453435 -0.10230291 -0.07180048 -0.122392446 -0.3185401
-0.07974099 -0.09082605 -0.10954867 0.06178759 -0.107728146 -0.0020802657 0.15156326 0.012612285
0.14974639 0.14174238 0.15642957 0.021592231 0.102142155 0.008712974 0.17281753 0.40571693
0.30089986 0.4432955 0.17055367 0.13790339 -0.11668343 -0.047325913 0.0304936 0.45264897
0.925535 0.77430344 0.5511993 -0.05383671 -0.58670133 -0.78191423 0.61538523 3.843465
-3.3589914 0.058862254 1.0503263 0.8336225 0.2584182 -0.6377842 -0.88755935 -0.7066481
-0.31919873 0.047050595 0.49876013 0.6831709 0.5141365 -0.01974022 -0.34283146 -0.43241224
-0.49253613 -0.05323088 0.60850656 0.7468949 0.8663715 0.27636036 -0.39237437 -0.7070975
-0.5882403 -0.11759287 0.51098543 0.9405361 0.6779983 0.2557638 -0.518929 -0.72286695
-0.5786693 -0.0034296266 0.33609268 0.7570505 0.56344503 0.14182755 -0.19456497 -0.34740084
-0.5931488 -0.21807024 0.3668247 0.57289064 0.7445444 0.5883426 0.0704774 -0.1838619
-0.19606347 -0.118972406 0.015852366 0.631081 0.762617 0.5026245 0.17258528 -0.13897166
-0.46895882 -0.6213548 -0.6199693 -0.14095731 0.75451267 1.0528711 0.023657257 -2.9749417
-1.091003 -0.03832501 0.31276697 0.2155572 -0.013150939 -0.35312694 -0.5046748 -0.46929917
-0.18685284 0.2805484 0.3845612 0.25682727 0.0145595595 -0.36171633 -0.65556353 -0.35828736
-0.14750737 0.29925135 0.6455489 0.7075002 0.27038747 -0.4353631 -0.98191655 -1.5135372
-1.5380807 -0.9484684 -0.3776694 0.45206928 1.0667524 1.1267036 0.96277654 0.6097682
0.26599368 -0.27719337 -0.45222682 -0.6197432 -0.57893354 -0.7135018 -0.8953016 -0.82096106
-0.6927826 -0.44281 0.25594088 0.9073505 1.5046628 2.0249498 1.9950556 1.6023031
1.2927463 0.6843998 0.084674455 0.095105834 0.19854835 0.5782383 0.7853125 0.5157493
0.05452683 -0.2592099 -0.7562282 -0.7578256 -0.6424123 -0.49172077 -0.54901415 -1.0224798

_orig_mod.encoder.batchnorm1.weight f4 [8]
00000000: 2359 813f 109f 0d3f 158a ac3f be79 aa3f
00000010: ff38 eb3e de87 bb3f c870 fa3f ce26 d53f
1.0105327 0.55320835 1.3479639 1.3318403 0.45941922 1.4650838 1.9565668 1.6652467

_orig_mod.encoder.batchnorm1.bias f4 [8]
00000000: dad0 9b3e b319 d1be 7171 c0be 42d7 b73d
00000010: c765 353f 7513 c6be 7838 6b3f c582 623f
0.3043278 -0.4083992 -0.3758655 0.08976604 0.70858425 -0.3868672 0.9188304 0.8848079

_orig_mod.encoder.batchnorm1.running_mean f4 [8]
00000000: ff03 81b9 d8dd 2c3b 9a1c 11bb 6fa9 5aba
00000010: f2cc 9938 fc13 d539 f3ea e9ba 95ab 5a3b
-0.00024607775 0.0026377346 -0.0022142292 -0.00083412876 7.3337826e-05 0.00040641415 -0.001784651 0.003336643

_orig_mod.encoder.batchnorm1.running_var f4 [8]
00000000: 6835 9b40 4116 1f42 035b c240 fea6 1342
00000010: b706 1741 47f0 1341 6469 7441 42c2 3442
4.8502693 39.771732 6.07361 36.91308 9.439139 9.246161 15.27573 45.189705

_orig_mod.encoder.conv2.weight f4 [16, 1, 93, 1]
00000000: a13c f4bc c751 733c f300 60bd f22e bebd
00000010: 0a4a 2c3d 13ae 463d 8c96 f03b 4346 81bc
00000020: c0db d43c 158b 45bc 7b13 973c 3aea cbbd
00000030: ea17 9cbd 7630 8abc 4248 c73c d80d bb3d
00000040: bfdc 253d 59da 163d 417f 96bd a427 f2bd
00000050: d1bf 0a3d 9d11 a83d 918f 9d3d 0823 74bc
00000060: 31d6 023e ab89 3a3e 9386 283d 2628 ab3d
00000070: eb89 e23c 67c0 a43d 980c 003e 1dda 193d
00000080: 3059 023d 5e2c 043e 923c c83d c2fb 203e
00000090: 3c91 4a3e 2efb 3c3e 1a10 b83d 47b7 a43d
000000a0: c4cc 9b3d b55d 313e a743 5f3e 26b7 b63d
000000b0: 7b2d d03d 71d5 133d 62ab 1b3d a2d2 eb3d
000000c0: 10dc 493d cacf 243e 2bbe 2fbd a0da 93be
000000d0: 15cc 3cbd a0c7 123e c319 debd 471b 44bc
000000e0: ac84 78be 67eb d3bd 9e43 e8bd d304 78bd
000000f0: 7a48 11be 6606 10be f938 dabd 73b6 3abe
00000100: a9d5 34bd 2f66 1dbe e073 3fbe 28c9 e73d
00000110: ec9b cb3c 38a7 593d ea75 b03b 2208 78bd
00000120: 41f2 0bbe 9dca 0abe 71b7 b3bd d0dd c93c
00000130: e295 ab3c 48d5 23bc c53c 933d d731 83bc
00000140: 085b 853a 0100 5cbe d3f1 f23c eed2 463d
00000150: 8b96 233d 8c21 333d 9aee 0a3d dd98 b63d
00000160: 8e7d 6a3e a38b ec3d 1c0b 953c 3330 ccbc
00000170: b6ab 10bd 6615 fd39 d00d 31bc 9e8c 7d3c
00000180: 062b d5bb 5ee7 04bc 354e 2f3c faa8 8cbb
00000190: abd0 58ba 0307 a0b9 cd77 873b 25fa dcbb
000001a0: 276e 01ba ed17 adbc b524 92bb 712c bb3c
000001b0: dc67 abbc b072 963b b9a2 27bc 3516 c73b
000001c0: 35a4 58bc 9c41 8abb b9eb f8bb b43c 16bc
000001d0: e3fe a0bb 75d4 073c b260 2fbc cff2 03bc
000001e0: fe55 203c 09ed 803b 40a9 ca3c 58f9 843c
000001f0: 7ecd 46bd 5e5d 8e3c de72 123c 9dc5 353c
00000200: b5c7 1cbc 26b5 7abb 476b 8bbb a8bf f5bb
00000210: bc30 2f3c a82c 8d3c 8e41 503b 4b38 053d
00000220: 6aff 8bba b16d 72bb f871 6a3b f837 a33b
00000230: 9200 8aba a873 88bc f813 1b3b aa44 10be
00000240: e79d 083d f775 d53e 839a 5f3c b91c fa3b
00000250: ba49 2abc 6b1b b73c 0788 02bc 39c0 4e3b
00000260: 6494 253c 4981 d73a d2e8 d0bc 85d4 663d
00000270: db2f a7bd da28 73bd bfec c6bc be69 c33b
00000280: 08de 343d e51c 33b8 582a ebbd 6c7b 8ebd
00000290: 3148 9cbc 37eb 1cbc 7afd 62be bdab d9bc
000002a0: c435 22be 34a2 14bd 1040 afbe 1a19 e83b
000002b0: 9dc8 bc3e 886d 7d3e 1885 903e 7444 d5be
000002c0: e12e c03b 4a35 4ebd 1e64 02bc 2b5f cbbd
000002d0: 5701 93bb 32a1 a43e 1845 87bc d423 413b
000002e0: 00cd 2dba e1a0 a13c 2803 643c 4d7c 12bb
000002f0: 7f04 c53b 0d19 83ba 06ee 68bd 7709 15bd
00000300: e3b9 c13b 7142 9e3c 70d8 ee3c 8505 50bc
00000310: c8a2 fb3c 6449 2ebd 077b 01bd 7aae 313c
00000320: e958 2bbd 87a5 8ebc deef a9bc f05a afbc
00000330: 1b91 0c3c ee2f afbb 26d1 01bd 4be4 c7bc
00000340: ea44 d73b 69a8 28bd e787 c13b fccf 7bbb
00000350: 0409 853b d7d4 87bd 56bb 1cbd b6fa 9b3c
00000360: 0669 523d 8db8 543d c4a7 40bd ef2e 8cbc
00000370: 385a 513d c9c9 d3bb 7868 dd3c f0a8 24bb
00000380: 59c0 b33c a3cb 36bc 1709 133c aa5a abba
00000390: 4335 933d 3a3d 373d 31a5 3b3e 96ab d93d
000003a0: dbbc ecbb be7f 293e 1ce7 123e 4d6d 7b3e
000003b0: e731 1b3d f7db 17bd 6feb dcbd 10eb 403e
000003c0: ee12 af3b 4645 f73d 7164 63bd fb38 59bd
000003d0: 9fed 883d ff21 bd3e d9b4 edbd d083 05be
000003e0: bab7 bcbe 01a5 45be adfe 6e3e 4768 e0bc
000003f0: 8255 b1bd b961 dc3b dad1 08bd bce9 b43c
-0.029814066 0.01485104 -0.054688405 -0.09286298 0.042062797 0.048505854 0.0073421653 -0.015780574
0.025983691 -0.0120570855 0.018441906 -0.099567845 -0.07621749 -0.016868811 0.024326447 0.091335
0.040493723 0.036829326 -0.073484905 -0.11823967 0.033874337 0.082064845 0.07693399 -0.01490093
0.1277702 0.18216579 0.041143965 0.08357267 0.027653655 0.0804451 0.12504804 0.037561525
0.031823337 0.1290755 0.09777178 0.15721038 0.19781965 0.18455192 0.08987446 0.0804277
0.07607415 0.17320903 0.21803151 0.089216515 0.10164925 0.036092225 0.03800524 0.115147844
0.049282134 0.1609489 -0.042905968 -0.28877735 -0.046093065 0.14333963 -0.108447574 -0.011969394
-0.2426936 -0.10347634 -0.11341022 -0.060551476 -0.14187804 -0.14064941 -0.10655398 -0.18233661
-0.044149075 -0.15371011 -0.18696547 0.113176644 0.024854623 0.053137988 0.00538515 -0.06055463
-0.13666631 -0.13553853 -0.08775223 0.024641901 0.020945493 -0.009999581 0.07189325 -0.016014976
0.0010174224 -0.21484376 0.029656326 0.048541002 0.03993849 0.043733165 0.033918954 0.08915875
0.22899458 0.11550071 0.018193774 -0.024925327 -0.035320006 0.00048271863 -0.010806516 0.01547542
-0.006505373 -0.008111803 0.010699798 -0.0042926045 -0.000827084 -0.00030522802 0.0041341544 -0.0067436867
-0.00049373735 -0.021129573 -0.004459942 0.02284834 -0.020923547 0.0045913085 -0.010231667 0.0060756453
-0.013222744 -0.004219247 -0.0075964597 -0.009169746 -0.0049131974 0.0082904 -0.010704206 -0.008053496
0.009786127 0.003934507 0.024738908 0.016232178 -0.048535816 0.017378505 0.008938519 0.011094478
-0.009569098 -0.0038254946 -0.004254732 -0.007499654 0.0106927715 0.017233208 0.0031777355 0.03252439
-0.0010680978 -0.003699165 0.0035773497 0.004981037 -0.0010528734 -0.016656712 0.0023663025 -0.14088693
0.033353712 0.41691563 0.013647678 0.0076328185 -0.010393554 0.022351941 -0.007967002 0.003154768
0.01010618 0.0016441728 -0.025501642 0.05635502 -0.081634246 -0.05936513 -0.024282811 0.005963533
0.044157058 -4.2703836e-05 -0.11482686 -0.069571346 -0.019077392 -0.009577564 -0.22167006 -0.026571149
-0.15840822 -0.0362875 -0.34228563 0.0070830705 0.36871806 0.24748814 0.28226542 -0.41653788
0.0058649634 -0.05034379 -0.00795844 -0.09930261 -0.0044862437 0.32154232 -0.016512439 0.0029470818
-0.00066299736 0.019730033 0.013916768 -0.002235192 0.006012499 -0.0010001973 -0.05686762 -0.03638598
0.005912052 0.019318791 0.02915594 -0.012696628 0.030717269 -0.04255046 -0.03161147 0.010844821
-0.04183284 -0.017412914 -0.02074426 -0.021405667 0.008579518 -0.00534629 -0.0316936 -0.02440085
0.0065694945 -0.041176233 0.0059060934 -0.003842353 0.0040599126 -0.06632393 -0.038264595 0.019040447
0.05136969 0.051933814 -0.047034994 -0.017112223 0.05111143 -0.0064632636 0.027027354 -0.0025125109
0.021942304 -0.011156949 0.008974335 -0.0013073285 0.07187893 0.044736125 0.18324734 0.106284305
-0.0072246618 0.16552636 0.14345974 0.24553414 0.037889387 -0.03707501 -0.10787093 0.18839669
0.0053428328 0.1207376 -0.05551571 -0.053032856 0.066859476 0.3694 -0.116067596 -0.13038564
-0.36858922 -0.19301225 0.23339339 -0.027393473 -0.086588874 0.0067255166 -0.033403255 0.02208411

_orig_mod.encoder.batchnorm2.weight f4 [16]
00000000: 1d1f 0641 963c ff40 2108 743e beb0 d93d
00000010: ae69 2a41 3afa 2d41 e6db 2641 b7df 4b41
00000020: 6344 0241 39d6 ec40 881c 1e41 b63a 1241
00000030: f38a d040 2fec fb40 b84a 4641 1ada 2541
8.382596 7.9761457 0.23831226 0.10629414 10.650801 10.87359 10.428686 12.742118
8.141696 7.40115 9.881966 9.139334 6.5169616 7.872581 12.393242 10.365747

_orig_mod.encoder.batchnorm2.bias f4 [16]
00000000: eb53 85c0 1b9d 73c0 3787 763c 0de5 153c
00000010: d567 21c1 cbfb a4c0 e03a 1cc0 47cf a1c0
00000020: 87d6 0bc0 ac11 69c0 9fd4 9ac0 afdc 01c0
00000030: 722e 71c0 12d6 7ac0 5221 11c0 e3ed 13c0
-4.166494 -3.806464 0.015046886 0.009148848 -10.08785 -5.1557364 -2.4410934 -5.0565524
-2.1849687 -3.6417036 -4.8384547 -2.0290945 -3.7684598 -3.9193158 -2.2676587 -2.3113945

_orig_mod.encoder.batchnorm2.running_mean f4 [16]
00000000: 35ce a73e 875f 5dbc 3843 a03c ae7f 90bd
00000010: 1a0f 2abe 667f 9cbd 0f08 ae3b f34b 203f
00000020: 1aef 9dbe 5c24 c4bc b3d7 40ba 8855 e5bb
00000030: 2fb1 e7be 7bc0 2ebe 2a1d b43e 9d1e 93bf
0.3277451 -0.013511545 0.019563302 -0.07055603 -0.16607323 -0.07641487 0.0053110193 0.6261589
-0.30846483 -0.023943119 -0.00073563604 -0.0069987215 -0.45252368 -0.17065613 0.351785 -1.1493717

_orig_mod.encoder.batchnorm2.running_var f4 [16]
00000000: 3283 7440 09d4 2e3e dcad af3e 8234 f23e
00000010: 7359 4740 6091 8c3f d445 0b40 ff8b b040
00000020: 8602 003f c429 0a3e 150d 2340 720f b23f
00000030: e340 ca3f ff36 f83f 085d 2440 6103 0b41
3.8205075 0.17073072 0.34312332 0.47305685 3.1148345 1.0981865 2.176137 5.5170894
0.5000385 0.13492495 2.5476735 1.3910964 1.5801052 1.9391783 2.5681782 8.688325

_orig_mod.encoder.sepconv3.depthwise.weight f4 [16, 1, 1, 16]
00000000: d867 b93f 4631 fa3e 8cea 153e 6c04 a23e
00000010: e364 8d3d dfe7 453e eda4 963e 78e8 f83e
00000020: 628c a83e 0637 db3e 6d33 763e b4f0 d63d
00000030: d3f8 073f 15d5 cb3d f48e da3e e80a 983f
00000040: 8af9 9bbf d103 f9be 7065 18be 401f 30be
00000050: c609 acbd 5468 eebd ce1b a3be e7e8 fdbe
00000060: 7bf0 7dbe 93c6 c3be e3b4 aabe 2b8b 103d
00000070: 8194 b2be 64be b2bd 29af bcbe b804 8abf
00000080: 4055 933f cd94 363f 1a12 983e 8bdf 673e
00000090: c584 2cbd 4700 7ebe c620 4dbf 6140 84bf
000000a0: 6137 e9bf c8b8 36c0 64ce 73c0 6a58 84c0
000000b0: 5ba1 81c0 996a 78c0 43ee 22c0 191b 423e
000000c0: c1a1 03bf 2410 e13f 2e3c 0540 e543 e33f
000000d0: 5763 be3f a551 e73e 9bbf 89bf 080d 2bc0
000000e0: b766 11c0 bb53 30c0 b891 79c0 b490 a2c0
000000f0: b151 bec0 5e8f d2c0 35f8 c3c0 36d8 9bc0
00000100: 0877 adbf 005d 8a3f 8640 6ebf acdb 3c3f
00000110: cb05 3a3f a19c 71bf db94 22bf e6d9 903f
00000120: 312f 8abf e8b6 a0be 74f7 81be 96f2 b03f
00000130: 4689 e9be 4534 5bbf ffbd 9d3f 0fc7 9dbf
00000140: 20fe 32bf dd66 cfbe 724e 60be 35a2 debd
00000150: 49e5 80bd 4c87 cdbd d74e 38be 8838 70be
00000160: 4278 5fbe 5106 0cbe 7b1b aabd be68 afbd
00000170: 7113 22be d86e 8bbe d161 ddbe fe39 26bf
00000180: 7a8a a7bf ac1d 483f 248f 32bf 3802 4f3f
00000190: f094 34bf 282c 913d c071 ce3e 6b28 39bf
000001a0: 62b9 50bf e55f 5c3f 50e3 35bf dc0d 0f3f
000001b0: ca7b 0abf 9978 77be e67f 643f 0b47 abbf
000001c0: 82ee c7be 9efd 7ebe b9e1 25be d00a e1bd
000001d0: 0461 8bbd 9857 96bd 7f5c b2bd a2f6 e2bd
000001e0: 6739 edbd 9801 efbd c070 d9bd b3c5 b1bd
000001f0: b8ae c0bd d331 1abe 87d9 62be 4f7e b3be
00000200: 4a32 9c3f 5b1e 143f af6d a4be 288e 993e
00000210: da0c 45bf ec97 143f 5fa2 c3be c4bc 8f3f
00000220: e09a a83e bccf 1d3f f7b4 17bf 2337 e73e
00000230: 6fa7 45bf 0013 133f 4011 19be 5df2 b93f
00000240: 3325 b03f a433 a73e c640 903d 933a ac3e
00000250: 2cfd 9a3d f361 813e f62d 013e 1987 6b3e
00000260: c968 aa3e 5a1d ef3d ecdc 4f3e bf37 523d
00000270: 658b 993e 63f3 273e f9a0 9e3e d029 8a3f
00000280: a96c 8bbf b9e8 8dbe 80f5 09be aa80 9ebe
00000290: e16c 1fbd 8488 86be f365 14be 3964 77be
000002a0: 887b 36be c775 23be 1dd8 94be 4460 acbc
000002b0: a373 babe f81b b2bd 4a7d 97be da3f 6dbf
000002c0: afb8 743f 33f4 223f 02f8 fdbe a155 11be
000002d0: 6293 20bf 4186 193f 2152 abbe 9f46 743f
000002e0: ffbc 793e 74ec 423f f149 4dbf 10a6 193e
000002f0: f914 28bf 6917 253f a676 68be cc83 963f
00000300: c38b d33f fd06 9e3e f401 823d 1a08 b33d
00000310: af49 ca3d 7e35 933d bfb6 be3e d4b1 343f
00000320: 66c1 333f 2d2a 8a3e 82a7 5a3d 63e6 523e
00000330: f98f 823d 4a6b 273e 81ad c83e ab0d c33f
00000340: 7a4e 883f a652 203f ed77 8c3e a2f5 363e
00000350: 6b36 2d3e 32ef 8e3e 8c3e ae3e eaac 983e
00000360: d941 943e 7992 a13e e38b 843e 4902 2b3e
00000370: f68b 393e 527f a13e b767 0f3f 4259 843f
00000380: c3b0 43bf d3db 1ebf 9ceb 813f ab0a c63e
00000390: fd8f 99be 6d00 57bf 2fd8 a83f d515 5ebf
000003a0: 783a d0be 5455 0bbf 0cb0 253f bea3 3a3f
000003b0: 72e6 e1be 4036 40bf 6f70 903f 84e6 8bbf
000003c0: e68e a8be 465d d6be 6df1 45bf 5f1d f23f
000003d0: 3490 4fbf 91d7 24bf e58e a3be 961e 5d3f
000003e0: 552f 07bf c009 10bf 24be 11bf c1a0 f03f
000003f0: 3a2b 52bf a84f 15bf a82e 803e 06a6 01bf
1.4484816 0.48865718 0.14640254 0.31644 0.06904008 0.19326733 0.29422703 0.4861486
0.32919604 0.42815417 0.24043055 0.10495129 0.5311405 0.099527515 0.4268719 1.1878328
-1.2185528 -0.48635724 -0.14882445 -0.17199421 -0.08400302 -0.11640993 -0.3185715 -0.49591753
-0.24798767 -0.38237438 -0.3334113 0.03528897 -0.34878924 -0.087277204 -0.36852387 -1.078269
1.1510391 0.713208 0.2970131 0.22643869 -0.042118806 -0.24804793 -0.80128133 -1.0332147
-1.8220025 -2.8550282 -3.809472 -4.1357927 -4.0509467 -3.8815062 -2.5457923 0.1895565
-0.5141869 1.7583051 2.081798 1.7755095 1.4874066 0.45179477 -1.0761598 -2.6726704
-2.2718942 -2.7551105 -3.899519 -5.080164 -5.947472 -6.580001 -6.1240487 -4.870143
-1.355195 1.0809631 -0.93067205 0.7377269 0.7266509 -0.9437962 -0.63508385 1.1316497
-1.0795652 -0.31389546 -0.25384104 1.3824031 -0.45612544 -0.8562663 1.2323607 -1.2326373
-0.69919014 -0.40508166 -0.21904925 -0.10870782 -0.06293733 -0.100355715 -0.17998825 -0.23459065
-0.21823218 -0.13674285 -0.08306023 -0.085649 -0.15827729 -0.27233005 -0.4323869 -0.6493224
-1.3089135 0.78170276 -0.69749665 0.8086276 -0.7053976 0.070885 0.4032116 -0.723273
-0.8153287 0.86083823 -0.71049976 0.5588052 -0.5409514 -0.24167098 0.8925766 -1.3381056
-0.39049155 -0.24901435 -0.16199388 -0.109883904 -0.06805614 -0.07340926 -0.087090485 -0.11082198
-0.11583214 -0.11670226 -0.106172085 -0.08680286 -0.09408325 -0.15058069 -0.22153293 -0.35057303
1.2202847 0.5785882 -0.32114932 0.2999127 -0.76972735 0.58044314 -0.38209817 1.1229482
0.3293066 0.616451 -0.59260505 0.45159253 -0.7720861 0.57450867 -0.14947987 1.4527088
1.3761352 0.32656586 0.070436046 0.3363844 0.0756782 0.25270042 0.12615189 0.23000754
0.3328307 0.1167552 0.20299119 0.051322695 0.29989162 0.16401438 0.30982187 1.079401
-1.0892535 -0.27716616 -0.13472557 -0.30957538 -0.038922194 -0.26276028 -0.14492016 -0.24159326
-0.17820561 -0.15962897 -0.2907113 -0.021041997 -0.3641635 -0.08696741 -0.29587775 -0.92675555
0.95594305 0.6365387 -0.49603277 -0.14192821 -0.6272489 0.5997048 -0.33461097 0.9542026
0.24388503 0.7614205 -0.8019095 0.15004754 -0.65657 0.64488846 -0.22701511 1.1758971
1.6527027 0.30864707 0.06348029 0.087417796 0.09877335 0.07187937 0.372488 0.70583844
0.7021698 0.26985303 0.053382404 0.20595698 0.06375117 0.16349521 0.39194873 1.5238546
1.0648949 0.6262611 0.27435246 0.17867139 0.1691529 0.27916867 0.34032094 0.29819423
0.28956488 0.31557062 0.25887975 0.1670009 0.18119797 0.3154245 0.5601763 1.0339739
-0.7644159 -0.62054175 1.0150027 0.38680014 -0.29992667 -0.83985025 1.3190974 -0.86752063
-0.40669608 -0.54427075 0.6472175 0.729061 -0.44121128 -0.7508278 1.1284312 -1.0929723
-0.32921523 -0.41868037 -0.7732151 1.8915213 -0.8107941 -0.6439143 -0.31944957 0.86374795
-0.528066 -0.5626488 -0.56930757 1.8799058 -0.8209721 -0.5832467 0.25035596 -0.50643957

_orig_mod.encoder.sepconv3.pointwise.weight f4 [16, 16, 1, 1]
00000000: 57d8 d63d f5ae 9bbc 6340 84bd 39ca 6540
00000010: 383a 1ebd 6253 18bd 5909 95bd 09f6 a83d
00000020: 41e0 213e 2e4c 36c0 1a85 60be f3be 8e3e
00000030: 6911 843f 8908 69bb a16d 0bbe f073 933d
00000040: 78a4 523e 9386 6040 873a fe3f 7933 01c0
00000050: 2a30 e1be c4fe 74be 3a93 4c3d 1b93 d0bb
00000060: 1a11 8a3e aaf4 383e 1932 dbbd 629d bb3e
00000070: 73bc 513e 0344 a33e df87 66be b88c 13be
00000080: 7e55 8b3e 6911 13bf 2cab a940 3da6 39bc
00000090: 1b7a 7b3d a282 c4bd 889d 01be 7fdf 313e
000000a0: 6bd5 9a3d 2bc5 3cbd 3b25 943f 64fd 113f
000000b0: fa84 9b3e 3efb fabc 94fe 3b3d 8124 58bd
000000c0: 52f6 8b3d da25 0fbe 7142 29bf 603e 22c0
000000d0: ddab 9fbf f442 95bd 643d 2b3b 9d26 84bd
000000e0: 1c75 933e c3fa 21be 9f5f c8bd 809d ad3e
000000f0: 51df 163f 9db1 3bc0 e3d2 cebc d9fc b33d
00000100: 00bf bd3e f8ee 92be 19a0 24bf 7374 a0c0
00000110: c642 9abf b7c2 05be 74fa 333e e7cb cf3d
00000120: f04d b83d 8295 84be fb38 2cbe 2067 eebc
00000130: 0607 e73e d71e ef3e 57a5 3d3d bd32 103e
00000140: e041 53be b7b0 843d cf5d 073e 7db5 c73e
00000150: 67b7 543e b994 eb3c 0627 5dc0 0e10 6a3c
00000160: b3cc a6be d3dc 923c 2e0c e53e 908f 0abe
00000170: 9853 41bf f8c1 c6be 612c 853d c435 383e
00000180: f93e 73be 384b d83e 4ea6 1a3f 1d8a 353f
00000190: eadf e73e 8546 983e 1eab d03e 5f64 a33e
000001a0: 5f80 adbe 31a0 99be 0c11 1c3d d9de 11be
000001b0: dd51 dcbe bad4 c5be ea26 f93c 268a 91c0
000001c0: ea3a 8f3e fbaf b23d 79a5 39c0 46ef 1bbe
000001d0: 70fc 9b3d 5224 3ebe 1540 afbd f00d a23d
000001e0: 2adc b23e 5e89 3a3e ebfb 4540 560d d53d
000001f0: 5007 d93e 3b40 873e e8a0 54bd d07c 0ebe
00000200: d418 9dbe fda8 35bd 2d85 4b3f 95f4 3440
00000210: 4856 53c0 76ec c93e 3143 543e dc51 e43d
00000220: 1322 18bc a097 0cbd 80bf 733d d529 e8bd
00000230: bab3 a9bf ed50 113e 50f3 853d 00b3 fd3d
00000240: 7941 353e ac7d c1bd 4042 6a3e 600f 1dbe
00000250: bbe2 173b 7978 7540 93cf 14be d9c6 bdbd
00000260: ae14 d5bc 5e2b da3c d0a3 6e3e 13a1 863d
00000270: a335 8e3f f8ff 833e a883 74bc 4111 ebbe
00000280: 43f4 3fc0 011f 7abe f618 253f 7188 f6bf
00000290: 82d5 ecbd 7b9a 3e3b 1618 b5be 976b 90bd
000002a0: 461f b83e 95e4 8c3e 3979 46be 7915 2e3e
000002b0: c86c 4e3f 3a54 1a3e e289 76bd e194 1fbe
000002c0: 6496 91bb 812d 2b3e 20ab 2fbe 0fb1 9f40
000002d0: 8e2c 4bbf fe81 78be e4dd 093e a3e7 fc3c
000002e0: 83ee 0fbf 054a 743f 187a 77be ff61 3bbe
000002f0: f86a 763f c1d0 a3bc 6715 333e 6a10 213e
00000300: 6ed2 e0be 032f a53e 4f3e 08c0 c53d 8e3f
00000310: 8505 bd3d ef4a 473e c91f d13d 9375 9fbc
00000320: 0269 4cbe 5b3d 23be c800 153d 10c0 5540
00000330: 0e64 35bf f0eb 143e 9d2a 0c3e a8fd ef3d
00000340: 9346 f83c 3f22 a93d d339 30bf 0b7d 7abf
00000350: 25a6 6cbd f2d0 333d 0193 a6bd 391a 0241
00000360: 6975 4ebb ebe2 2d3e 27ef 09be 7b95 853d
00000370: 718a fa3e 28f8 8abe 966f 96bd b168 a23d
00000380: 23e3 0ebf 047f 043f f52e 2fbb 5f74 dfbe
00000390: 4aac 593e 20f4 823e 782d 6b3e 1b11 9b3d
000003a0: d778 2dbe fe2d f53d 5560 5b3d 3706 93bd
000003b0: 2b3f 93be b036 4dbe 0c84 83c0 e947 bd3d
000003c0: 4159 d2be 1b76 5c3e 5980 983e b58d 0340
000003d0: b489 b13e 86a1 123e 2ada 21bd fa49 4bbd
000003e0: 368c 3940 607d a4bd 26e5 fa3e 44d1 2abe
000003f0: 6bf3 99be 8a8c a7be 09f4 4f3d 2398 c43d
0.10490482 -0.019004324 -0.06457593 3.5904677 -0.03862974 -0.037188895 -0.072771735 0.082500525
0.15808202 -2.8483996 -0.21925774 0.27880058 1.0317813 -0.0035558066 -0.13616039 0.07199848
0.20570552 3.5082138 1.9861611 -2.0187666 -0.4398206 -0.2392531 0.049945094 -0.0063651926
0.26966172 0.18062082 -0.10702915 0.3664351 0.20482044 0.31887826 -0.22512768 -0.14409149
0.27213663 -0.5744844 5.302145 -0.011331138 0.061395746 -0.09595229 -0.1265775 0.17370413
0.075602375 -0.04608647 1.1573862 0.5702727 0.3037489 -0.03063738 0.04589708 -0.052769188
0.06834091 -0.13979283 -0.66117007 -2.535057 -1.2474324 -0.07288161 0.002612912 -0.064526774
0.28800285 -0.15818314 -0.09783863 0.33909225 0.58934504 -2.9327157 -0.025247043 0.08788461
0.37059784 -0.28697944 -0.6430679 -5.014215 -1.2051628 -0.13062559 0.17576009 0.10146313
0.089992404 -0.25895315 -0.16818611 -0.029101908 0.45122546 0.46703216 0.04630026 0.14081855
-0.20630598 0.06479018 0.13219379 0.39005652 0.20773087 0.02875744 -3.4555068 0.014286054
-0.32578048 0.017927563 0.44735855 -0.13531327 -0.7551818 -0.3881986 0.06502605 0.1798926
-0.23754491 0.42244887 0.6041001 0.7091387 0.4528802 0.29741302 0.40755552 0.31912515
-0.33887002 -0.3000503 0.038102195 -0.14245166 -0.43031207 -0.3863886 0.030414063 -4.548114
0.27974635 0.08724972 -2.9007246 -0.15227994 0.07616508 -0.18568543 -0.085571446 0.079128146
0.34933597 0.18216464 3.0935009 0.10402934 0.42388391 0.2641619 -0.051911265 -0.139148
-0.30683005 -0.044350613 0.79500085 2.827428 -3.3021412 0.39438218 0.20728756 0.11148426
-0.009285468 -0.03432429 0.0595088 -0.11336104 -1.3257973 0.14191027 0.06540549 0.12387657
0.17700757 -0.09447798 0.22876835 -0.15337896 0.0023175913 3.835478 -0.14532308 -0.09266443
-0.026010837 0.026632007 0.23304677 0.06573691 1.1110119 0.25781226 -0.014923967 -0.459116
-2.9992836 -0.2442589 0.6449121 -1.9260389 -0.11564161 0.0029083777 -0.3536994 -0.07051771
0.3596136 0.27518144 -0.1938218 0.17000379 0.80634737 0.15071192 -0.06019009 -0.15584137
-0.004442977 0.16716577 -0.17155123 4.9903636 -0.7936486 -0.24268338 0.13463551 0.030872172
-0.56223315 0.95425445 -0.24167669 -0.18299101 0.9625697 -0.019997003 0.17488633 0.15728918
-0.43910545 0.3226243 -2.128803 1.11126 0.092295684 0.19462179 0.10211141 -0.019465243
-0.19961932 -0.15941374 0.0363777 3.3398476 -0.70855796 0.14543128 0.1368813 0.11718303
0.03030709 0.08258485 -0.6883823 -0.9784705 -0.057775635 0.043900438 -0.081335075 8.131402
-0.0031503087 0.16981094 -0.13470136 0.06522652 0.48933747 -0.27142453 -0.07345502 0.079301246
-0.55815333 0.5175631 -0.002673087 -0.43643472 0.2125713 0.25576878 0.22966564 0.07571622
-0.16940628 0.11971663 0.053558666 -0.0717892 -0.2875913 -0.20040393 -4.109869 0.092422314
-0.4108372 0.21529429 0.29785421 2.055524 0.34675372 0.14319429 -0.039514698 -0.049631096
2.8991828 -0.08031726 0.4900295 -0.16681391 -0.30068526 -0.3272441 0.05076984 0.0959933

_orig_mod.encoder.batchnorm3.weight f4 [16]
00000000: 64b9 573f 73c6 613f 047b 413f 76a9 5b3f
00000010: a354 443f ef6c 9d3f b8f7 a63f 01b9 7d3f
00000020: 1d8e 9a3f 7357 593f 8f30 663f 0070 3c3f
00000030: 0270 593f 92d0 833f f943 bb3f 35c8 5d3f
0.8426726 0.88193434 0.7557833 0.8580545 0.76691645 1.2298869 1.3044348 0.9911042
1.207462 0.8489906 0.89917845 0.736084 0.84936535 1.0298026 1.4630119 0.86633617

_orig_mod.encoder.batchnorm3.bias f4 [16]
00000000: 7138 f1bd e81c 3dbe 3c21 b9bd bf51 2cbe
00000010: c33d 0ebc fa87 fbbd 35e4 54be ab8b 4abe
00000020: 3a8a 0bbe 1fef 0bbe 9a8b 21be 3071 3bbd
00000030: 8db3 85bd e804 35be d3fd 7abe ee96 3bbd
-0.117783435 -0.18468058 -0.09039542 -0.16828059 -0.008681717 -0.12281795 -0.20790179 -0.19779842
-0.13626948 -0.13665436 -0.1577591 -0.04576224 -0.06528387 -0.17677653 -0.24510889 -0.045798235

_orig_mod.encoder.batchnorm3.running_mean f4 [16]
00000000: d5e1 53c0 f52b b3c0 82c7 21bd c102 b7c0
00000010: f1e0 d340 657d 1141 0ac1 b940 728a 21c0
00000020: 9180 04c1 30ae 14c1 653c 0bc0 92e4 c7bf
00000030: ced1 d140 9932 bcc1 c90a c940 35b9 8240
-3.3106587 -5.599116 -0.039496906 -5.719086 6.6212087 9.093114 5.8048143 -2.524075
-8.281388 -9.292526 -2.1755612 -1.5616629 6.556861 -23.524706 6.2825665 4.0851083

_orig_mod.encoder.batchnorm3.running_var f4 [16]
00000000: 36a0 9844 8a76 e444 d58c 8b44 1698 f244
00000010: 56e0 7f44 6384 a445 5220 2746 95d0 f744
00000020: 12e4 7545 d2f5 4045 bfc9 ef44 b4e8 6244
00000030: 6c37 3745 315d ea45 28c9 2c46 1f6f 0a45
1221.0066 1827.7043 1116.401 1940.7527 1023.50525 5264.5483 10696.08 1982.5182
3934.2544 3087.3638 1918.3046 907.636 2931.4639 7499.649 11058.289 2214.945

_orig_mod.Dense.weight f4 [64, 240]
00000000: 6e9e 273c 0983 fcbc b297 36bc f1a6 1fbd
00000010: e695 0bbd 1ede f5bc e6cd 99bc 7a10 2dbd
00000020: eb61 00bd 8675 07bd 7053 23bc d5de 2c3b
00000030: df34 4dbb d460 c4bc 0e17 85bc 7a08 04bc
00000040: 2395 afbb 8362 053c edaa f83a 679f 14bc
00000050: 06dd 30bc 78f5 17bc cc86 dfbb b1ad 0dbb
00000060: 286b c03c f248 7dbb 1b7f 5ebc dd51 83bc
00000070: e048 21bc e455 af3b fe2a 48bc 232f 5bbc
00000080: 9f8b 2ebc 39f2 563b b115 fbbc 741a 45bc
00000090: a092 83bc 6ca0 c1bc 91ee e43b 0c07 2b3d
000000a0: 4ee6 183c 416f febb d554 d1bc 5967 c7bb
000000b0: 49f1 8a39 9a79 4aba ffe3 e83b 2391 f23b
000000c0: d15d 1d3c 476e bd3c 2b66 873c aa04 2a3a
000000d0: da16 0a3c 13bb cc3b 8755 64ba 19cf c43b
000000e0: 9ae7 73ba 9ab1 c73b 899f 343c f127 2439
000000f0: 59a6 43bd 01b7 8cbc eb06 a63b d7c4 173b
00000100: 3a9b 4f3c 1d0f d4bb ff9e 1e3c fe61 1a3c
00000110: c093 ab3b 2a59 4bbc c3dd 62bc 07eb 20bb
00000120: a922 f1bb 8c46 5fbb eeb0 fdbb 83c6 683c
00000130: fdfd 013c c5af 49bb 52d4 1dbc afa1 a6bc
00000140: 5fc6 04bd e69d b1bc 7943 8dbc 1375 0cbc
00000150: 4edf 4e3b c489 14bc 4983 21bc 6baa f2bc
00000160: ea6a e7bb 389c 3b3c fe40 a63c f126 8d3c
00000170: ba77 c33c 1d66 873c b2af f8ba a145 d2bb
00000180: dcc3 70bb 6188 683b 398f a03c 4d8c 9d3c
00000190: c447 ad3c a790 753c b9be fd3c 9d08 1f3d
000001a0: ea31 3e3d f4e1 17bc d39e a1bc 3fa9 cabb
000001b0: 4d57 72bc 6eaf 0cbc 49b8 1539 e94d 39bc
000001c0: 9f75 203c 54a9 d8bc b23f 7fbd 9d5a c1bc
000001d0: 4ae0 a0bc 6418 e0bb 5db0 70bc 9183 84bc
000001e0: a716 d13c 8dcd 763c a837 283c 9c3a 85bb
000001f0: 1624 093a 2ac3 073d 3f7e 533c 3e0c bb3a
00000200: 75cd 953a b144 913c f138 b83b 24c7 bc3c
00000210: 4b93 983a 6b43 0f3c 971e 1e3c 2a68 9bbb
00000220: 1a69 0fbc 0aee 0bbc cc2c 4c3c eb72 483c
00000230: 2eaa 1c3b 3b7d 7aba fd78 af3b 6eb7 8e3c
00000240: 6ce0 b13b 4170 903c dc8e a03c 75df 0dbc
00000250: 4fb7 5ebc 14d2 46bc 3100 2e3c 1a86 8e3c
00000260: 849e 82bb 6035 76bc dd73 bd3b 09c5 adbb
00000270: e32e a1bc 8419 33bc 05e8 07bc 2e47 97bb
00000280: a289 13bc 1acb a0bc 38f3 acbc e52d 54bb
00000290: b8ff 693b ba62 2e3d 21c2 26bc f8f7 1ebb
000002a0: 106e 0bbc 362b a0bc 9a2b 6bbb 5087 4dbb
000002b0: 9ca8 5ebc eaf9 84ba 7332 a3bc db21 5e3c
000002c0: bf2b a53c 4fab 8d3c 1312 d7ba 8d19 9cba
000002d0: 7e32 e13c 00eb 4c3c 7081 803b e973 fe3a
000002e0: 763d bc3c 5d42 723c 454e 973c 9f6b c13c
000002f0: 85f5 993b 1143 a0bc 148f 66bc 67cc a83c
00000300: 5b60 843c 3430 f7bb a7c9 613c dba7 cabc
00000310: d316 243b fcb0 a13c 65ad 253c 5258 133b
00000320: 7bbe ad3b 5d75 d7ba deb3 9dbb 253f b13b
00000330: 2939 01bd 11e3 99bc 8a59 25bb 9e09 14bc
00000340: 6223 42bc 6bb1 72bc a811 db3c d9ee 9a3c
00000350: 7e47 383c c1e9 973c ec18 673a 60f7 43bc
00000360: aed9 c5bb 33cc feba 35ea 06bc 3123 6f3b
00000370: dbf7 863b e5ce ab3b 310e 623b 43b8 0c3c
00000380: 7468 bf3c 2744 a1bb 665a 71bc a161 9ebc
00000390: dc68 353c 7745 ffbb d6ea 49bb c3a8 c5bb
000003a0: f95b 7cbc 2f1b fcbb d9d3 d7bb 7efe ec39
000003b0: f337 d2bb 6cfe 3bbc a65b 3dbc 0ec6 71ba
000003c0: a4aa c33b 8f77 563b d810 b23c 8d59 f53c
000003d0: 9fe0 c1bb 7354 dcbc eb75 8abc c55f c2bc
000003e0: 6039 d6bb 2967 563c 1094 ad3c feb0 b4bb
000003f0: 42d6 853c 6ed1 c83c 8716 993c d743 883c
0.010230644 -0.030824201 -0.011144565 -0.038977567 -0.0340785 -0.03001314 -0.018774938 -0.04225204
-0.03134338 -0.033071063 -0.0099686235 0.0026377935 -0.0031312031 -0.023971952 -0.016246345 -0.008058662
-0.0053583547 0.008141163 0.0018971838 -0.009071208 -0.010794884 -0.009274833 -0.006821489 -0.002161842
0.023488596 -0.0038648215 -0.013580109 -0.016030246 -0.009844035 0.005350815 -0.012217281 -0.0133779375
-0.010653405 0.0032798185 -0.030649992 -0.012030233 -0.016061127 -0.023636065 0.006986447 0.041754767
0.009332253 -0.0077647273 -0.025553146 -0.006085318 0.00026501183 -0.00077238085 0.0071072574 0.0074025556
0.009604887 0.023123873 0.01652821 0.00064856804 0.0084283 0.006247887 -0.00087102543 0.0060061333
-0.00093042257 0.00609417 0.011024364 0.00015655138 -0.047766063 -0.017177107 0.0050667427 0.0023158097
0.012671286 -0.006471528 0.009681462 0.009422777 0.005236119 -0.012411395 -0.013846817 -0.002455415
-0.007358868 -0.0034069149 -0.007742039 0.014207485 0.007934091 -0.0030774933 -0.009633141 -0.020340769
-0.032415744 -0.021681737 -0.017244088 -0.008572835 0.0031566205 -0.009066049 -0.009857961 -0.029622277
-0.0070623057 0.01145082 0.020294663 0.017230483 0.023860801 0.016528184 -0.001897326 -0.006416992
-0.0036737835 0.0035481679 0.019599544 0.01923194 0.021152385 0.014988101 0.030974733 0.038826574
0.04643432 -0.00927018 -0.019729054 -0.0061847265 -0.014791322 -0.008586748 0.00014278399 -0.011310079
0.009793668 -0.02644793 -0.062316604 -0.023602778 -0.0196382 -0.006838845 -0.014690486 -0.016176017
0.025523497 0.015063656 0.010267176 -0.0040658247 0.00052315125 0.033145107 0.012908517 0.0014270616
0.0011429029 0.01773295 0.0056220223 0.023044176 0.0011640576 0.008744101 0.009650848 -0.004742642
-0.0087530855 -0.00854064 0.012461852 0.01223443 0.0023905146 -0.0009555404 0.005354999 0.01742145
0.0054283645 0.017631652 0.01959937 -0.008659233 -0.013593509 -0.012135047 0.010620163 0.017397929
-0.0039861817 -0.015027374 0.0057816342 -0.0053030294 -0.019675678 -0.010931376 -0.008295064 -0.0046166396
-0.009004982 -0.019628096 -0.02111207 -0.0032375988 0.0035705399 0.04257462 -0.01017812 -0.0024256688
-0.008510128 -0.019551855 -0.0035884143 -0.003136117 -0.013590004 -0.0010145281 -0.019921517 0.013557876
0.020162461 0.0172936 -0.0016408585 -0.001190947 0.027489897 0.0125072 0.00392168 0.0019413206
0.022978526 0.01478633 0.018469939 0.023610888 0.0046984577 -0.01956323 -0.014072198 0.02060528
0.016159227 -0.007543588 0.013780988 -0.024738243 0.0025038018 0.019737713 0.010112141 0.0022483063
0.005302248 -0.0016438175 -0.0048127016 0.0054091387 -0.031548653 -0.018785032 -0.0025230371 -0.009035496
-0.011849256 -0.014812808 0.026741818 0.01891272 0.011247514 0.01854408 0.00088156643 -0.011960834
-0.0060379123 -0.0019439518 -0.00823455 0.0036489482 0.004118902 0.0052431696 0.0034493322 0.008588853
0.023365237 -0.0049214545 -0.014731025 -0.019333662 0.011072364 -0.0077902633 -0.003081014 -0.006032081
-0.015402787 -0.00769367 -0.0065865335 0.0004520304 -0.006415361 -0.011474233 -0.011557495 -0.0009222933
0.0059712697 0.003272507 0.021736547 0.029949928 -0.0059166695 -0.026895737 -0.01690193 -0.023727307
-0.0065376014 0.013086119 0.021188766 -0.005514263 0.016337518 0.024513926 0.0186875 0.016633911

_orig_mod.Dense.bias f4 [64]
00000000: f48c 6f3c bd78 90bc 60c0 18bd b8ba e23c
00000010: ad2c e0bc bb25 003d 18cc 5d3b 24ad 863d
00000020: 026e aebc 9f0d a2bc e2f4 26bd beeb a7bb
00000030: 70c6 efbc 373c 28bd c242 2abb 4b52 6ebc
00000040: e99e 34bc 3613 183d dcbc 91bb ee62 293c
00000050: ba24 bd3c 0d5f a13c b8f0 9d3c e19b 6d3c
00000060: 03dc 503c 26c2 b1bd 4670 66bd 1648 1e3d
00000070: 52d1 9c3c 3cbd 3b3d 876f 1ebd b24f 543d
00000080: d804 6039 bffb f13a a442 ae3c 9f5f 89bb
00000090: 0984 8f3c 0396 efbb 5e2b 943c ecf4 c4bb
000000a0: 6eb3 69bc 62df 0c3c 7614 bcbc a7d8 343c
000000b0: 82c0 06bb 53d7 08bd 2cba 02bd ce4c a23c
000000c0: 3a9c 36bc 8bd3 66bb b6da 203b eac0 c8bc
000000d0: 8417 b73e b41a 083d d711 793d 8345 99bc
000000e0: 6e14 83bc e840 dfbb f721 ecbb 1f98 02bd
000000f0: 5f63 a5bc a846 debc 58ac b6bc 16de 123d
0.014621008 -0.017635697 -0.037292838 0.027676925 -0.027365053 0.031285983 0.0033843573 0.06575993
-0.02129269 -0.019781886 -0.040760882 -0.005124538 -0.029269427 -0.04107305 -0.0025979732 -0.014545987
-0.011024215 0.037127696 -0.0044475626 0.010338528 0.023088802 0.019698644 0.019279823 0.014502496
0.012747767 -0.08679609 -0.056259416 0.038642965 0.01914278 0.045834765 -0.03868058 0.051833816
0.00021364109 0.0018461867 0.021272011 -0.004192307 0.017519014 -0.007311584 0.018087085 -0.0060106423
-0.014263971 0.0085981805 -0.022958975 0.011037982 -0.002056152 -0.033408474 -0.03191583 0.019812014
-0.011145646 -0.0035221304 0.0024544424 -0.024506051 0.35760128 0.03322859 0.06080803 -0.018709904
-0.016000953 -0.0068131573 -0.0072061974 -0.031883355 -0.020188985 -0.0271333 -0.022298977 0.03585633
