4.2_Analysis/Train_Models/model_3/EEGNet_SupConLoss_final.pth (torch, 80679 bytes, 18 tensors)

_orig_mod.encoder.conv1.weight f4 [8, 1, 1, 64]
00000000: ec33 18be 823a 26be 6afd 9e3e 9c55 bc3e
00000010: f04c 9c3e e5e1 113e fee8 b7be 0664 36bf
00000020: 19c5 56bf 8c8d 30bf d3ff 9cbe 8084 8b3e
00000030: a5f3 3c3f 1668 763f fc9c 703f bd25 033f
00000040: b1d6 6abd 4ad3 d9be 0e5d 0cbf ba9d 24bf
00000050: d910 90be a24c 8c3d bc08 933e ae58 093f
00000060: 0b34 273e 957c c7bc f5e0 7ebe 49e9 07bf
00000070: bbd0 8ebe bbf7 493e 6187 083f 5829 0f3f
00000080: 0d4d 8f3e 6414 8a3c 1e1a d9be 4801 acbe
00000090: e6bb d9be b8ef 1ebe 049c 913d c402 333e
000000a0: 9f85 493e 95b0 183e 021e 9fbe d736 a4be
000000b0: 6fb8 a9be 86ea 34be 67c3 543e 8cfa bc3e
000000c0: 2c63 bf3e 1446 d13e 0a6f bf3d 986d d0bd
000000d0: 5d84 8bbd e03e 1abe 33d3 28bd 127a 033e
000000e0: 692d ae3e 871b 933e 53df d23c 62fe 88be
000000f0: b09f 99be 7c24 7fbe 896f 42bc 8531 6cbd
00000100: b4fb 8abe a618 d83d 6298 ca3e 901d c63e
00000110: 1602 963d 42af acbe bc32 bfbe 868b b2be
00000120: dd14 e3bd b525 a43e e762 093f 8a71 1b3f
00000130: 8ad0 db3e 429e 1cbd fcae a8be 1842 3abf
00000140: cebb 41bf 803b a8be 8ef4 8fbc ddd3 fe3e
00000150: 949a 0e3f c4f2 233f 4cb4 1c3e a253 a2be
00000160: 4014 5abf f84e 88bf 1da3 85bf 6b4b 29bf
00000170: dd64 6cbe 2c44 7d3e fd4f 903e 5041 933e
00000180: ec2e a63e 7f72 d4ba 346b 84bc 9bd2 463e
00000190: d53e 7b3e b7a5 9b3e 27f5 f53e a35d 6b3e
000001a0: 1740 2a3e 0400 00be 3e36 5dbe 032c 8dbe
000001b0: f769 60bc 6199 3b3e dca0 da3e 884f ad3e
000001c0: a164 223e 128a b93d 6c19 3abe 729d 4dbe
000001d0: c90d f5bd 6b4c 9c3c 0011 213e ba19 a63e
000001e0: 1779 393e 43f6 71bd 8f65 73be bc23 91be
000001f0: b50b 82be 3518 45bd 93eb b63d 4e09 a93e
00000200: e350 efbd 091b 713e e31c 8b3d e721 d1bc
00000210: b8ff 88be e387 b2be 4c55 2bbc 18a0 5d3e
00000220: 7ca6 9a3e 9ded 893e 9209 cf3d 2adb eb3d
00000230: 4ff1 26be 8ce5 d6bd 13cf 05be 8152 ddbd
00000240: 15f5 bd3d c92e b43c 5bf0 02be 552f a0be
00000250: 7e2c e6be a262 aabe d17b 073c b9c9 523e
00000260: 9e37 243f 4365 603f b954 703f a5f6 043f
00000270: f630 013e d617 e1be 209c 6abf a276 8cbf
00000280: 23a9 6ebf cd48 c0be 88dd f93d fcbb ea3e
00000290: c02c 223f 468d 3a3f dc83 cd3e 4501 9c3d
000002a0: bbf1 cebd 6f09 eabe c924 58be 3316 58be
000002b0: 5ea0 823c e075 ae3e 8bbc c23e f921 913d
000002c0: e1dd 8f3c 4962 d1be d385 9dbe b0e1 38be
000002d0: 1b02 15be 6a0f 913d 711d 6a3e 8b5b 8f3e
000002e0: 245d ccbc ca9f 21be c6e1 abbd f4d7 2cbe
000002f0: a412 303e a955 933e 57a5 253e 1c0a d1be
00000300: c882 c0bf c80e 45bf b588 d3be c1e5 5dbd
00000310: d38e 88bd 2af7 f43d 85d7 993e 2766 8d3e
00000320: 4497 a13e 7440 953e 46bd b63e 98ae 673e
00000330: e8e6 d43d 2dc2 b33e 4001 8a3e 5264 0f3f
00000340: f4b1 313f aea8 023f 6bce f23e 372d b73e
00000350: 1af4 6e3e 0197 883d 8ddc fc3b 4f5e 383e
00000360: 8611 18bc eb0d 743e e075 1b3e 09c7 ec3c
00000370: 6078 3cbd 4119 61bd 8067 86bd 3ec5 193c
00000380: aa12 923d e48c e83d 41e1 ac3c cff2 fe3d
00000390: 9699 cabc 168b 3dbd 3d90 4abe d69c 6cbe
000003a0: 37d4 91be a83b 74be 8d9e 9bbe 0962 54be
000003b0: 8b3d 8ebe 7a49 ddbe 0d53 07bf 2943 03bf
000003c0: b1b1 d9be d080 f4be 3e73 a1be 848a edbd
000003d0: 7b1a 6dbe 7d85 5fbe 9ee0 73bd 96f2 10be
000003e0: 9418 c8bd b757 e6bd d9c4 29bd 3b3f 6b3d
000003f0: 73b0 c2bc 9080 743e a98c dd3e 7e0f aa3f
-0.14863557 -0.16233256 0.31052715 0.36784065 0.3052745 0.14246328 -0.35919946 -0.71246374
-0.838945 -0.68965983 -0.30663928 0.27249527 0.7380927 0.9625257 0.9398954 0.5122946
-0.057333652 -0.42544013 -0.5482949 -0.6430317 -0.28137854 0.06850554 0.287176 0.5365094
0.16328447 -0.024351398 -0.24890502 -0.5309034 -0.27893624 0.19723408 0.5333157 0.5592246
0.27988473 0.016855426 -0.42402738 -0.33594728 -0.42526168 -0.15521133 0.07109836 0.17481524
0.19679879 0.1491111 -0.31077582 -0.3207309 -0.33148524 -0.17667589 0.20777665 0.36909902
0.3738035 0.40873778 0.09347351 -0.10177153 -0.06812356 -0.15063047 -0.04121704 0.12839535
0.3401902 0.2873194 0.025741255 -0.2675658 -0.30004644 -0.24916261 -0.011867412 -0.057664413
-0.2714516 0.10551576 0.39569384 0.3869443 0.073246166 -0.3372746 -0.37343395 -0.34872073
-0.11087964 0.32060018 0.5366654 0.6072012 0.4293254 -0.038236864 -0.32946002 -0.727571
-0.7567719 -0.32857895 -0.017572667 0.49771014 0.5570462 0.64042306 0.15303153 -0.31704432
-0.8518715 -1.0649099 -1.0440403 -0.66130704 -0.23085351 0.24733037 0.28186026 0.28760767
0.32457674 -0.0016208439 -0.0161644 0.19416277 0.24535687 0.30399868 0.480386 0.22984938
0.16626011 -0.12500006 -0.21602723 -0.2757264 -0.013697139 0.18320228 0.4270085 0.3384974
0.158587 0.09059538 -0.1817376 -0.20079592 -0.1196552 0.019079408 0.15729141 0.32441503
0.18112598 -0.059072744 -0.2376921 -0.28347576 -0.25399557 -0.04811879 0.08931651 0.3301491
-0.1168535 0.2354547 0.06792619 -0.025528861 -0.26757598 -0.34869298 -0.010457348 0.21643102
0.30205142 0.26939097 0.10109247 0.115164116 -0.1630299 -0.10493001 -0.13067274 -0.10806752
0.09275261 0.021994965 -0.12787001 -0.3128611 -0.4495582 -0.33278376 0.008269266 0.20584764
0.64147365 0.87654513 0.93879277 0.5193885 0.12616333 -0.43963498 -0.9164448 -1.0973704
-0.9322683 -0.37555543 0.12200457 0.45846546 0.63349533 0.72871816 0.40139663 0.0761743
-0.101047 -0.45710322 -0.21107782 -0.21102218 0.01594561 0.34074306 0.38034472 0.07086558
0.017561855 -0.40895298 -0.30766162 -0.18054843 -0.14551584 0.07083018 0.22862794 0.2799953
-0.024946757 -0.15783611 -0.08392672 -0.16879255 0.17194611 0.2877629 0.16176353 -0.40828025
-1.5039911 -0.7697568 -0.41315237 -0.05417419 -0.066678666 0.11961205 0.3004724 0.27617
0.3156072 0.29150736 0.3569128 0.22625196 0.10395604 0.35109082 0.2695408 0.5601245
0.6941216 0.51038635 0.4742311 0.35776684 0.23335305 0.06669427 0.0077167214 0.18004726
-0.009281522 0.23833434 0.15181684 0.028903501 -0.046013236 -0.054955725 -0.0656271 0.009385405
0.07132466 0.11354998 0.021103503 0.12448656 -0.024731439 -0.04627522 -0.19781585 -0.23106703
-0.2848222 -0.23850882 -0.30394402 -0.20740522 -0.2778133 -0.4322012 -0.528611 -0.51274353
-0.4251838 -0.47754526 -0.31533235 -0.115986854 -0.23154633 -0.21828265 -0.059540384 -0.14155039
-0.09770313 -0.11247199 -0.041447494 0.05743335 -0.023765778 0.23877168 0.43271378 1.3285978

_orig_mod.encoder.batchnorm1.weight f4 [8]
00000000: 9bf5 a33f fef3 a43f 6b8d 7e3f b66e 743f
00000010: fa2a 263f 518b 213f e45a e43e d28a e53e
1.2809328 1.288696 0.99434537 0.9548143 0.6490933 0.63103205 0.44600594 0.44832474

_orig_mod.encoder.batchnorm1.bias f4 [8]
00000000: 1c53 d13e 2f47 8ebd 8f7b f3bd a441 0d3e
00000010: 84d6 ae3e dffb 0dbe 3096 233a a9b4 783d
0.4088372 -0.06947171 -0.11888801 0.13794571 0.34148037 -0.13865612 0.0006240336 0.060719166

_orig_mod.encoder.batchnorm1.running_mean f4 [8]
00000000: c55c 00b9 5f58 f038 b0e8 d538 10c4 09b9
00000010: de8d 0c3b 68a9 a438 fcc0 6339 1c0f 67ba
-0.0001224159 0.00011460552 0.00010199973 -0.00013138377 0.0021446864 7.851684e-05 0.00021720299 -0.0008814202

_orig_mod.encoder.batchnorm1.running_var f4 [8]
00000000: 854b f73f e556 8440 6508 2540 8dae 7d41
00000010: 84d3 6441 b7fa 7040 f61d b240 c033 3041
1.9319922 4.1356072 2.5786374 15.855115 14.30164 3.7653024 5.5661573 11.012634

_orig_mod.encoder.conv2.weight f4 [16, 1, 93, 1]
00000000: a69f 703c 5eb6 80bc 406e a23c ea91 823d
00000010: e145 60bc 26c7 243c f489 83bc 5dcb 2f3d
00000020: 7d36 9e3b f695 5bbd fe95 3c3c f3a3 5d3d
00000030: 6f7e 173d fdee 743b d7e2 e2ba da19 6bbd
00000040: 3eed a0bc b7dc 20bd 48c0 863d d7d0 cd3d
00000050: 59fb 29bc 474b 62bd c639 48bd d7b3 393c
00000060: 0728 cfbd fbb3 16be 0829 343d 2d8b 97ba
00000070: b50a 813c 01c8 dcbc 27fa 3ebd a526 bf3b
00000080: bf5c fcbc 5f9c abbd 158f e1bd 44a8 acbd
00000090: 1396 babd 1798 83bd fcc1 60bd 3474 1fbd
000000a0: c487 04bd e8cb b9bd 9dae 02be f9d6 63bc
000000b0: 81ed 25be f734 40bd 4925 81be 9fd0 50bd
000000c0: 8f28 32be 81ad a0be cd0e 833d c949 9d3e
000000d0: c7cb 66bc c6b5 97be 0d9d 983d 5936 0c3d
000000e0: ab10 353e b3e2 963d 0a56 ba3d 12fd d73d
000000f0: cdb4 263b 5698 773d ac74 253e 5f22 403e
00000100: b2de 833d 3990 0c3e 20fb f33d 76c6 bdbd
00000110: e987 353d f184 d0bc 7006 843d c18f 083e
00000120: 300a 993e e046 3a3e ad05 57bc e089 03bd
00000130: ddd6 523d 6d82 81bd 463d cd3a b8e2 d9bd
00000140: 83ae 82bd 7330 0b3e dd56 543d af8c 13be
00000150: 2fb2 c9bd d9b1 aebc 9c56 443c adfc eabc
00000160: c5da fabd e95f 33be 3e71 91bc 8c5a 8e3c
00000170: a6e4 d03b d084 73bb af9f c93c a676 fb3c
00000180: 46ee 8cbb 61cc 9abb 287c 793c 61bc c03c
00000190: 51c8 7ebc a852 25bc 6a1d 753c 81c4 ad3b
000001a0: 39c0 57bd e83b 2c3d 7363 cc3c 83c9 aa3d
000001b0: 0b01 4abd 740b 3abc c097 313c ca19 a3bc
000001c0: aff4 97bb 5d5e 8fbc c57f c03b afba 863d
000001d0: 8053 723d 6b83 4c3c 5b56 913d 4a9f 3abd
000001e0: c93e 2d3b 8520 d93c c97e 8abd fa50 743d
000001f0: 21a6 8dbd c035 b53d d6d1 073d b4ab 8bbd
00000200: 70c0 64be afd7 223e 7a73 5dbe 54d2 a2bb
00000210: 9e7e eabc cb65 9e3d ea1e 853e a23f 8d3d
00000220: cd27 893d 4e69 2cbd a6cf 37be 92e2 86be
00000230: a60b 1a3e 3fc1 dd3c d26f c73d 574a 0e3e
00000240: 7b6b 9f3e eb91 303e c5fb f43d 4685 97bd
00000250: 41bd 30be cf11 8abe cd19 98be 3673 a6bc
00000260: 61ba 533d f7ab e93d 07a4 dfbd 9649 ad3d
00000270: 76a9 853d 24fb 273d 321c 02bc 7266 12bd
00000280: 37be 09be 4d9f d43c 09b7 e5bc 2618 50bd
00000290: e8c6 7cbb 8f30 573c a8cd 143e 9d50 1b3e
000002a0: 0892 42be 698f 153b 239b aebc 79d7 08bc
000002b0: b3cd c23c 28fd 43bd efb2 1c3d 9a78 bd3d
000002c0: 6814 433d fe9e 563e 038d b63b c550 8abd
000002d0: 524c cfbc e214 2ebe f974 173d a8de babc
000002e0: 3d3d 623b 9ec5 21bc e37d cabc 04e1 813b
000002f0: b912 bfbd b733 f03b 123f 173b f188 bbbc
00000300: 84c4 dabb 1fdd c13b b8a4 453c 20ff 313d
00000310: 3f86 193c 4f4e b5bb cdf9 c83d 6b0c 703c
00000320: 14c7 543d ee6b 053d 546f 5a3d db81 c7bc
00000330: 1be7 523b 7ab6 46bd 8bb1 c4bb 5d23 96bc
00000340: 7852 643d c757 cb3b a613 18bd c7b6 13bb
00000350: 5324 bfbd 8cb0 493c 12f9 fb3b ca6d f33d
00000360: 696e c63c 33bd 74bd 8467 963c b93d e23c
00000370: 62c0 c73c 6aee 2abe fb66 863d aea9 3d3d
00000380: d0c3 5d3d 5455 363e e013 833d a982 8f3d
00000390: 0eda 4e3d c6f4 b13d 4bd3 c53d fb95 243d
000003a0: ac8f 953d 3836 bdbd 61bf b83d c129 283c
000003b0: 17d1 493e 60cd 813e 8771 b83e 4dbb 243d
000003c0: 7719 0d3d 3a83 8fbc c211 1dbe 993b 05bd
000003d0: 3501 b63c 115e abbc d8f3 e7bc cf6a 6d3d
000003e0: 00ed 6c3e e8c5 9cbd 47a7 8fbc 8775 d83d
000003f0: 9f31 363c 4666 c3bc 09eb cebd 6381 4bbe
0.014686501 -0.01571196 0.019827962 0.06375487 -0.013688535 0.010057246 -0.016056992 0.04291855
0.004828273 -0.05360981 0.01151037 0.054111432 0.03698581 0.0037373893 -0.0017310035 -0.0573977
-0.019644376 -0.03927299 0.065796435 0.10049599 -0.010374867 -0.05524757 -0.048883222 0.011334381
-0.101150565 -0.14717095 0.043984443 -0.0011561863 0.015752176 -0.026950838 -0.046625283 0.005833464
-0.030805944 -0.08379435 -0.11013619 -0.084305316 -0.09110656 -0.06425493 -0.054872498 -0.03892918
-0.03235604 -0.09072095 -0.12761922 -0.013906234 -0.16203882 -0.04692551 -0.2522376 -0.050980207
-0.17398284 -0.31382373 0.063993074 0.30720356 -0.01408667 -0.2963087 0.0745183 0.034231517
0.1768214 0.07367458 0.09098442 0.10546316 0.0025437356 0.060448013 0.16157788 0.18763112
0.0643896 0.13726892 0.11913133 -0.09266369 0.044319067 -0.025454016 0.0644654 0.13336088
0.29890585 0.18191099 -0.013123912 -0.03211391 0.05147444 -0.06323705 0.001565852 -0.10638946
-0.06380942 0.135927 0.05184065 -0.14409135 -0.09848439 -0.021325039 0.01198354 -0.028684938
-0.12248758 -0.17517056 -0.017754193 0.01737716 0.0063749133 -0.003715802 0.024612276 0.030696224
-0.0043008653 -0.004724071 0.015227355 0.023527326 -0.015550689 -0.010090508 0.014960626 0.005302966
-0.052673552 0.04204932 0.024949765 0.083392166 -0.0493174 -0.01135527 0.010839403 -0.019909758
-0.004637323 -0.01750105 0.0058746063 0.06578576 0.059161663 0.012482504 0.07096549 -0.045562066
0.0026435128 0.026504764 -0.067624636 0.059647538 -0.06916452 0.088481426 0.0331591 -0.06819859
-0.22339034 0.1590259 -0.21626082 -0.0049689207 -0.028624829 0.07734259 0.26000148 0.068969026
0.066970445 -0.042092614 -0.17950305 -0.26344734 0.15043506 0.027069686 0.09738125 0.13895546
0.3113669 0.17243163 0.11962084 -0.07398467 -0.17259695 -0.26966712 -0.29707184 -0.020318609
0.051691417 0.11409753 -0.109199576 0.08461301 0.06526463 0.04101099 -0.007941293 -0.03574223
-0.13451467 0.025954867 -0.02804138 -0.05080428 -0.0038570706 0.013134136 0.14531577 0.1516747
-0.19001019 0.0022821075 -0.02131421 -0.008352154 0.023779726 -0.04784885 0.038256582 0.092515185
0.047626883 0.20959088 0.005571009 -0.06753687 -0.025304947 -0.17000154 0.03697679 -0.022811249
0.0034521364 -0.009873776 -0.02471823 0.0039635915 -0.09329743 0.0073303836 0.0023078364 -0.022892447
-0.0066762585 0.0059162523 0.012063198 0.043456197 0.009370386 -0.0055330168 0.09813271 0.014651398
0.05194767 0.032573633 0.053328827 -0.024353912 0.0032181207 -0.048513867 -0.00600261 -0.01832741
0.05574271 0.0062055322 -0.037128113 -0.0022539364 -0.093331 0.012310158 0.0076896036 0.11886175
0.02422257 -0.059750747 0.018359907 0.027617322 0.024383727 -0.1669251 0.06562611 0.046304397
0.05414182 0.17805988 0.06400275 0.07007343 0.050500922 0.08689265 0.096594416 0.040182095
0.07302794 -0.09238857 0.09020878 0.010263861 0.19708668 0.25352 0.36024114 0.040217686
0.034448113 -0.017518628 -0.15338805 -0.03252754 0.022217372 -0.020918878 -0.028314516 0.05796319
0.23137283 -0.07654935 -0.017535819 0.105692916 0.011120229 -0.023852479 -0.10103423 -0.19873576

_orig_mod.encoder.batchnorm2.weight f4 [16]
00000000: 7346 df40 9f0c f340 2db6 de40 91aa cb40
00000010: d380 c540 1480 ea40 6843 0841 6d0e bd40
00000020: 2a51 d540 dd8e d840 0fca c140 c471 f340
00000030: c13e c240 af44 c940 8ded 5c3e a4b3 363f
6.9773498 7.5952907 6.9597383 6.364571 6.1719756 7.3281345 8.516457 5.908011
6.6661577 6.7674394 6.0559154 7.6076374 6.0701604 6.289634 0.21574993 0.7136786

_orig_mod.encoder.batchnorm2.bias f4 [16]
00000000: ca5f 74c0 7bd0 29c0 ccb4 2fc0 222b 46c0
00000010: 99c8 76c0 8499 3bc0 589e 7dc0 c1f0 33c0
00000020: 8653 82c0 4d7f fdc0 2bde 5fc0 fe43 03c0
00000030: e278 33c0 8db3 48c0 8afe 4b3c 8890 4bbd
-3.8183465 -2.6533496 -2.74541 -3.0963826 -3.8559935 -2.9312449 -3.9627895 -2.8115695
-4.0726957 -7.9217896 -3.497935 -2.051025 -2.804253 -3.135959 0.012450824 -0.049698383

_orig_mod.encoder.batchnorm2.running_mean f4 [16]
00000000: 0d6b 9ebe edf6 073e c3a8 24bd 0e7c 51bc
00000010: ac2e 0dbd 5acf 1abe 98d3 12be 793c 203d
00000020: dad4 a73d 6677 a23d 6bbc 803d 85a2 2b3d
00000030: 4dac f838 84f1 5d3a 0414 ce3c ebc1 a93b
-0.30941048 0.13277788 -0.040200006 -0.012785925 -0.034468338 -0.15118161 -0.14338529 0.03912017
0.08194895 0.0793293 0.06285938 0.041903038 0.00011857655 0.00084664696 0.025156029 0.0051805875

_orig_mod.encoder.batchnorm2.running_var f4 [16]
00000000: 4d63 4940 0d0c 4140 a43c 3f3f e3a9 3340
00000010: 1e3f ed3e d424 1140 ca69 c93f 446d fb3e
00000020: c4c0 ce3d 04aa a43e b955 673e 5ecb 8f3e
00000030: a107 7c3e ac3a 823e 07f0 303e aa98 203e
3.1466858 3.0163605 0.74701905 2.807244 0.46337217 2.2678728 1.5735409 0.491068
0.10095361 0.32160962 0.22591294 0.28084844 0.24612285 0.25435388 0.17279063 0.15683237

_orig_mod.encoder.sepconv3.depthwise.weight f4 [16, 1, 1, 16]
00000000: 37b3 a5be 38d4 77be 138e 11be f4ba 0abe
00000010: 2ea4 28be 95a3 45be 7db4 2dbe 0979 f7bd
00000020: 140b 07be 449a ecbd ae7c 16be 6770 f1bd
00000030: 9d80 55be d416 78be 4105 83be 5688 aebe
00000040: c399 b53e 5ff8 4e3e 0215 0e3e 05ba 043e
00000050: a105 9b3d d8dc a43d 5f41 e33d 0c56 bd3d
00000060: c63e f73d 733c f33d a915 b53d 9652 e93d
00000070: 2f7a e23d 41ce fc3d 2b6a 533e 934f d83e
00000080: f943 003f f5db 2a3e f110 de3d 436e ea3d
00000090: 90bf dd3d 95ac 0c3e e234 f83d 087e 3c3e
000000a0: 2fc8 283e 8aca cf3d 1d01 c53d 3482 cf3d
000000b0: 260b 143e 66fc 2a3e b4ac 583e 1032 f93e
000000c0: 1576 983e bb68 483e 19c0 323e 85fa 0d3e
000000d0: 6fef 2b3e 924a 143e 0fab 113e 85a6 223e
000000e0: 0bba 293e 1f87 1b3e d543 0a3e 6e95 163e
000000f0: 6700 353e 9868 463e 530b 6b3e f043 b23e
00000100: daf4 ac3e a46a 813e bb19 583e 6ce1 283e
00000110: 2dd8 203e 904e 003e 1a07 023e 880d 1a3e
00000120: 1bd2 e93d a211 143e 0cd9 123e 4d02 193e
00000130: e564 1b3e be27 613e bab3 923e 423e c33e
00000140: d1f0 d2be 97ff 64be 13c0 05be a1bc f3bd
00000150: 4ecd 17be 200e ebbd 8ef4 c8bd 20f2 33be
00000160: 980d cdbd bd93 d0bd e894 e6bd 625c 9dbd
00000170: 31e4 35be 11bd 14be 3c48 5cbe ec31 ecbe
00000180: cc2b 41be df82 11be 0f4a e4bd f6ba d7bd
00000190: e6ca a5bd a9a6 dbbd 28a0 f9bd b7e8 efbd
000001a0: 7365 fabd f481 e8bd 8c48 d3bd cfab b3bd
000001b0: dce9 debd bdd8 d7bd 439c 15be 34b1 5ebe
000001c0: 9154 6cbe 4e2b 4fbe 7631 32be f8dc 18be
000001d0: 4cba 09be 1b30 bbbd a9bb f4bd b1e1 f4bd
000001e0: 6ee7 00be 30e4 bebd bbbf adbd 41ba bbbd
000001f0: 1e55 f3bd 45c1 36be 3c31 6cbe a9b7 92be
00000200: 4b26 e13e af87 693e 05b7 dc3d 9bd0 8e3d
00000210: d96b cd3d b2a1 053e 7f72 333e 549c 453e
00000220: 8999 373e 4d76 0d3e 939f 103e 510d d73d
00000230: 3be2 ad3d aaf0 213e e11e 7e3e a195 ef3e
00000240: d5df 643f 51fc 2cbf 7639 bebe 4c72 2e3e
00000250: 0b29 e13e 4c27 d3be b61a c33d 3041 8a3e
00000260: e6f4 c13e 8164 41be b965 cabd 5e4a a1be
00000270: c419 283f 3e37 19bf f81a a0bd ddfd 0e3f
00000280: 6f9d ae3e e97b 4c3e a45e 473e 0191 b93d
00000290: 20bd 983d a625 ca3d 5494 e83d 7fa0 1d3e
000002a0: f9b1 043e 7ee3 b43d 0c83 1c3e 5ffa c93d
000002b0: 5691 0a3e 67bb 313e 2c31 633e a0a7 e53e
000002c0: 22b5 91be 0713 40be 96dd c7bd 1fdf f3bd
000002d0: 3eb6 f4bd 5711 debd 27b5 c7bd ef94 aabd
000002e0: 48a0 e3bd f1ca 02be cd02 bcbd 1e29 cabd
000002f0: 4cb6 0fbe c898 46be cc68 41be 9058 8fbe
00000300: d718 b8be 564c 33be 1245 a6bd 6d28 18bd
00000310: 8cf4 a4bd 9fa2 f4bd d02a 24be f7d7 55be
00000320: 9446 48be 1367 3bbe 9b83 d8bd 7802 2fbd
00000330: e194 1dbd 75df 95bd 5ae9 4bbe 1eca bebe
00000340: 4025 a23e ade4 303e f464 8e3d f20d 5e3d
00000350: e2a4 8e3d 9593 ef3d 874b 1a3e b580 5e3e
00000360: 592e 613e 88da 423e 4b0b 123e b200 913d
00000370: 3ba7 543d b8b1 d03d d92b 4d3e d8fa b43e
00000380: 53f8 52be 7f32 a7bf d5df 883f 69a2 0740
00000390: 7048 7cbf 2f3d 1a3e c8ba b0bf ee88 c7bf
000003a0: 7c78 1540 cef3 063f 463b d5bf 68e7 0040
000003b0: 04b7 0cbf 5aa2 c43e 8eab 26c0 444e e33f
000003c0: 29ba e9be aff8 a03f 0a57 98bd 1931 27be
000003d0: 642f 93bf a582 abbd 4ec4 94bd cd50 253f
000003e0: 4b47 263e 7c6b 303f 8521 6abf af40 963f
000003f0: e177 8dbf 11f5 e1bf d598 d33f 0859 993e
-0.32363293 -0.24202049 -0.14214353 -0.1354788 -0.1646888 -0.19300683 -0.16963382 -0.120836325
-0.1318782 -0.11552861 -0.14695999 -0.11789017 -0.20849843 -0.24227458 -0.25589946 -0.3408839
0.35468873 0.20211934 0.13875201 0.12961586 0.07569433 0.08049935 0.11096453 0.09244928
0.1207252 0.11876764 0.08842022 0.11392705 0.11058461 0.12344027 0.20645969 0.4224821
0.5010372 0.1668547 0.10843075 0.11446812 0.10827553 0.1373771 0.121194616 0.18407452
0.16482614 0.10146053 0.09619353 0.10132256 0.14457378 0.16697845 0.21159631 0.48671007
0.2977759 0.19571202 0.17456092 0.13865097 0.16790555 0.14481571 0.1422541 0.15883835
0.16574876 0.15188263 0.13502438 0.1470544 0.17675935 0.19375837 0.22953539 0.34817457
0.33780557 0.25276673 0.21103565 0.16492242 0.15707465 0.12529969 0.12698022 0.15044224
0.114170276 0.14459851 0.1434061 0.14942284 0.15175207 0.21987817 0.28652745 0.38133436
-0.41199353 -0.22363125 -0.13061552 -0.119012125 -0.14824411 -0.114773035 -0.0981227 -0.17572832
-0.100123584 -0.10184429 -0.1125887 -0.07683636 -0.1776283 -0.14525248 -0.2151193 -0.46131837
-0.18864363 -0.1421008 -0.11146938 -0.10533707 -0.080953404 -0.10725147 -0.121887505 -0.11714309
-0.12226381 -0.113529116 -0.103165716 -0.08773004 -0.10884449 -0.105393864 -0.1461039 -0.21747285
-0.23079135 -0.20231363 -0.1740168 -0.14928043 -0.13449973 -0.09140035 -0.11949856 -0.1195711
-0.12588283 -0.09320867 -0.08483835 -0.091663845 -0.11881469 -0.17847164 -0.23065656 -0.28655747
0.43974528 0.22805665 0.10777096 0.06973382 0.10030336 0.13049963 0.17524146 0.19297916
0.17929663 0.1381466 0.14123373 0.10500587 0.08490416 0.15814462 0.24816467 0.46793845
0.8940404 -0.67572504 -0.37153214 0.17035788 0.43976626 -0.4124092 0.09526579 0.2700286
0.37882155 -0.18885995 -0.09882683 -0.3150205 0.65664315 -0.5984992 -0.07817644 0.55856115
0.34104487 0.19969143 0.19469696 0.090608604 0.07457948 0.09870462 0.11356416 0.15393256
0.12958516 0.08832453 0.15284365 0.098622076 0.13532004 0.17356645 0.22186726 0.4485445
-0.28458506 -0.18757258 -0.09759061 -0.11907791 -0.119488224 -0.10843151 -0.09751349 -0.08329188
-0.111145556 -0.12772729 -0.09180222 -0.09871124 -0.14034384 -0.19394219 -0.18887633 -0.27997255
-0.3595645 -0.17509589 -0.08118643 -0.037147928 -0.08054456 -0.1194508 -0.16031957 -0.20883165
-0.19558173 -0.18301038 -0.10571977 -0.042726964 -0.03847206 -0.07318012 -0.19913235 -0.37263578
0.31669044 0.17274733 0.06952849 0.054212518 0.06965043 0.11698071 0.15067874 0.21728785
0.21990336 0.19028676 0.1426212 0.07080211 0.051917296 0.10190147 0.20036258 0.3534763
-0.2060254 -1.3062285 1.0693308 2.1192877 -0.9854803 0.15062402 -1.3807001 -1.5588663
2.3354788 0.52715766 -1.6658714 2.014124 -0.5496676 0.38405114 -2.6042209 1.775826
-0.4564984 1.2575892 -0.074384764 -0.16327323 -1.1498837 -0.08374528 -0.07264005 0.6457642
0.16238134 0.6891401 -0.91457397 1.173849 -1.1052209 -1.7652913 1.6531016 0.29950738

_orig_mod.encoder.sepconv3.pointwise.weight f4 [16, 16, 1, 1]
00000000: f09a edbe d0c5 023e 8345 a7bc 6410 02bd
00000010: a81d ac3e 22dc 03bf dbb6 af3d 1694 debd
00000020: 2f31 05bf 9c8a 07be e3cb 463e d612 91bd
00000030: cc1d 753f 2b70 68bf 3471 cbbc e422 4e3b
00000040: 977b 91bd 346c 1f3e 5f2e 643e 8081 d53c
00000050: 8963 c2bc 0cad 6fbe d75b b8bd 2f48 2e3e
00000060: 15a3 2abe 2a09 773e c0e5 5cbf bd39 bc3f
00000070: 6c19 abbd ce10 0c3e 725e 1c40 1da8 d13e
00000080: 25ce 163f efab 283d ceb7 2b3e a6e4 f03d
00000090: 2b70 9d3d f5a6 923f 7aed b2bc 914d 69bd
000000a0: 13ca ecbd d0e1 bcbd e2eb ee3d b76e 02be
000000b0: c60d 33be 9d98 863e 742f 2f40 8835 503e
000000c0: 25ea 363f 2bae da3d 3233 d9be fe2d 98be
000000d0: e774 8d3e be21 8abd 8a37 a3bd 1d29 993e
000000e0: 4d77 b53d 13d4 9f3e eacc ebbd 7dfc fa3d
000000f0: eefc 42be 7a0b 0d3e 78c2 47c0 2021 f93d
00000100: 3de4 c4bd ee4c bcbd 03e6 0f3e ac8d 263e
00000110: f419 fdbd 39e0 77bd 5ce3 ed3e b81a a53e
00000120: 4c31 2e3e 4909 823f db04 20bd 4f54 14be
00000130: a037 913e c1de 0fbf 6a35 e6bd 12a0 0d40
00000140: dbb3 d93e a9fe 38be 8ed2 583d 70ba c3bc
00000150: 2ce5 d0bc e0fd 373b 7d9e 443d ece7 b93d
00000160: d7c4 c83d 19ca 6d3f bf74 1b3d df19 f33c
00000170: 4712 82bd 0b9b 9a3c 2c1a f63b 0a11 2fc0
00000180: ae96 59bd 0661 1bbc 5629 93be 76df babc
00000190: bd96 583e 47d2 d0bd 8975 1b3e 2233 403f
000001a0: cd50 33bf 8218 923f 9239 1d3c 3fde 3ebe
000001b0: 9216 93bd ac2e 44be 3354 8a3e 104b e03f
000001c0: e5f5 24be 446d ab3d b5ed b53e 7832 143e
000001d0: d499 863b e84e a83e 1467 553f da7a c6bd
000001e0: 7186 13be 75a2 b2be bc62 19be 6c5f a03d
000001f0: ae0d be3d 85bf 133e 169a e2bd 7e47 0e40
00000200: c6b0 163d 6ff8 e33d b309 2f3d 58fd a1be
00000210: c2b7 5c3e f98b 083e 7af4 313e 8f45 2e3e
00000220: 0c35 abbe 5418 553d 5e70 89bd 71fb f03d
00000230: a046 07be f58e c73d 63c9 66c0 cca8 9c3c
00000240: c54a 6a3e 3e62 fe3d 8e6d 48bd a8b6 26bf
00000250: b627 bb3d f331 f3bd 7c78 ce3c 7928 b83e
00000260: b5a7 c83d e83c 7c3e 6834 413e 4682 e8bc
00000270: 144e 6bbd 2e40 75bd ba84 5c40 0b21 9ebb
00000280: 5ada 16be ef22 67be bb02 b03e 3725 913e
00000290: 6e31 9fbd 240d 153e 0306 b23f 00aa e83d
000002a0: 7ef4 2c3e 6384 2b3e c1e3 033e e2dd 43bd
000002b0: 3fcd 763f b883 55bf c0a3 a4bd 89bc 87bd
000002c0: 89e0 8dbd fe40 9b3d 48b1 13bf 6845 29bd
000002d0: 0c8f e4be 9d94 b33d c482 71be 1bba 17be
000002e0: db2f 31bf 290e 8bbe 1a51 773f f66b 02bf
000002f0: 5da3 5cbe 1b4b df3e 40d4 c2bd 7c27 253d
00000300: e336 d1bd ff29 193e b762 43bf a8b6 61bd
00000310: ab9b bdbf 60cb a1be f75d 53be 3fc9 00bd
00000320: e698 b53d dad1 153f c51e 32be dd69 a7bd
00000330: 2361 51be f7c6 303e da9d 6a3d ce07 fd3c
00000340: 205f 4dbe 9ab0 c83e 8de8 073f 236a 7cbe
00000350: 0234 cf3e 280e a3be 8ae8 993c b66c f3bd
00000360: c7e2 483f 539d 92be 2546 e5be 6b2b 293f
00000370: f97f acbc 51ed 9d3e 39cb 8539 3aef 223c
00000380: 45d0 49be fdce dcbf 69d3 eabd dbb8 803e
00000390: 0ee2 913e 8029 093f b596 25be 41c8 84be
000003a0: 74ca ee3b 1aa7 06be db39 883e e07a 18be
000003b0: 6548 2b3d 0f1e 8cbd 323c 2bbe 6527 d6bc
000003c0: 834b d1be 8323 5bbe 8e5c 1bbf cd00 123f
000003d0: 2f77 1c3e 0e1c 683e aba4 93be e09b 9dbe
000003e0: 04d3 3abf f3a5 853e 56cd 3cbf de31 ac3e
000003f0: 9c6b c2be 1b17 ac3e 1ea7 8fbd 4a2e dd3e
-0.4640727 0.12770772 -0.020418888 -0.031753913 0.33616376 -0.5150777 0.08579799 -0.10868089
-0.52028173 -0.13236469 0.19413714 -0.07083671 0.9574859 -0.90796155 -0.024834253 0.0031453902
-0.07103651 0.1556862 0.22283314 0.026062727 -0.023729103 -0.23405856 -0.09001892 0.17019723
-0.16663773 0.2412459 -0.8628807 1.470512 -0.08354458 0.13678285 2.4432645 0.40948573
0.589083 0.041179594 0.16769335 0.11762361 0.0768741 1.1457201 -0.021841753 -0.05695874
-0.1156198 -0.09222758 0.11666085 -0.12737547 -0.17485723 0.2628831 2.7372713 0.2033292
0.71451026 0.10677751 -0.4242187 -0.2972259 0.27628252 -0.06744717 -0.079695776 0.2991418
0.088606454 0.31216487 -0.11513694 0.122551896 -0.19041798 0.13773909 -3.1212444 0.12164521
-0.096138455 -0.09194361 0.14052586 0.16264981 -0.12358466 -0.06051657 0.46462524 0.32246947
0.17010993 1.0159084 -0.03906713 -0.14485286 0.2836275 -0.5619927 -0.11240657 2.212895
0.4252003 -0.18065895 0.052935176 -0.023892611 -0.025499903 0.0028074905 0.04800271 0.09077439
0.09803169 0.928865 0.037953135 0.029675422 -0.063511424 0.018872758 0.007510444 -2.735415
-0.053122215 -0.009483581 -0.28742474 -0.022811633 0.21151252 -0.10196357 0.15181555 0.7507802
-0.7004517 1.1413729 0.009596245 -0.18639468 -0.07182039 -0.19158429 0.27017364 1.7522907
-0.16109426 0.0837045 0.3553292 0.14472377 0.004107693 0.328727 0.8336041 -0.09691401
-0.14406754 -0.3488957 -0.1497907 0.078307 0.09279953 0.14428528 -0.11064546 2.2231135
0.036789678 0.11131369 0.04273386 -0.31638598 0.21554473 0.13334645 0.17378417 0.17018722
-0.3343891 0.052025154 -0.067108855 0.11766709 -0.13210535 0.09744064 -3.6060417 0.019123457
0.22880085 0.12421082 -0.048932604 -0.6512246 0.09138434 -0.118747614 0.025203936 0.35968378
0.097976126 0.24632609 0.18867648 -0.028382432 -0.057447508 -0.05987566 3.445601 -0.0048257164
-0.14731732 -0.2257192 0.34377083 0.28348705 -0.077731 0.14555794 1.3908085 0.1136055
0.16890141 0.1674972 0.1287985 -0.047819026 0.9640693 -0.8340411 -0.08039045 -0.06627757
-0.06927592 0.07580756 -0.57692385 -0.041325957 -0.44640386 0.0876858 -0.2358504 -0.14817087
-0.69213647 -0.2715924 0.96608126 -0.50945985 -0.21546693 0.43611988 -0.0951314 0.04032086
-0.10215547 0.14957426 -0.763225 -0.055105835 -1.4813131 -0.31600475 -0.20641313 -0.031441923
0.08867054 0.58523333 -0.1739455 -0.08174489 -0.20447211 0.17263399 0.057279445 0.03088751
-0.20055819 0.39197236 0.5308922 -0.24649863 0.40469366 -0.31846738 0.018787641 -0.11885969
0.78471035 -0.28635654 -0.4478008 0.66081876 -0.021057116 0.3084512 0.0002551915 0.009944731
-0.19708355 -1.7250668 -0.114661045 0.25141034 0.2849278 0.5357895 -0.16170771 -0.25934032
0.007287318 -0.13149682 0.2660664 -0.14890623 0.041817088 -0.06841671 -0.16722181 -0.026141832
-0.40877923 -0.21400265 -0.606881 0.5703247 0.1527984 0.22666952 -0.2883657 -0.30782986
-0.72978234 0.26103172 -0.7375082 0.33631796 -0.37972724 0.33611378 -0.07014297 0.43199378

_orig_mod.encoder.batchnorm3.weight f4 [16]
00000000: 2d52 dd3f 1578 9340 0b35 6040 23b5 9040
00000010: 5f25 9740 8c71 7840 4dd7 8740 38ef 8140
00000020: d22e 8140 0c45 6340 9c47 7340 a81f 0440
00000030: e024 1240 5715 d33f 5681 5340 ec2c d63f
1.7290703 4.6084085 3.5032375 4.5221114 4.723312 3.8819304 4.245032 4.0604515
4.0369654 3.5510893 3.8012457 2.0644321 2.2835007 1.6490887 3.304769 1.6732459

_orig_mod.encoder.batchnorm3.bias f4 [16]
00000000: 9a30 a6be 552f 08c0 3497 96bf 13a8 22c0
00000010: f622 08c0 5d8c b7bf 3ab8 f8bf 5b8e bbbf
00000020: b658 07c0 3bfd d1bf fad7 e5bf fba7 31bf
00000030: 8405 2ebf 1351 05bd e38d 97bf 0851 ccbe
-0.32458955 -2.127889 -1.1764894 -2.5415084 -2.1271338 -1.433971 -1.9431221 -1.4652818
-2.1147895 -1.6405405 -1.7956536 -0.6939694 -0.67977166 -0.03254802 -1.1840175 -0.39905572

_orig_mod.encoder.batchnorm3.running_mean f4 [16]
00000000: 3996 f7be 414b 2cc0 c43d 67bf e4d9 e2bf
00000010: 0d2d a2bf b440 84bf 6649 e8bf 73f9 27bf
00000020: c9dd 90bf 5f08 93bf 9d61 50c0 88c1 993f
00000030: 72b5 bbbe 8783 b73f 74fe 2ac0 6578 3bbf
-0.48356798 -2.6920931 -0.9032862 -1.7722745 -1.2669998 -1.0332246 -1.81474 -0.65615004
-1.1317683 -1.148693 -3.2559578 1.2012186 -0.3666187 1.4337014 -2.6717806 -0.7323058

_orig_mod.encoder.batchnorm3.running_var f4 [16]
00000000: 3c26 8e42 cb97 d042 0e38 8942 9428 2a42
00000010: b837 a542 49f1 9042 82da b742 75a4 7c42
00000020: 23e0 e741 6912 0442 f438 0443 8add a742
00000030: df98 8842 6340 8842 5d5a c442 1a9d 7f42
71.07468 104.29647 68.60948 42.539627 82.608826 72.47126 91.92677 63.160603
28.984442 33.01798 132.22247 83.93269 68.29858 68.125755 98.17649 63.90342

_orig_mod.Dense.weight f4 [64, 240]
00000000: 7f86 c1bb 12ee 38bc 41f2 5abc 159d 70bc
00000010: 1507 babc 7662 27bc 50b2 d7bc ece6 6cbc
00000020: 0d65 83bc e89f 6ebc 83f0 9bbc 2055 09bc
00000030: ee4d 6cbc 41d4 a3bc edf0 9abc 55d5 95b9
00000040: 7e38 61bc a440 b7bc f15b baba 0e3f 19bc
00000050: 485b 6cbc c191 96bc 011f 43bb 9599 973b
00000060: b1dc 8ebc c8e1 38bc bf2f 3fbc d59b ecbb
00000070: 5f0f fbbb 8938 01bc 0339 a9bc 2741 87bc
00000080: 1a57 83bc 1526 3ebc 286b f0bb 94bc a4bb
00000090: 5456 8ebc bef0 6ebc fa39 63bc 3946 c7bb
000000a0: 4570 a2bc 31fc 33bc 5d7b 1fbc d6c1 8bbc
000000b0: 50f2 84bb 3ce9 29bc 81d8 3cbc 50aa f83b
000000c0: 51ca 1bbc e28a 48bc 6570 91bb 86a7 2b3a
000000d0: 66ca b3bb 95cc 95bb a5b3 12bb 3478 b0bb
000000e0: 1ea9 80bc 29a2 3f3c 332c ecbb 77ef 0dbc
000000f0: 7d2d a3b8 031a 43bc 84a9 4ebb 6b2f b8bc
00000100: 2f83 bdbc da27 b0bb ba73 32bb d6ac 57bc
00000110: 6a93 18bc 846c 9bbc 0d24 a5bc 504f 8ebc
00000120: 26fc b8bc 2276 5cbc 7fa3 89bc 2c64 b0bc
00000130: 457e 84bc e798 f1ba f5fb c9bc eb4d 51bc
00000140: da12 0bbc 3ddd 3cbc bfdd 63bc d75d a0bb
00000150: 5086 a0bc 2de6 9abc d8ce 8cbc 2f31 f93a
00000160: 90d1 4cbc c3fd 4dbc 6564 f0bb 1d22 6fbc
00000170: 974e e1bb 3198 a2bb 44e6 d0b9 e689 fcbb
00000180: 9dc7 3eba eef2 45bc 6dd1 32bc a50f 1abc
00000190: 0402 2cbc 360a 16bc b5d1 32bc 22d2 0ebc
000001a0: 55bc 0bbc f615 c4bc 7eb9 a2bc 266b dfbc
000001b0: 0fda b1bb eeba 3bbc 4fde 203b dc87 46bc
000001c0: 07ec 58bc 9df1 dcbc f4ac 58bc 877c 46bc
000001d0: 16ff cbbc 1b13 bbbc 5288 b7bc 7f94 84ba
000001e0: afa2 dfbb 1ab6 58bb abcd 493b 469e 663b
000001f0: 8f17 0abb 0617 7938 ca36 6cbb e629 d0bb
00000200: 1a4d 2e38 8b12 18ba 3373 303c 1457 f7bb
00000210: 3b7d 93bb ba60 e1bb fd21 ec3b 9bdb 30bc
00000220: 970c 073c 0725 f1ba ba61 983b c286 4cbc
00000230: 94f0 24bc 0443 7dbb e37a 4cbc 1c7c ffbb
00000240: 0800 04bc 4e79 2ebb 8996 55ba 7266 adbb
00000250: 95d4 1ebc c502 1bbb c31c b63c 69f3 dc3a
00000260: 9f9d 9bbc 4547 f23a 2827 c1bb eb76 0e3c
00000270: 844a 263c 4018 4c3a 801a a1bb 6b89 2cbc
00000280: 5d40 6f3b 40fa feba 3523 a6bc e797 c7bc
00000290: 7b38 bd3a 0d66 f4bc f863 bcbc b140 fbbc
000002a0: b355 d5bc 1d63 e8bc f7e8 25bd d409 abbc
000002b0: 435b d1bc 36cb a2bc cd99 14bd a56a d7bc
000002c0: b6d6 f5bc 8ca3 efbc 2d81 c9bc 2910 e6bc
000002d0: c7e4 86bc f66a 9dbc 093e 4fbc 8f13 a0bc
000002e0: 1164 87bc 53b4 0abb 9a1a 273b bd9c bbbc
000002f0: f2c1 55bc cc29 92bc 4048 a0bb 1f6e 6cbb
00000300: a1e9 8dbb f44f b4bc 5c07 36bc 4cc5 1cbd
00000310: bbbc 24bd 86f4 f1bc 8727 e3bc f69e 03bd
00000320: 1d44 01bd df3d 89bc 5def 27bd 7990 03bd
00000330: 789e 0cbd 57b5 b0bc 06cc 21bd 651c 0cbd
00000340: 4942 e0bc 7a24 5abc 26cb afbc a598 53bc
00000350: 7994 4bbc 3530 2bbc 29a4 febb f840 a7bc
00000360: fa4f 0abc 8a81 11bc 80cd d2bb 981d 9dbc
00000370: 7e79 18bc 46d4 92bc af9c c2bb f58c 4dbc
00000380: ee7d 67bc 9ab1 c8bc 2e98 19bc 2bb1 91bc
00000390: 9f43 04bc eafd 05ba 9faf 12bc 4881 c5bc
000003a0: 91d0 5fbc 0deb 7cbc 8223 3bbc f401 df3a
000003b0: a059 a1bc 7796 0cbc f935 aabb d8e2 58bc
000003c0: 392c e8bb 1c9e a3bb bca5 b7bc e0a8 66bc
000003d0: 52c5 6ebc b6a9 b2bc cee7 c6bc db75 23bc
000003e0: 596b ddbc 2c51 bdbc c363 6ebc 1a6a 44bc
000003f0: 54d6 80bc 2da5 23bc eb23 6dbc 3bb6 a2bc
-0.0059059258 -0.011287229 -0.013363422 -0.014685889 -0.022708455 -0.010216346 -0.026330143 -0.014459353
-0.016039396 -0.014564492 -0.019035583 -0.008382112 -0.014422877 -0.019998671 -0.01891371 -0.0002857844
-0.013746379 -0.02236969 -0.0014218075 -0.009353412 -0.01442606 -0.018380048 -0.0029773118 0.0046264627
-0.017439218 -0.011284299 -0.011669098 -0.007220725 -0.0076617445 -0.007887014 -0.020657068 -0.01651056
-0.016032744 -0.011605759 -0.007336993 -0.005027363 -0.017375149 -0.014583765 -0.013868803 -0.0060813692
-0.019828925 -0.01098542 -0.009734002 -0.017060202 -0.004057206 -0.010370549 -0.011526228 0.007588662
-0.009508685 -0.0122401435 -0.0044384473 0.0006548095 -0.0054867743 -0.004571507 -0.0022384909 -0.005385423
-0.015705641 0.011696377 -0.0072074174 -0.00866305 -7.7809185e-05 -0.011908057 -0.0031534145 -0.022483548
-0.023133842 -0.0053758444 -0.0027229623 -0.013163766 -0.00931249 -0.018972643 -0.020158792 -0.017371804
-0.022581171 -0.013455899 -0.016801594 -0.02153214 -0.016173491 -0.0018432409 -0.024656275 -0.012774925
-0.008488381 -0.011527357 -0.013907849 -0.004893999 -0.019595295 -0.018908584 -0.017188475 0.001901185
-0.0125011355 -0.012572709 -0.0073361867 -0.014595536 -0.0068758237 -0.0049619903 -0.00039844413 -0.0077068685
-0.00072776695 -0.012081845 -0.010914189 -0.009403144 -0.010498527 -0.009157708 -0.010914256 -0.008717092
-0.008528789 -0.023936253 -0.01986384 -0.027272772 -0.005427606 -0.011458142 0.0024546569 -0.012117352
-0.013239867 -0.026970679 -0.013224829 -0.012114651 -0.024901908 -0.022836259 -0.02240387 -0.0010115056
-0.0068248133 -0.0033067525 0.0030792754 0.0035189553 -0.002107117 5.938767e-05 -0.00360434 -0.006352651
4.155664e-05 -0.0005801103 0.010769653 -0.0075482223 -0.0045010126 -0.006877986 0.0072062 -0.0107945455
0.008242748 -0.0018397876 0.004650322 -0.012483301 -0.010067124 -0.003864468 -0.01248047 -0.0077967774
-0.008056648 -0.0026622596 -0.00081477367 -0.0052917534 -0.009694238 -0.0023652774 0.022230512 0.001685721
-0.018996058 0.0018484375 -0.0058945604 0.008695344 0.010149602 0.0007785596 -0.004916489 -0.01053081
0.003650687 -0.0019453242 -0.02028046 -0.024364425 0.0014436388 -0.029833818 -0.022996888 -0.030670496
-0.026041841 -0.028367573 -0.040505376 -0.02087871 -0.025556212 -0.01987229 -0.03627949 -0.02629597
-0.030009609 -0.02925279 -0.024597729 -0.028083878 -0.016466511 -0.019216042 -0.012649068 -0.019540576
-0.016527208 -0.002116461 0.0025498034 -0.022901887 -0.013046728 -0.017842196 -0.0048914254 -0.003607638
-0.0043308293 -0.02201078 -0.011110153 -0.038274094 -0.04021905 -0.029535543 -0.027728809 -0.03213402
-0.0315591 -0.016753135 -0.04099976 -0.0321202 -0.034330815 -0.021570845 -0.039501213 -0.034206767
-0.027375357 -0.013314361 -0.021459173 -0.012914811 -0.012425535 -0.010448505 -0.0077710343 -0.020416722
-0.008441919 -0.008880982 -0.006433189 -0.01917915 -0.00930631 -0.017923485 -0.0059390883 -0.012545814
-0.014129145 -0.02449875 -0.009374661 -0.017784676 -0.008072763 -0.00051113835 -0.008953004 -0.024109498
-0.013660566 -0.0154369 -0.01142204 0.0017014132 -0.019696057 -0.0085807955 -0.0051944223 -0.0132376775
-0.00708535 -0.0049932133 -0.022417895 -0.014078349 -0.014573412 -0.02180944 -0.024280455 -0.009976829
-0.027028726 -0.023109995 -0.014550152 -0.011988187 -0.0157272 -0.009988111 -0.014473896 -0.019862285

_orig_mod.Dense.bias f4 [64]
00000000: 7c0d d4bf ce11 14be 2c35 d0bf 74d9 b2bf
00000010: a1db 5dbf 32ce 33bf 7f82 863f 2677 9cbb
00000020: 13e5 803f c542 d7be c403 dfbe cf9a aabf
00000030: 5dd8 f03f d9d8 c83f 4f2e d1bf 88ad a1be
00000040: 56dc 1a3e aea1 87be dc26 b23d 36b2 073e
00000050: 48f6 a3be 4d84 e0bd a823 d03f 94a2 d63d
00000060: ed55 d9be ed6d 5a3e b2e1 fdbe 9bc1 1a3f
00000070: 4c34 cc3e 7d88 cf3f 23fe 9b3f 0571 04be
00000080: 42b0 cabf 36fb 31bd 17c3 c43e ff39 283f
00000090: d50b af3d 5bcf 7b3e d863 923e ca7d cb3f
000000a0: 6a5c ccbf 515a 9ebf d758 a23e 46f7 b1be
000000b0: 1075 57bd 8a35 e53d 1333 1bc0 b169 66bd
000000c0: aab7 5e3e 1c4e cc3f 0c22 9ebe f4be 8ebf
000000d0: 57df e43e 916e d9bd 1b30 47be ae9e 9b3f
000000e0: a5f3 883c 0d27 173e 21a4 c73f ed6c 0dc0
000000f0: 9000 e9be 8d95 e7be 1f85 b03e 7f60 303e
-1.6566615 -0.14459917 -1.6266227 -1.3972611 -0.8666325 -0.70236504 1.0508574 -0.004774946
1.0069908 -0.4204313 -0.4355756 -1.3328494 1.8816029 1.5691177 -1.6342257 -0.31577706
0.15123114 -0.2649054 0.08698818 0.13251576 -0.32023835 -0.10962734 1.6260881 0.10480228
-0.4244837 0.21330996 -0.49586254 0.6045167 0.3988365 1.6213528 1.2186931 -0.12933739
-1.583504 -0.043452464 0.38430092 0.65713495 0.08547179 0.24590819 0.285918 1.5897763
-1.5965703 -1.2371312 0.31708404 -0.34758967 -0.052601874 0.111918524 -2.4249923 -0.05625314
0.2174975 1.5961337 -0.3088535 -1.1152024 0.44701645 -0.10616792 -0.19451945 1.21578
0.016717741 0.1476099 1.5596963 -2.2097733 -0.45508242 -0.45231286 0.34476563 0.1722431
