4.2_Analysis/Train_Models/model_3/EEGNet_TripletMarginLoss_best.pth (torch, 80829 bytes, 18 tensors)

_orig_mod.encoder.conv1.weight f4 [8, 1, 1, 64]
000000 41 db b8 3f 50 77 f7 3e c3 e2 bd 3d 86 e6 e2 bd
       1.4441911 0.48333216 0.09271767 -0.11079125
000010 d0 01 06 bd 52 bf ca 3c 5a 70 01 3e 6c 45 4e 3e
       -0.032716572 0.024749432 0.12640515 0.2014367
000020 dc 39 34 bd b1 3a 25 be d9 13 67 bd 34 05 86 be
       -0.04400049 -0.1613567 -0.056415413 -0.26175845
000030 f3 88 2d be 16 07 4f be 57 61 f3 bd 28 de 5c be
       -0.16946773 -0.20217547 -0.118838005 -0.21569121
000040 e4 2e ce be 07 9f 96 be 4d 4b 36 be 61 1e 24 be
       -0.4027015 -0.29418203 -0.17802162 -0.16027214
000050 87 ff 9d be 8c 07 9c be 06 9f 27 be cb 58 db bd
       -0.30859014 -0.30474508 -0.16369256 -0.10710295
000060 f4 fe 7d be b0 86 bc bd 94 c6 91 be 91 b8 ce bd
       -0.24804288 -0.09205377 -0.28471816 -0.10093797
000070 9f 78 a6 bd 31 4d c7 bd 95 49 e2 3d 5d 85 94 bd
       -0.081284754 -0.0973152 0.11049191 -0.072519995
000080 c3 b6 83 3d 56 92 6c 3d 60 41 a4 bd d7 f9 5c bb
       0.064313434 0.057756744 -0.08020282 -0.0033718252
000090 7e ad 52 3e 58 17 28 3e f3 ae 44 3e 8f a1 69 3e
       0.20573995 0.16415155 0.19207363 0.22815536
0000a0 50 b1 09 3e f7 c9 81 3e e9 d7 13 3e 27 1d 9b 3e
       0.13446546 0.253494 0.14437832 0.3029568
0000b0 3a 87 84 3e f6 08 18 3e 81 36 9f 3e 70 89 46 3e
       0.2588442 0.14847168 0.3109627 0.19388366
0000c0 b5 21 9c 3e c4 1b 17 3e 13 ff 3f 3e 9e 27 6e 3e
       0.30494466 0.14756685 0.18749647 0.232573
0000d0 f1 eb 90 3e 47 b3 ca 3d 92 54 33 3e 69 8b ab bd
       0.2830501 0.09897476 0.1751273 -0.083762
0000e0 a8 4f a3 bb 8f 8c c0 bd dc 37 95 3c 52 2f e8 3d
       -0.004983861 -0.094018094 0.018215112 0.11337151
0000f0 83 69 27 3d de 61 aa bd d8 69 ed be 8e b5 9d bf
       0.04087211 -0.08319448 -0.46369815 -1.2321031
000100 dc b8 e2 3e a7 e8 1c 3f 84 82 cb 3e 99 a2 00 3f
       0.44281662 0.612925 0.39748013 0.50248104
000110 d7 94 13 3e 62 3c 0b be 34 46 aa be fc 42 07 bf
       0.14412247 -0.13597253 -0.33256686 -0.52836585
000120 3e 96 e6 be 6d db e0 be 9d 12 d2 bd 8f f8 d7 3d
       -0.450365 -0.4391741 -0.102574565 0.10545456
000130 ef 13 16 3f 82 cf 21 3f 3e 37 df 3e ab 41 84 3e
       0.58624166 0.63207257 0.43596834 0.2583135
000140 72 c5 84 3c 6a d0 85 be 20 43 a8 be 9f af 1f be
       0.01620743 -0.2613557 -0.32863712 -0.15594338
000150 62 50 2b bd b4 87 69 3d aa df 24 bd b9 5b d1 3c
       -0.041824706 0.057014182 -0.040252365 0.025556432
000160 e0 51 10 be 19 fe ac be 25 b6 1b bf 60 a9 0a bf
       -0.14093733 -0.3378761 -0.60824805 -0.54164696
000170 6b ab cc be 30 13 6c be 41 ce 88 3e 91 9d ee 3e
       -0.39974532 -0.23054194 0.2671986 0.4660459
000180 e5 f3 ea 3e 2d 51 fe 3e 91 cc b5 3e 88 d7 cc 3e
       0.45889202 0.49671307 0.35507634 0.40008187
000190 fc f9 3a 3e 51 ae 0e 3e c1 ca fa 3d 6a 6f 76 bd
       0.18259424 0.13933684 0.122457035 -0.060164846
0001a0 b3 41 0a be a8 2c 80 be 0b 4e 80 be 2c 9e bb be
       -0.13501625 -0.2503407 -0.25059542 -0.36644113
0001b0 ff 9e 2d be 04 6e a0 be 2d 27 0c be f5 bf 80 bd
       -0.16955183 -0.31333935 -0.1368682 -0.06286613
0001c0 5e 96 b4 3c 6d 37 98 bd 02 51 1d be 5e ff f4 bd
       0.022044357 -0.07432447 -0.15362933 -0.1196277
0001d0 05 67 59 be bf be 55 be 6f f9 f3 bd 08 11 ef bd
       -0.21230705 -0.20873545 -0.1191281 -0.1167317
0001e0 68 71 24 bd 86 53 1b be 62 e0 19 bd 5e ef 33 3c
       -0.040147215 -0.1516858 -0.037567504 0.010982363
0001f0 79 0d dc bd 13 77 64 3e 7a ae 6e 3e a0 93 ad 3e
       -0.10744757 0.22311048 0.23308745 0.3390169
000200 91 31 91 bc a6 6e 82 bd 82 de 89 bc e7 c2 09 be
       -0.01772383 -0.06368761 -0.016829733 -0.13453256
000210 87 d0 70 3c 4c 40 b4 3d c6 74 06 3e 27 67 5d 3e
       0.014698154 0.08801326 0.13130483 0.21621381
000220 76 29 7d 3e 7c 9a 61 3e 36 ab 46 3e 28 4e 80 3e
       0.24722847 0.22031587 0.1940125 0.25059628
000230 eb 75 8f 3e 89 60 0a 3f 87 5b c6 3e 9a 7d 24 3f
       0.28019652 0.5405355 0.38741705 0.6425415
000240 f5 71 31 3f 8d df e8 3e ba 43 fe 3e a0 c2 e7 3e
       0.6931451 0.45483056 0.49661046 0.45265675
000250 b8 d5 65 3e 36 97 7e 3e fe 9b de 3d 53 b8 fe 3b
       0.22444808 0.2486237 0.10869597 0.007773438
000260 58 7e 84 bd 5d 21 6c bd 93 5e 60 bd 12 68 1a be
       -0.06469411 -0.057649005 -0.054777693 -0.15078762
000270 56 cd e3 bd 3d 96 74 be 64 5d fc be 36 e5 18 bf
       -0.11123149 -0.23885436 -0.4929 -0.5972475
000280 97 23 fd be 8a fa 15 bf 44 70 0e bf e2 34 d3 be
       -0.49441215 -0.5858542 -0.55640054 -0.41251284
000290 a1 9d b8 be 4e 9c f3 be a5 52 a8 be 13 52 cc be
       -0.3605776 -0.4758019 -0.32875553 -0.39906368
0002a0 44 82 a8 be 00 1d ab be 22 00 8a be f1 87 9f be
       -0.32911885 -0.33420563 -0.26953226 -0.31158403
0002b0 24 58 e2 bd 6a f3 5e bd ba d4 c4 3c 0b 72 21 bc
       -0.11051968 -0.054431356 0.024027217 -0.00985385
0002c0 4a d1 85 3d 22 90 57 3e e3 85 33 3e 37 23 5d 3e
       0.06534059 0.21051076 0.17531542 0.21595465
0002d0 80 0d 9f 3e 42 65 dd 3e b9 77 48 3e f1 d2 ad 3e
       0.31064987 0.43241316 0.1957692 0.33949998
0002e0 f0 9a 71 3e 56 69 c3 3d a2 44 29 bb f2 30 e9 bd
       0.2359426 0.095415756 -0.0025828262 -0.11386289
0002f0 f6 29 d5 bd d7 8a 57 bd bd a5 74 be 2b 0b 12 bd
       -0.10408394 -0.052622642 -0.23891349 -0.03565518
000300 72 c9 7f be 19 6c 33 be 09 8f 9c bd 92 fb 61 3e
       -0.24979189 -0.17521705 -0.07644469 0.22068623
000310 59 d1 7b 3e e8 d1 23 3c 1c 93 46 bb 7f fa 3c be
       0.24591579 0.009998776 -0.0030300086 -0.18454932
000320 5b bb 93 be 4b e1 b8 3a 48 bd f0 3d 61 36 95 3e
       -0.28853878 0.0014105228 0.117548525 0.2914305
000330 d3 fc b0 3e fb 60 32 3d 7e 05 25 bd 98 4e c8 bd
       0.3456789 0.04354952 -0.04028844 -0.097806156
000340 0c 37 f9 bd 33 69 82 be f1 94 59 bc b8 fc 80 3d
       -0.121687025 -0.25470886 -0.013280139 0.06298202
000350 a3 16 73 3e 4d f5 93 3e e9 73 83 3c 2b d7 91 be
       0.23739104 0.28898087 0.016046481 -0.28484473
000360 bc 00 fc be 98 82 9b be 22 5a 95 be db e6 dd 3d
       -0.4921931 -0.30373073 -0.29170328 0.10835048
000370 a3 b6 ed 3d bb b3 d9 3e d3 dd af 3e 27 d4 ee 3d
       0.11607101 0.42519936 0.34348926 0.116615586
000380 a3 69 cb bd 1e 48 8d be 44 13 94 be 61 89 c2 bc
       -0.09932258 -0.27594084 -0.28920949 -0.023747148
000390 4b 3b 47 3e 78 8c f4 3e c5 49 03 3f e5 99 d1 3e
       0.19456212 0.4776342 0.5128444 0.40937725
0003a0 ab 67 18 3d 53 d2 96 be d0 e4 3e bf 44 4c 46 bf
       0.03720824 -0.2945734 -0.7456789 -0.7746012
0003b0 b2 7b 0a bf fa 51 ba be 47 54 02 3d b3 e1 f3 3e
       -0.54094994 -0.36390668 0.031818654 0.47633132
0003c0 64 5d 2e 3f 81 25 1a 3f 08 c4 04 3f 2a c4 8d 3e
       0.6811125 0.60213476 0.5186162 0.27688724
0003d0 3d a5 d3 3c 74 cc 8a be 2f a6 d1 bd 29 7d aa be
       0.025835628 -0.2710911 -0.10236775 -0.33298615
0003e0 7f 34 2c be a7 88 5a be 2f 0e 44 be 1c 8f 6f be
       -0.168169 -0.21341191 -0.19146036 -0.23394436
0003f0 36 63 c6 bd cf 2b 30 3d 1b cd 7b 3e 16 7b a9 3e
       -0.09686892 0.04301053 0.2458996 0.3310172

_orig_mod.encoder.batchnorm1.weight f4 [8]
000000 67 48 df 3e 7b b1 85 3f 5c 26 bb 3f 19 8d 91 3f
       0.43609926 1.0444788 1.4621081 1.1371185
000010 0d 69 78 3f 24 91 67 3f 94 ee 8f 3f 1a f5 11 3f
       0.97035295 0.9045584 1.1244683 0.5701462

_orig_mod.encoder.batchnorm1.bias f4 [8]
000000 c5 7c a6 3e 39 e9 a8 bd fb 62 5e be c7 74 6d be
       0.32517067 -0.08247609 -0.21717446 -0.23189078
000010 5f 60 4d 3e c7 ca 87 be c7 6a e2 be a2 8e 05 bd
       0.20056294 -0.26521894 -0.4422209 -0.03260673

_orig_mod.encoder.batchnorm1.running_mean f4 [8]
000000 dd a0 66 ba a4 5a d9 b8 d6 b4 fc 39 56 79 27 38
       -0.0008797774 -0.000103642495 0.0004819992 3.9928906e-05
000010 a1 05 79 39 23 1e 34 ba 17 1c 7d 3a c2 eb e1 39
       0.00023748587 -0.0006870946 0.000965537 0.00043090997

_orig_mod.encoder.batchnorm1.running_var f4 [8]
000000 9b c2 00 41 d4 1f 71 40 9e 44 90 41 5a 82 c8 3f
       8.047511 3.7675676 18.033504 1.566478
000010 64 e8 e7 3f ee 66 54 41 72 b7 0d 41 21 64 97 40
       1.8117795 13.275129 8.857286 4.730973

_orig_mod.encoder.conv2.weight f4 [16, 1, 93, 1]
000000 60 9e 3a 3d 71 28 88 3c 26 c5 c2 3c 42 f1 bb 3d
       0.045561194 0.016620846 0.023775648 0.09176876
000010 bc 50 8b bd d4 03 bd bc 96 c5 48 bd db b4 77 be
       -0.06802508 -0.023073114 -0.049016558 -0.24190085
000020 a3 5b 19 be de c0 bc bd c9 0e ae bc 67 d0 48 bc
       -0.14976363 -0.09216474 -0.021247284 -0.012256718
000030 ab 22 ef bd ac 48 02 be 5f 9b 89 bd 49 2e 30 bd
       -0.11676534 -0.12723035 -0.06719088 -0.04301289
000040 3d 08 c0 3d 14 8b 48 3d b0 23 d8 bc 5e 34 16 be
       0.09376571 0.04896076 -0.026384205 -0.14668414
000050 65 21 f6 3c b9 87 43 3d ec b2 a0 bd 59 0a 8e 3d
       0.03004522 0.047736857 -0.07846627 0.069355674
000060 06 47 00 bd 5f 5e 6f bd 05 b8 9d bd c2 d6 33 bd
       -0.031317733 -0.05843961 -0.077011146 -0.04390598
000070 11 1a 2d 3d f4 33 ba 3d 30 47 3d be bc 6e 1c 3d
       0.042261187 0.090919405 -0.18484187 0.038191542
000080 b8 3c ff 3d 48 14 3f 3d e0 1b 4d be 97 58 89 be
       0.12462753 0.0466502 -0.20030165 -0.268254
000090 24 5e 1f be f9 b5 98 bd 7c 03 18 3d 20 0e c5 bb
       -0.15563256 -0.074565835 0.037112698 -0.0060136467
0000a0 10 79 eb 3c 33 77 24 bd 3d 7c 7c 3d 67 59 2d 3c
       0.02874425 -0.04015274 0.06164192 0.010580397
0000b0 3e 52 2e 3a a2 e8 ff bd b5 7d 50 bd 28 0b 8b 3b
       0.0006649828 -0.12495543 -0.050901134 0.0042432733
0000c0 e4 c4 61 bd c4 65 e9 3c 28 f2 ca 3d b5 f9 8d 3b
       -0.05511941 0.028490908 0.09909469 0.004332746
0000d0 3b d2 83 3d 7d 24 d7 3d b7 a2 c3 bd 78 8b 88 bc
       0.06436583 0.105050065 -0.0955252 -0.016668066
0000e0 1a bb 41 3d 58 fc 26 bd c7 d0 12 be 93 c5 8e bc
       0.047297575 -0.040767998 -0.14337455 -0.017428195
0000f0 7a 4d 90 bd ed 2d 21 bd 79 98 80 bd e2 87 25 3d
       -0.070460275 -0.03935044 -0.06279082 0.04041279
000100 41 0e 57 3e 00 f3 6e bd 0a 87 b4 3c f5 84 63 3e
       0.21001531 -0.05833721 0.022037048 0.22218688
000110 30 ca d9 3d fc ea da 3d fb 54 05 bd 75 f4 39 3c
       0.10634267 0.10689351 -0.032551747 0.011349787
000120 45 4f 81 3d af 35 2c 3e 92 a3 48 3d a7 18 4b 3e
       0.063139476 0.16817354 0.048984118 0.19833623
000130 52 91 14 3e 9e 1f cc bc cb 80 a0 3c 4b 49 d3 bd
       0.1450856 -0.02491742 0.019592663 -0.10316714
000140 5e 49 28 be 05 7d 36 bd b8 74 66 bd 44 6c 08 be
       -0.16434237 -0.04455282 -0.056263655 -0.1332255
000150 32 13 86 bd 02 4a e9 bb 58 ba f3 3b 77 13 06 bb
       -0.0654663 -0.007119418 0.0074379854 -0.002045838
000160 ef 75 39 3d b9 33 10 be 13 2f 1b be 51 62 a4 be
       0.045278486 -0.1408223 -0.15154676 -0.3210626
000170 4e b2 72 be 74 da b5 3c ef aa 68 3c b1 ad a5 bc
       -0.2370083 0.022198893 0.01420091 -0.020224424
000180 80 b0 1f bd 1f 1f e1 bc a8 ad 3d 3d 67 99 21 bd
       -0.038986683 -0.02748066 0.04630819 -0.039452937
000190 8d ff 43 3c 44 30 4a 3d 2f 26 66 bd f2 4e 59 bd
       0.0119627835 0.049362436 -0.05618876 -0.053053804
0001a0 27 39 74 3c d2 d5 f6 bc c2 ac 53 3d e5 5b 97 bd
       0.014906204 -0.030131254 0.051678427 -0.07390574
0001b0 3a 0d fc 3c 51 0b f9 3b 6d 70 c5 3b 5a 81 2c 3c
       0.030768026 0.007600226 0.006025365 0.010528887
0001c0 36 76 18 3c 4f 73 02 bd bc 99 82 3d 49 a7 dc 3c
       0.009305527 -0.031848248 0.06376979 0.026935237
0001d0 13 d8 eb bc 4a e7 d2 bc ed 3e 04 be ad e7 b7 3d
       -0.028789556 -0.025745053 -0.1291463 0.089797355
0001e0 1a 66 8b 3c 05 04 29 bd c4 1a b1 bc 1b ba 36 3d
       0.01701646 -0.0412636 -0.021619208 0.044611078
0001f0 db ab 13 bd d9 30 9d 3d 66 3c 17 3d b2 49 2a 3c
       -0.036052566 0.076753326 0.036922835 0.010393547
000200 16 6c 4a 3e b7 d3 34 bc e8 c6 fd 3d fb 1c 1f 3e
       0.19767794 -0.011036805 0.12391454 0.15538399
000210 a3 3b 6d 3c f1 51 b1 bc a1 87 0d 3e 56 07 91 3d
       0.0144795505 -0.021645518 0.1382127 0.07081477
000220 06 34 97 3d dd 61 4c 3d c6 e7 13 be fd 98 2d 3d
       0.073829696 0.049898017 -0.14443883 0.04238223
000230 0f c5 4d bb b2 00 5a 3c f5 72 00 3d 55 00 15 3e
       -0.0031397974 0.01330583 0.03135963 0.14550908
000240 27 f4 4b 3d ba 35 de bd 3f 3b 60 3c 2f 72 e6 3c
       0.04979339 -0.10850091 0.013686 0.028130619
000250 05 09 32 3e 4f b3 66 3e 0d 94 99 3d 22 fe 53 bd
       0.17386253 0.22529338 0.074989416 -0.05175603
000260 c8 5d 58 3d ee 08 08 3e 9f 39 dd bc dc 40 9c 3e
       0.05282381 0.13284656 -0.027005015 0.30518234
000270 34 9f 24 3e 5d 2b 53 3d 41 13 94 3d f5 37 10 be
       0.16076356 0.051555026 0.07230235 -0.14083846
000280 73 6a 81 3e 6a 02 0e 3e 52 a2 4b bc 64 25 f8 bd
       0.25276527 0.13868108 -0.012428837 -0.12116507
000290 d1 84 40 be 01 17 28 be 7a 34 03 be 47 72 ac bd
       -0.18800665 -0.16415025 -0.12812987 -0.08420234
0002a0 6d ed 86 bb 73 f4 2a be b2 3c 19 be ac e7 16 3e
       -0.004117659 -0.16694812 -0.1496456 0.14736813
0002b0 48 74 eb 3d 2d 43 c4 bd 5b ce 50 be 5f db ab be
       0.11496788 -0.09583125 -0.20391218 -0.33565804
0002c0 7a 7f 29 be a6 f5 59 3c 9d 08 94 3c 9b 15 7d bd
       -0.16552535 0.013303196 0.018070513 -0.061788183
0002d0 c8 2b a0 bd 94 0d 16 be 8d ab a7 3c a7 74 91 bd
       -0.078208506 -0.14653617 0.020467544 -0.07102328
0002e0 b2 58 3b 3d d6 5c cc bc a4 a4 74 3d 5e 74 17 3d
       0.045738883 -0.024946611 0.059727326 0.03697621
0002f0 33 f7 a8 3d 4d dc 6c bd 34 96 25 3d 50 6e 20 bc
       0.082502745 -0.057827283 0.040426448 -0.009791926
000300 5d 30 ba 3d ea 8f 34 3c 3b e1 2f 3e e2 28 45 3e
       0.09091256 0.01102064 0.17175762 0.19253877
000310 dc 0d 42 3d c2 34 ae 3c a7 f0 91 3d 79 d7 89 3d
       0.0473765 0.021265391 0.07125979 0.06730551
000320 b1 e4 d1 bd 77 5c 51 ba 75 85 67 3d 02 e7 1f 3d
       -0.102486975 -0.00079864956 0.05652376 0.039038666
000330 ba 92 dd 3b 2d 41 d7 bd 4e 9f 36 be c4 ef 26 be
       0.006761876 -0.10510478 -0.17834207 -0.16302401
000340 16 8a e7 bd 8b 28 d0 3d df f3 ef 3c 52 ff 2d bc
       -0.11305635 0.10163983 0.029291091 -0.010619955
000350 23 07 ca bd d0 24 7a 3d 10 c5 c9 bc ed 03 4e bc
       -0.098646425 0.061070263 -0.0246301 -0.012574178
000360 b1 cb 40 be 5e 6e 99 bd f6 45 d8 bd 1b db 98 3c
       -0.18827702 -0.07491754 -0.10560219 0.018659165
000370 af ef d7 3b 75 34 c6 bd e0 d3 24 3d fa 9d 09 3e
       0.006589852 -0.09677974 0.040241122 0.1343917
000380 28 4b 84 3d b3 69 6a bc 8f 6b 64 bd 07 42 a6 bc
       0.064596474 -0.014307427 -0.05576664 -0.020295156
000390 42 46 0d bb cd b9 bb bd 35 b5 2b 3d 47 73 28 3d
       -0.002155677 -0.09166298 0.04192086 0.041125562
0003a0 99 d3 6a 3d ce f8 cf 3b 95 4c ff bd b9 b7 b1 3b
       0.0573307 0.0063467985 -0.12465779 0.005423513
0003b0 3c 22 98 3d de 64 59 be 36 eb c8 bc 9b 7a 32 bd
       0.07428405 -0.21229884 -0.02452622 -0.043573957
0003c0 2b 6d 75 bb e6 1e f3 bb b5 dd 80 bd 8f 16 e8 bd
       -0.0037449102 -0.007419455 -0.06292287 -0.11332428
0003d0 02 b9 28 3d 79 20 97 3d 44 fb 18 3e 10 40 fd 3c
       0.041192062 0.073792405 0.149396 0.030914336
0003e0 7b 2b 4d be 4b fb d7 3d f4 e4 e0 3d ae 7f 04 be
       -0.20036118 0.10545977 0.10981169 -0.12939331
0003f0 fa e1 5a 3d 66 7e 55 bd e8 9a 9e 3d d8 40 84 3d
       0.053438164 -0.052122496 0.0774439 0.064576805

_orig_mod.encoder.batchnorm2.weight f4 [16]
000000 d1 47 72 40 d5 10 86 40 a5 d9 89 40 71 cf 70 40
       3.7856333 4.1895547 4.307818 3.7626612
000010 00 b5 82 40 00 56 86 40 a1 c1 95 40 84 d7 8d 40
       4.0845947 4.197998 4.6798863 4.432558
000020 d0 6c 8f 40 29 d2 85 40 5e 52 69 40 8b e1 6e 40
       4.482033 4.1819043 3.6456523 3.732516
000030 36 ed 80 40 d5 51 80 40 e1 5f 59 40 8b 58 79 40
       4.0289564 4.0099893 3.396477 3.8960292

_orig_mod.encoder.batchnorm2.bias f4 [16]
000000 ea 77 01 c0 d7 b1 df bf f0 40 0a c0 50 bc 15 c0
       -2.022944 -1.7476147 -2.1602135 -2.3396187
000010 07 1d 11 c0 83 c6 bc bf 8d 06 04 c0 6a fd 0e c0
       -2.2673967 -1.4748081 -2.0628998 -2.2342172
000020 43 21 bd bf b3 ec fc bf d3 6f 49 c0 33 43 0e c0
       -1.4775776 -1.9759735 -3.1474502 -2.2228515
000030 58 1e 0a c0 04 39 d0 bf 4b da e8 bf 98 bd 00 c0
       -2.158102 -1.62674 -1.8191618 -2.011572

_orig_mod.encoder.batchnorm2.running_mean f4 [16]
000000 c3 e7 17 bf 86 40 cf 3d 80 7a 18 3d db b3 8c 3d
       -0.59338015 0.10119729 0.0372262 0.06870242
000010 41 87 db 3b a5 ee be 3c c7 79 3c 3e 62 0b 9f be
       0.006699473 0.023307154 0.1840583 -0.31063372
000020 fd 06 07 be 9a a8 8a be 58 50 88 3d 4f b6 a6 3c
       -0.1318626 -0.27081758 0.06655949 0.020350603
000030 0e f5 8b bd 15 fa 85 bd b3 2c ea 3b 83 7b 5c ba
       -0.0683385 -0.0654184 0.007146442 -0.00084107387

_orig_mod.encoder.batchnorm2.running_var f4 [16]
000000 89 ee 02 3f 9c ea a9 3e aa 66 3d 3f d3 44 15 3f
       0.51145226 0.33186805 0.7398478 0.5830814
000010 f8 c8 cc 3f 15 e3 fc 3f 6d 38 2e 3f ff 69 59 40
       1.5998831 1.97568 0.6805485 3.3970945
000020 cf 30 e1 3f 76 c8 b5 3f a7 3b 22 3f 62 0b 8c 3f
       1.759302 1.4201801 0.6337227 1.0940974
000030 f3 ac c5 3f 9d 84 13 3f ea d0 b7 3e 67 31 b2 3e
       1.5443405 0.57624227 0.35901576 0.34803316

_orig_mod.encoder.sepconv3.depthwise.weight f4 [16, 1, 1, 16]
000000 eb 78 a3 be cc ac 71 be 56 2a 0d be c0 dc 0f 3d
       -0.3192819 -0.23601073 -0.13785681 0.035122633
000010 7b 82 35 3e 98 10 21 bf a4 d7 54 be 15 95 b0 be
       0.17725556 -0.62915945 -0.20785385 -0.3448874
000020 96 62 19 3e 59 3a 2e bf c9 16 93 3e e1 a8 af be
       0.14979014 -0.6805778 0.2872832 -0.34308532
000030 9d b1 3a 3e f5 2a c3 be da 40 7b be a9 25 d5 be
       0.18231817 -0.3811871 -0.24536458 -0.41630295
000040 40 5d 0a 3f 92 4a 6f 3e 3a c5 54 3e e8 79 d8 3d
       0.5404854 0.2336829 0.20778361 0.10570127
000050 25 57 28 3e ee 4e 80 3e 17 68 94 3e 23 7a b0 3e
       0.16439493 0.2506022 0.28985664 0.34468183
000060 8b 4d 9e 3e 27 02 96 3e c7 6a 17 3e 5c 3d 1c 3e
       0.30918536 0.29298517 0.14786826 0.15257782
000070 e7 da a6 3d 1a 5c 55 3e 34 97 a1 3e 41 03 eb 3e
       0.08147221 0.20835915 0.3156067 0.4590092
000080 79 4e de be bc fe 95 be 9d 27 7f be 3c 4d 51 be
       -0.43419245 -0.2929591 -0.24917455 -0.20439619
000090 7d ed 05 be ee 62 1b be 8c 44 24 be e2 54 26 be
       -0.13078876 -0.15174457 -0.16041774 -0.16243318
0000a0 2d 36 2e be c1 b3 2f be ac d8 46 be 1d 22 54 be
       -0.17012854 -0.17158414 -0.19418591 -0.20716138
0000b0 09 58 60 be ee 7a 8b be f4 6e c1 be 4a 95 11 bf
       -0.21908583 -0.27242225 -0.37779963 -0.5686842
0000c0 25 9b 21 3f bf 22 9d 3e 01 50 13 3e 6d 4e 83 3e
       0.63127357 0.30690572 0.14385988 0.25645772
0000d0 e3 47 d0 3d e7 25 ac 3c 4f b2 0b 3e 96 0a 74 3e
       0.10169961 0.021014167 0.13642238 0.23832163
0000e0 ff 0f 1f 3e d1 5b 05 3e 98 b8 27 3e a1 47 86 3e
       0.15533446 0.13023306 0.1637901 0.26226524
0000f0 48 74 3b 3e c4 04 40 3e 41 97 e6 3e 9c 7e 1f 3f
       0.18306077 0.18751818 0.45037273 0.62302566
000100 7a 43 22 3f a0 a6 11 bd 6d 2b ef 3e 86 56 95 bf
       0.6338421 -0.035559297 0.4671282 -1.166703
000110 0a 97 99 3e 1c 94 b8 3e 52 32 3e 3e d2 21 bf 3d
       0.29998046 0.36050498 0.18573883 0.093326226
000120 fc 91 07 3e e8 ba be 3e dd 91 9c 3e 8a c4 a8 bf
       0.13239282 0.37251973 0.30580035 -1.3184979
000130 3e 5b ed 3e 9d da 03 3f d1 e6 95 be d9 38 1b 3f
       0.46358675 0.5150545 -0.2927766 0.6063362
000140 e8 de fa be d7 7c 49 be 18 69 56 be b3 73 4e be
       -0.4899819 -0.19676529 -0.20938528 -0.20161323
000150 17 07 0e 3d f5 32 8e be 7a 9f 2d be 09 c0 4c be
       0.03467473 -0.27773252 -0.16955367 -0.1999513
000160 0a 65 74 be 8e 93 13 be 6b a3 2a be d1 5d aa 3b
       -0.23866668 -0.14411756 -0.16663902 0.005199172
000170 52 a3 83 be 74 36 d3 bd cb 2f 89 be 17 62 00 bf
       -0.2571054 -0.103131205 -0.26794276 -0.50149673
000180 47 4d 1a 3f ed 9e 9f 3e 04 71 a9 3e 45 7b 8b 3e
       0.60274166 0.31175938 0.33094037 0.27242485
000190 e9 3b 4e 3e b5 af 94 3e 8f ba 23 3e 5d b4 7d 3e
       0.20140041 0.29040304 0.15989135 0.24775834
0001a0 8f a8 1d 3e 2b 85 50 3e 58 26 70 3e 39 f4 0c 3e
       0.15396331 0.203633 0.23452127 0.13765039
0001b0 89 98 a2 3e 7d 25 85 3e d4 e6 c1 3e 50 71 08 3f
       0.31757 0.26005164 0.3787142 0.532979
0001c0 47 2e 22 3f c7 64 86 3e 47 b5 dc 3e ff 98 32 3e
       0.63351864 0.26248762 0.43107054 0.17441176
0001d0 c8 de 3f be 60 fc 8f 3e 0b 4e 6f 3e b6 b4 83 3e
       -0.18737328 0.28122234 0.23369615 0.2572381
0001e0 a8 cd 6a 3e 6f 4c 84 3e 1f d2 82 3e 28 66 0a 3e
       0.22930014 0.25839564 0.25550935 0.13515532
0001f0 d8 58 26 3e 64 d7 5e 3e f4 63 dc 3e 94 46 2c 3f
       0.16244829 0.21761853 0.43045008 0.67295194
000200 9e 94 fa 3e 52 55 a0 3e 1b 5d 4e 3e e1 11 49 3e
       0.4894151 0.31315094 0.20152704 0.19635727
000210 ac 24 2a 3e 15 a0 3e 3e c8 4e 22 3e 68 07 63 3e
       0.16615552 0.18615754 0.15850365 0.22170794
000220 94 2a 2b 3e 30 94 1a 3e ae f4 3b 3e f8 04 4b 3e
       0.16715461 0.15095592 0.18355057 0.19826114
000230 73 c8 90 3e 18 50 91 3e 93 7e bb 3e df 89 0c 3f
       0.2827793 0.2838142 0.36620006 0.54897875
000240 51 93 15 3f 87 e8 60 3e e6 c1 85 3e e1 08 44 3e
       0.5842791 0.21963702 0.26124495 0.19144012
000250 85 d3 a5 bc ca ab 8c 3e 0f fb 9a 3d ac a6 90 3e
       -0.020242462 0.27474815 0.07567417 0.2825216
000260 b1 a8 c3 3d 7f 76 88 3d f7 1f 88 3d 2f 26 48 3e
       0.0955366 0.06663226 0.06646722 0.19545816
000270 47 19 88 3e 1a 12 a1 3e 87 d7 dc 3e e1 98 31 3f
       0.26581785 0.31459123 0.43133184 0.693739
000280 3f d2 14 3f df 3c b7 3e 87 8d 48 3e 73 aa 23 3d
       0.5813331 0.35788628 0.19585238 0.039957475
000290 2f 7e 01 3e 78 aa ca 3d e1 d0 72 3e 9d 54 0d 3e
       0.12645791 0.098957956 0.23712493 0.13801809
0002a0 72 59 45 3e 6c 69 2b 3e 17 ac f1 3d 14 9e 16 3e
       0.19272402 0.16739434 0.11800402 0.1470874
0002b0 f5 6f 2c 3e 33 f2 3e 3e 30 c5 ed 3e e5 bb 42 3f
       0.16839583 0.18647079 0.46439505 0.76067954
0002c0 97 ab 0b 3f e6 c9 b3 3e f2 66 67 3e 8b 7a 25 3e
       0.545587 0.35114974 0.22597864 0.16160028
0002d0 1c ae 03 3e 95 22 07 3d 50 ab d1 3d b9 4b 30 3e
       0.12859386 0.032991964 0.102377534 0.17216386
0002e0 aa f9 d7 3d 47 3e 44 3e de d1 5e 3e 8e 12 37 3e
       0.105456665 0.19164382 0.21759745 0.17878172
0002f0 5d 89 28 3e fc ff 4f 3e 5b e5 71 3e d7 0c db 3e
       0.1645865 0.20312494 0.23622648 0.42783234
000300 92 98 fe be 00 03 7c be 20 eb db bd 22 c7 e1 3d
       -0.49725777 -0.2461052 -0.10738206 0.1102431
000310 c0 3c 81 be 1f 67 8e be 8a f0 3f be 04 c5 86 be
       -0.2524166 -0.2781305 -0.18744102 -0.26322186
000320 0d 86 b2 be d5 11 b5 be 8b 47 ff 3d 70 aa 97 be
       -0.34867898 -0.35365167 0.124648176 -0.2962222
000330 a0 f1 26 be 7c 5f 50 be 35 48 99 be 57 75 f4 be
       -0.1630311 -0.20348924 -0.29937902 -0.47745773
000340 ad 83 e7 3e 00 99 9c 3e ca 91 28 3e 92 1e 17 3e
       0.45217648 0.3058548 0.16461864 0.14757755
000350 7c 80 1c 3e cf b4 3a 3e 6a 38 93 3e 7d b0 77 3e
       0.15283388 0.18233036 0.28753978 0.24188419
000360 11 12 98 3e 30 0f 74 3e d4 04 41 3e 4b a3 0c 3e
       0.29701284 0.23833919 0.18849498 0.13734166
000370 29 8b 14 3e 73 66 47 3e f5 db a0 3e 95 43 11 3f
       0.1450621 0.19472675 0.31417814 0.56743747
000380 ee 76 1f 3f 46 42 9a be 56 bf 11 3f 41 24 24 bd
       0.6229085 -0.30128688 0.5693258 -0.040073637
000390 cb 03 4a be c8 46 a4 3e 96 55 2e 3e 67 f8 b0 3e
       -0.1972801 0.32085252 0.17024836 0.34564516
0003a0 55 9f 95 3e c8 0b ab be 9c a2 ce 3e 05 94 4d 3e
       0.29223123 -0.33407426 0.40358436 0.20075996
0003b0 46 91 b0 3d 88 b5 07 bf db 12 37 3f f6 10 ac 3e
       0.08621459 -0.5301137 0.71513146 0.3360669
0003c0 f4 de ff be 99 54 9a be 01 c3 89 be 73 b5 2f be
       -0.49974787 -0.30142668 -0.2690659 -0.17159061
0003d0 56 57 46 be 13 d8 54 be 6b 4a 06 be 16 9c 8f be
       -0.19369254 -0.20785551 -0.13114326 -0.28048772
0003e0 a1 d8 80 be 8b 5c 2a be 4c a3 89 be 54 24 fd bd
       -0.25165275 -0.16636865 -0.26882398 -0.12360445
0003f0 c8 84 7e be 42 5a 2f be 23 2c b0 be cf b6 f1 be
       -0.2485534 -0.17124274 -0.34408674 -0.47209784

_orig_mod.encoder.sepconv3.pointwise.weight f4 [16, 16, 1, 1]
000000 f9 c4 08 bf a3 11 82 3e 01 a2 1c 3e b5 22 07 bf
       -0.53425556 0.2540408 0.15296175 -0.52787334
000010 e7 7f 1c bf c0 8e bd bd 22 79 b5 be 92 d7 48 3e
       -0.61132663 -0.09255743 -0.3544398 0.19613484
000020 2a af 72 3e 1c 5b e0 be d1 f5 ae be ee 12 87 be
       0.23699632 -0.4381951 -0.34171918 -0.2638163
000030 7c 2d 38 be 64 fa 88 be 8f 3a ed 3e 74 76 6f be
       -0.17986101 -0.26753533 0.4633374 -0.2338503
000040 ea 85 2f 3d 55 99 c8 be 43 0e d0 3c e1 5b 90 bd
       0.04285232 -0.39179483 0.025397426 -0.070487745
000050 57 39 64 3f a0 cd e9 bd 77 5c 93 bd 35 c4 0a 3f
       0.89149994 -0.11416173 -0.07195371 0.5420564
000060 c5 15 c3 3e eb a4 4b 3e bf ec 98 be 17 c7 cb be
       0.38102546 0.1988713 -0.29868123 -0.3980033
000070 de f1 d0 3e 40 84 ce be 3f ea 0a be e0 b3 aa bd
       0.4080953 -0.40335274 -0.1356592 -0.0833509
000080 ad e4 b8 3e ec 51 4f be e2 8f cb 3d 1d eb 4e 3e
       0.36111966 -0.20246094 0.09939553 0.20206876
000090 e7 1b b0 3f ac d8 4e be 75 f6 b0 be a5 21 01 bc
       1.3758515 -0.20199841 -0.34563032 -0.007881557
0000a0 d4 20 39 3d 15 39 6e 3e 9c 06 86 3e 0a d7 cf bc
       0.045197323 0.23263963 0.26176918 -0.025371093
0000b0 57 3a 9e 3b 0d 24 98 3e c2 05 dc be 7b cb 48 3e
       0.004828732 0.29715005 -0.42973143 0.19608872
0000c0 ad 0f e8 3e e4 04 c2 be 22 7f 01 be 69 54 a6 3e
       0.4532446 -0.37894356 -0.12646154 0.32486275
0000d0 7c 8c e0 be 76 d2 ba 3e 8c 0f 70 3e 14 f9 bd 3e
       -0.4385718 0.36488694 0.2344343 0.37104094
0000e0 42 04 cc 3e c0 d2 81 3e 85 61 47 3a 99 5a d5 3d
       0.39846998 0.25356102 0.0007605779 0.10417671
0000f0 90 89 ef 3e 7f 43 11 bf e3 2f e3 be af 7e 4d 3e
       0.4678464 -0.56743616 -0.44372472 0.20067857
000100 40 59 cf be 68 4f 5f 3e 9d 3a 3e 3d 06 08 00 bf
       -0.4049778 0.21807635 0.046442617 -0.5001224
000110 a4 dc d8 be 96 e0 23 be cd 0b 18 be ee b2 c1 3d
       -0.42355835 -0.16003641 -0.14848252 0.09457956
000120 d8 b5 c9 bc 0c bc 01 bf ca 2a a9 be aa 2a f3 be
       -0.024622843 -0.5067756 -0.33040458 -0.47493488
000130 9d 6f be bd 65 6e af be 9f da 55 3f 5c 50 c3 be
       -0.09298632 -0.34263912 0.83536714 -0.38147247
000140 4e 08 69 3d 14 da e4 3d 5e d2 b9 3e 84 a6 cf 3e
       0.056892686 0.111744076 0.3629331 0.4055673
000150 0e 97 57 bd 61 51 bb 3e 2c 22 13 bc 54 d1 06 bf
       -0.05263429 0.36585525 -0.008980315 -0.5266316
000160 a6 cb bd 3c af 65 84 3e 94 20 06 3f ae cc c3 3e
       0.023168396 0.25858828 0.5239346 0.38242096
000170 af fc 70 be 7a 8a 80 3e 18 32 ce be 19 a7 e3 3e
       -0.23533891 0.2510565 -0.40272593 0.44463423
000180 52 71 06 3f 42 7f 38 bf 91 bb 9d be 1f eb 28 3b
       0.52516663 -0.7206918 -0.30807164 0.0025774909
000190 cc ef 8e 3e 0c 43 ce be fe 78 02 bd b8 f3 eb 3d
       0.27917325 -0.40285528 -0.03185367 0.11521095
0001a0 cf d1 b4 be c8 57 b1 be d0 60 0a bd e9 3e 89 be
       -0.3531632 -0.34637284 -0.033783734 -0.2680581
0001b0 3c 2e 19 3f 36 df d7 3e 70 7a a2 3e 3b ee 60 be
       0.59836173 0.42162484 0.31734037 -0.21965878
0001c0 97 1f 05 bf 2d f4 75 3e 82 99 2b 3e 0a 04 07 bf
       -0.5200133 0.24018927 0.16757777 -0.5274054
0001d0 0b 88 e4 be 28 d4 35 be 0c 02 a9 be a6 34 5e 3e
       -0.44635043 -0.17756712 -0.33009374 0.21699771
0001e0 ec 12 5a 3e d2 c9 05 bf 02 8f bb be 7e 8b a4 be
       0.2129628 -0.5226108 -0.36632544 -0.32137674
0001f0 40 aa eb bd 33 46 b0 be ed f5 2f 3f 78 47 82 be
       -0.11507082 -0.34428558 0.6873463 -0.2544515
000200 2a 34 3c be 66 ab d7 3c 68 82 a9 3e ec d0 59 3d
       -0.18379274 0.026326846 0.33107305 0.05317776
000210 87 f5 8c 3f 73 a3 91 bd 68 89 2a bf 09 af f3 3d
       1.1012429 -0.071112536 -0.66615915 0.1189862
000220 64 22 be 3d 26 3a 7d 3e 06 bf ba 3d 8a 5b 63 bd
       0.09283903 0.24729213 0.09118466 -0.05550722
000230 9a ae 0b be 29 44 0d 3e 20 99 9c be d7 67 28 3e
       -0.13640824 0.13795532 -0.30585575 0.16445862
000240 b4 a2 cf bd e2 4e 9e 3d 18 28 04 3f 76 c1 da 3e
       -0.10138455 0.077298895 0.5162368 0.42725724
000250 3e db 43 3e 48 33 05 3f 35 0d 34 be 24 02 04 be
       0.19126603 0.52031374 -0.17583163 -0.12891442
000260 06 ff 55 3d f0 d2 a0 3e a3 13 ea 3e a6 73 b1 3e
       0.052245162 0.31410933 0.45718107 0.34658545
000270 8b 0e 8f be 09 61 72 3e 25 b0 e3 be 42 ca 1a 3f
       -0.27940783 0.23669828 -0.44470325 0.6046487
000280 05 fe e8 be f2 e7 7d 3e 78 97 c0 3e dd 63 57 bc
       -0.45506302 0.24795511 0.3761556 -0.013146368
000290 f9 73 be be 45 6c a4 3e de 85 b5 3c cb bd 67 bf
       -0.37197855 0.32113853 0.02215856 -0.90523976
0002a0 98 32 d6 be 11 25 41 3e 80 36 2f 3e 96 42 47 3e
       -0.41835475 0.18861796 0.17110634 0.19458994
0002b0 1e 12 02 bf f8 74 a9 bc 5b bd a6 3d ef 62 83 bc
       -0.50808895 -0.020685658 0.081415854 -0.016038386
0002c0 ec 15 f4 bd bd f6 e2 3d 5e 9b fa 3e 97 49 d3 3e
       -0.11918244 0.11082218 0.4894666 0.41267082
0002d0 cf e2 da bd 45 59 c9 3e d6 19 11 be 13 a8 dd be
       -0.106877916 0.3932592 -0.14170012 -0.43292293
0002e0 ca 75 e8 3c 24 58 a3 3e 14 cf 05 3f 49 38 b4 3e
       0.028376479 0.31903183 0.522691 0.35199192
0002f0 16 a2 97 be 7a 3e 6c 3e 7e c1 d1 be c6 23 03 3f
       -0.2961585 0.23070708 -0.40967935 0.5122646
000300 13 bc 50 bd a6 a0 21 3e e1 8d 34 be ae 78 34 bc
       -0.05096061 0.15783939 -0.17632248 -0.0110151
000310 cc fc 95 be 97 12 ed bd e5 32 44 3e 86 ad ee be
       -0.2929443 -0.11575811 0.1916004 -0.46616763
000320 99 83 95 bf a4 26 25 be 82 21 40 be fc bf 0b be
       -1.1680785 -0.16128021 -0.18762782 -0.13647455
000330 7e 06 ad bb e5 f3 08 3e 01 56 03 3f 79 b2 9b be
       -0.005280315 0.13374288 0.51303107 -0.304096
000340 54 9a 1e be 4e de 58 bc d2 25 af 3e 6f 69 c5 3d
       -0.15488559 -0.013236595 0.34208542 0.096392505
000350 87 c8 a2 3f 07 f8 1e bc 31 9e 27 bf 0a 72 d6 3c
       1.2717446 -0.009702689 -0.65475756 0.026177425
000360 f4 de d0 3d 2e 9a 8a 3e 00 36 36 3e 4c 51 01 3d
       0.10198775 0.27070755 0.17794037 0.03157167
000370 d5 8f 14 be 34 6d 3e 3e e9 aa b3 be 88 17 33 3e
       -0.14507993 0.18596345 -0.35091332 0.17489445
000380 df af 10 3f a0 88 3f bf ff 54 ac be b8 20 03 3c
       0.5651836 -0.7481785 -0.33658597 0.008003406
000390 ac 3e be 3e 38 d6 bd be 68 ec 35 bd 7a c4 09 3e
       0.3715719 -0.37077498 -0.044414908 0.13453856
0003a0 14 f3 73 be 66 5b 9f be 43 43 62 bb 52 44 bb be
       -0.23823196 -0.3112442 -0.0034524954 -0.36575562
0003b0 5d dc 1d 3f b6 2c d1 3e e4 17 96 3e a3 99 64 be
       0.6166437 0.40854424 0.29315102 -0.22324233
0003c0 42 a7 96 be cc 7b 28 3e b5 81 99 3e 5f f3 be bd
       -0.29424483 0.16453475 0.2998177 -0.09323763
0003d0 34 a0 99 bf 01 1d 31 3e 09 62 09 bf 84 c2 96 3e
       -1.2002015 0.1729622 -0.53665215 0.2944528
0003e0 c7 52 98 3e 27 fd 11 3e 58 72 4f be e4 6b 10 bd
       0.29750654 0.14256726 -0.20258462 -0.035259143
0003f0 a7 98 e7 bd f7 c4 75 bc 98 91 03 be 2a 83 c4 3d
       -0.11308413 -0.015000573 -0.12848508 0.0959533

_orig_mod.encoder.batchnorm3.weight f4 [16]
000000 80 cb a3 3f 1b 97 d4 3f 66 0e fd 3f 6b d8 dc 3f
       1.2796478 1.6608614 1.9770019 1.7253546
000010 67 45 99 3f 1a 04 8c 3f 6a 5b 0c 40 b6 77 9c 3f
       1.1974305 1.0938752 2.1930795 1.2224033
000020 f8 75 f7 3f 38 22 96 3f 73 e1 9e 3f 47 54 94 3f
       1.9332876 1.1729193 1.2412552 1.158822
000030 0e 45 e8 3f 75 5c 00 40 5c 3d 06 40 84 d4 09 40
       1.8146074 2.0056431 2.097495 2.153596

_orig_mod.encoder.batchnorm3.bias f4 [16]
000000 65 2d 8c be 38 e3 7d be 98 22 37 be 6b a8 f6 be
       -0.27378383 -0.24793708 -0.1788429 -0.48175368
000010 f5 a4 65 be 68 a8 1b be c3 3b 34 bf 6f f0 8e be
       -0.22426207 -0.1520096 -0.7040369 -0.2791781
000020 c7 90 92 be 1d e0 1c be e7 99 7c be f8 62 21 be
       -0.2862608 -0.15319867 -0.24668084 -0.1576041
000030 85 35 0f bf 67 fa 82 be 57 92 22 bf 89 54 09 bf
       -0.5594104 -0.25581667 -0.63504547 -0.53644615

_orig_mod.encoder.batchnorm3.running_mean f4 [16]
000000 4e 93 62 3f 20 fe b9 3e 40 4f 45 bf ca 9f da be
       0.8850602 0.36326694 -0.7707405 -0.42700034
000010 fe 80 52 3f d2 58 c3 bf 40 a7 df 3d 51 e9 62 3f
       0.82228076 -1.5261481 0.10920572 0.8863726
000020 31 b6 57 bf 05 ff ed bf 90 26 9e bf 50 86 de bf
       -0.8426238 -1.8593451 -1.2355518 -1.7384739
000030 7b 37 95 be d7 e9 8e bf 25 bb 19 3e 25 e8 8c 3e
       -0.2914389 -1.1165112 0.15012796 0.27520862

_orig_mod.encoder.batchnorm3.running_var f4 [16]
000000 f3 06 20 42 ba fe 5d 42 87 c8 b4 42 1d 96 77 42
       40.006786 55.498756 90.391655 61.896595
000010 1d be 1e 42 44 b5 f8 41 40 d0 85 42 fd 73 1d 42
       39.685658 31.088509 66.90674 39.36327
000020 2a f8 83 42 af fc 0f 42 77 43 31 42 7e 73 0e 42
       65.984695 35.99676 44.315884 35.612785
000030 f2 34 76 42 16 e2 a6 42 e2 13 88 42 bf 71 8b 42
       61.551704 83.441574 68.03883 69.72216

_orig_mod.Dense.weight f4 [64, 240]
000000 f5 00 2d bc 4c e4 83 bc 68 0b ca bc 46 36 a2 bc
       -0.01055931 -0.016100071 -0.024663642 -0.01980127
000010 d7 55 82 bc 51 b9 cd bc 37 da 81 bc a8 41 84 bc
       -0.015910072 -0.02511278 -0.015851123 -0.016144589
000020 18 62 a1 bc b1 77 cc bc be 55 a4 bc f3 29 93 bc
       -0.019700095 -0.024959417 -0.020060416 -0.017964339
000030 c7 51 a3 bc 68 05 82 bc db 7d 2d bc aa 32 16 3c
       -0.019936455 -0.015871719 -0.010589088 0.009167353
000040 60 bd 06 bc 16 14 0c bc 72 f5 b1 bc bd fe 0e 3b
       -0.008223861 -0.008549711 -0.021723483 0.0021819316
000050 72 99 4d bc a9 64 83 bc 65 30 c8 bc ec e8 9b bb
       -0.012548791 -0.01603921 -0.024437139 -0.004757991
000060 da 7c 08 bb e4 61 3b bc 02 b2 a5 bc 13 c7 1c bc
       -0.002082637 -0.011436913 -0.020226482 -0.009568947
000070 2a e1 0a bb 3c dd c2 bb ca dd 7e 3c 5f fc 88 3c
       -0.0021191337 -0.0059467833 0.015555808 0.016721902
000080 0f 31 73 3c 30 cb cc 3c d5 4f 32 3b 42 fa 31 3c
       0.014843239 0.024999231 0.0027208228 0.010862889
000090 a7 56 06 3d 0c 23 d8 3c ce e4 22 3c d8 00 83 3b
       0.032797482 0.0263839 0.009942247 0.0039979033
0000a0 35 20 74 3c 7d 32 a0 3b 38 48 0c 3c 2f 70 a9 3c
       0.014900257 0.004888831 0.00856214 0.020683376
0000b0 41 1e ce 3c f9 1c 1f 3c 44 c3 f4 ba b0 f9 62 bc
       0.02516091 0.009711497 -0.0018673916 -0.013853475
0000c0 a9 c8 48 bc 97 63 6e bc 0a 5e ed bc 82 74 99 bc
       -0.012254872 -0.014550111 -0.028975505 -0.018732313
0000d0 0c 96 45 bc 46 64 bf bb 5e 1e 68 bc 88 a0 bf 3a
       -0.0120597 -0.005840811 -0.014167396 0.0014619986
0000e0 24 99 83 bc ab 2e ca bc c5 b3 f4 bb 4b e5 19 bb
       -0.016064234 -0.024680456 -0.0074677193 -0.0023482617
0000f0 69 06 92 bb 19 11 36 bc 93 26 ef bb 63 ef 6e bc
       -0.0044563306 -0.011112475 -0.0072982996 -0.014583441
000100 a4 03 05 3c 1c 6e ae 3b e8 04 b8 3a 26 62 27 bb
       0.008118544 0.0053231847 0.0014039548 -0.0025540679
000110 bd a0 94 3b 25 f8 8e bc 6e b0 88 bb 3a 6c 59 bc
       0.004535763 -0.017452309 -0.0041714227 -0.013270432
000120 5b 37 bc bb 66 8c 80 bc 00 cc e5 bb 81 00 db 3b
       -0.0057439036 -0.015691947 -0.007012844 0.0066834097
000130 fb 87 57 bb 0f 21 2d 3a 89 75 c1 3a 41 93 30 3c
       -0.0032887447 0.00066043524 0.001475976 0.010777296
000140 b1 8b 6c 3b 93 e8 6f 3c 2d ae 2f bc 15 f6 0e 3c
       0.0036094005 0.014642852 -0.010722679 0.008725663
000150 30 3a ab 3a 05 89 9b 3c 62 95 d2 bb c0 95 14 3b
       0.0013063606 0.018986234 -0.006426499 0.0022672266
000160 b0 3e b6 bb 12 49 d8 bb df 30 9d 3c c5 e0 e8 3c
       -0.005561672 -0.0066005075 0.019188343 0.028427491
000170 7a ba 01 3d 94 0b 07 3d e3 90 03 3d e8 81 e9 3c
       0.03167198 0.032970026 0.032120597 0.028504327
000180 bb ad b4 3c 41 47 a1 3c b9 de c5 3c 99 1a 86 3c
       0.022055497 0.019687297 0.024154054 0.016370105
000190 91 72 4e 3c 4c 83 c9 3c 78 56 24 3d a2 5c da 3c
       0.012600557 0.02459874 0.040121526 0.026655499
0001a0 f1 73 e9 3c c0 e7 56 bc e4 3c 86 bc 84 96 1a bc
       0.028497668 -0.013116777 -0.016386457 -0.0094353
0001b0 67 76 24 bc fe 5b fe bb 64 38 d5 bb 1a c6 02 bb
       -0.010037995 -0.007762431 -0.0065069664 -0.0019954504
0001c0 5e 96 87 bc e6 c0 e6 bc 03 42 a3 bc 9c 84 25 bc
       -0.016551193 -0.028168153 -0.019928938 -0.010102417
0001d0 2d aa f0 39 b3 99 97 bc c0 62 98 bc 8f 76 23 bc
       0.00045903158 -0.018505907 -0.018601775 -0.009976997
0001e0 b1 ae 23 ba 7a b0 ab bb 83 eb ff 3a cd f1 3d 3c
       -0.00062439876 -0.0052395435 0.0019525144 0.011593294
0001f0 26 47 20 3c 73 87 a4 3c 7a e0 9d 3b bb 26 97 3c
       0.009782588 0.020084118 0.0048180195 0.018451085
000200 be 4e 76 3c 1a fd a1 bb 4e 1a 92 3c 2b f8 e9 3a
       0.015033422 -0.004943502 0.017834809 0.0017850449
000210 61 75 ac ba f6 32 b0 b9 f1 78 55 3c 77 75 83 3c
       -0.001315754 -0.00033607305 0.013029323 0.016047223
000220 10 0b 87 3b 34 da c5 bb b9 b2 68 bb de d4 25 bc
       0.004121192 -0.0060379747 -0.0035506918 -0.010121552
000230 fb 5c e0 ba 19 5b 12 bc 26 92 58 bc f8 b1 c5 3c
       -0.0017117554 -0.008932852 -0.013218438 0.024132714
000240 ef d2 dd 3b 55 8b 24 bb 3a 83 46 bc eb 3e 6a bc
       0.00676953 -0.0025107462 -0.012116248 -0.014297227
000250 89 2f 4d bc 3d 52 72 bc 0d a3 df bb fa 3d 3a 3b
       -0.01252354 -0.014790115 -0.006824857 0.0028418289
000260 3f f4 b7 bb 38 d7 6a ba a3 96 83 bb ba 0f 80 bb
       -0.005613833 -0.00089584617 -0.00401576 -0.0039081248
000270 e6 28 e7 ba 22 e1 85 3c 6b 46 1a bc 33 71 8c 3c
       -0.001763609 0.016342703 -0.009416203 0.017143821
000280 8e 79 57 bb e1 fa 8d ba 26 90 9a bb 29 79 1c 3c
       -0.0032878849 -0.0010832214 -0.004716891 0.009550371
000290 b6 10 89 bc b1 fe 46 3b bf 43 b6 bb 07 15 27 bc
       -0.016731601 0.003036421 -0.005562275 -0.010197884
0002a0 c0 87 a5 ba 0b 5c cd bb 3e 9f 2b bc b3 06 84 3a
       -0.0012628958 -0.006267076 -0.010474978 0.0010072797
0002b0 eb 38 fa 3a d9 28 b3 3b d8 ad 1b bb 29 a1 45 bc
       0.0019090449 0.005467516 -0.0023754742 -0.012062349
0002c0 49 e4 53 bb 32 b7 b4 bc ef 5a 90 3b f2 83 4f bb
       -0.0032332113 -0.02206001 0.0044053714 -0.003166434
0002d0 8d 99 83 3b b1 26 1d 3b 7e 99 80 3c 4c 42 c6 3b
       0.0040161074 0.002397936 0.01569819 0.0060503837
0002e0 ca 66 03 3c 99 b2 fb bb 5d 21 52 3b 4f a5 bf 3c
       0.008020112 -0.0076812026 0.0032063343 0.023394255
0002f0 3d aa b7 3c 97 5c 87 3c 63 9d 11 3c 70 15 c3 3c
       0.022420043 0.016523642 0.008887622 0.023813933
000300 21 d9 bf 3c 4a 38 70 3c 51 d5 4d 3c 14 d0 ae 3b
       0.023418965 0.014661858 0.012563066 0.0053348634
000310 98 d8 30 3b 61 ce 94 3c fb 36 50 3b f3 52 38 3a
       0.0026984569 0.018164815 0.0031771052 0.00070314034
000320 11 d0 07 3b d1 c9 81 3c 53 b2 d7 3c 3e c1 64 3c
       0.0020723382 0.015843304 0.026330149 0.013962088
000330 f8 4d 7e 3c f1 b5 87 bb 0a c0 8a 3b df 56 15 bc
       0.015521519 -0.004141562 0.0042343186 -0.00911495
000340 46 b9 06 bc 3c 51 7e 3b 58 1d ac 3c 85 41 bb 3c
       -0.008222884 0.0038805744 0.021010086 0.02285839
000350 fc f5 0d 3c f4 25 01 3d 89 80 d8 3c 84 93 05 3d
       0.008664604 0.031530336 0.026428478 0.032611385
000360 c3 b2 b6 3c a2 1b 2a 3c da 64 d7 3c 75 10 bc 3c
       0.022302037 0.010382565 0.026293207 0.022957066
000370 76 3f 52 3c 46 38 c7 3c 7d 0e 32 3c b5 b9 6d 3c
       0.012832513 0.024318825 0.010867712 0.014509608
000380 6c cf 03 3d 43 de 51 bc 38 ad bc bc bc 73 35 bc
       0.032180235 -0.012809339 -0.023031816 -0.0110749565
000390 ad 9e b7 bc 48 21 e1 bb ed 4c 79 bc b3 7d 24 bc
       -0.02241453 -0.0068704225 -0.015216094 -0.010039735
0003a0 3e 0d 03 bd 19 98 96 bc 22 04 a9 bc d6 c7 ec bc
       -0.03199505 -0.018383073 -0.020631853 -0.028903883
0003b0 bb 77 70 bc e1 7c b6 bc 42 f9 0b bd 32 de bd bb
       -0.0146769835 -0.022276344 -0.034173258 -0.00579431
0003c0 8d e7 67 3b f7 e1 89 bb db f0 c9 3c a1 4e 40 3c
       0.0035385818 -0.0042078453 0.024650982 0.011737497
0003d0 ca cf 8b 3c 13 8e 5e 3c 66 29 ab 3b db 9b 47 3c
       0.017066855 0.013583678 0.005223441 0.012183155
0003e0 74 e1 0a 3c 12 1f 64 3c f8 12 2a 3c 05 32 89 3a
       0.008476604 0.013923423 0.010380499 0.0010467177
0003f0 5e df 5d 3b 51 ce 09 3c 56 4d 03 3c c0 8a d1 3c
       0.003385506 0.008411006 0.008014044 0.025578856

_orig_mod.Dense.bias f4 [64]
000000 94 93 39 be f3 55 c5 3c d7 70 99 be 34 b4 94 3e
       -0.18122703 0.024088835 -0.29968902 0.29043734
000010 8f 38 47 bd 8b 75 84 be f5 e9 18 3e a2 05 21 3e
       -0.048637923 -0.25870928 0.14932998 0.15724805
000020 ab 50 28 3e 54 94 a6 3d 99 32 2f 3e 17 c1 26 bd
       0.16437022 0.0813376 0.17109145 -0.04071149
000030 3f e1 f8 bc b5 23 1e bd 41 57 52 3d d1 8e 00 bd
       -0.030380843 -0.03860827 0.051352743 -0.0313862
000040 5d 06 09 3e 74 96 7c 3e 5c 82 d9 3d 57 f4 fe 3d
       0.13381334 0.24666768 0.10620567 0.12448948
000050 cd 1e 99 3e d1 11 f0 bd 59 47 16 be 9b 8e 61 3d
       0.29906312 -0.11722148 -0.14675654 0.05506764
000060 db b7 9f 3d cf 3d 98 be 18 0d 8a 3d 0a 8e 50 bd
       0.077987395 -0.29734656 0.06740779 -0.05091671
000070 f5 99 eb bd a7 90 7a bb 31 b9 93 be d0 30 33 3d
       -0.11503974 -0.0038233192 -0.28852227 0.043747723
000080 c9 98 94 3e 3a e0 f4 bd 29 ba 81 bb 04 c4 94 3d
       0.29022816 -0.1195683 -0.0039589596 0.072639495
000090 98 cb 56 be 1a fe d2 bd 0e 5a f7 3c 22 db 96 be
       -0.20976102 -0.10302372 0.030194309 -0.2946406
0000a0 76 e5 84 bc de e4 50 be 9a 09 b6 3d 65 3d 4b 3e
       -0.016222697 -0.20399806 0.0888855 0.19847639
0000b0 50 c5 d4 bd 01 44 c4 3c 81 29 8b 3c 40 75 6f be
       -0.10389197 0.023958208 0.016987564 -0.23384571
0000c0 11 78 1a 3e ea ff 3c bd 69 a9 88 be 0e bb 94 3e
       0.15084864 -0.046142496 -0.2669175 0.2904896
0000d0 b4 b0 3d bc 04 fe 0b 3d 13 63 8c bd 10 99 48 3d
       -0.011577774 0.034177795 -0.068548344 0.048974097
0000e0 e2 7a 96 be 68 32 d5 3c cb 9a 10 3d ef bd 3e 3d
       -0.29390627 0.026025012 0.035303872 0.046567854
0000f0 07 2c 12 be e4 b4 81 3d 89 4d 94 be f6 4c 09 3e
       -0.14274608 0.0633333 -0.28965405 0.13408265
