4.2_Analysis/Train_Models/model_3/GRU_SoftTripleLoss_best.pth (torch, 774596 bytes, 10 tensors)

_orig_mod.rnn.weight_ih_l0 f4 [384, 93]
000000 9d a8 c2 bc f8 de 74 bd 87 2d d0 3d fc db 2a 3c
       -0.023762042 -0.059782952 0.10164934 0.010428425
000010 44 5a f6 bd 27 7d 92 3d 2a 24 a0 bb 06 c2 39 3d
       -0.120289356 0.07152777 -0.0048871236 0.04535105
000020 ac 42 1b be c9 81 fa bc 69 58 bb 3d 61 b1 9d bb
       -0.15162152 -0.030579465 0.09147722 -0.004812405
000030 8f 63 dc bc 10 08 22 bd 7b 5f a4 bd 69 cf a8 bd
       -0.026902942 -0.03955847 -0.08026024 -0.08242685
000040 15 28 9c bd 86 8e 3a 3d 18 e3 03 ba 63 b9 09 be
       -0.076248325 0.045546077 -0.0005031093 -0.13449626
000050 da 2e 68 bc a3 07 d1 3c fd 78 99 bd b0 47 42 be
       -0.0141713265 0.025516337 -0.0749378 -0.18972659
000060 4d ef a3 3d 08 5d 10 be 1c b7 ff bd 3e 38 38 bd
       0.080046274 -0.14097989 -0.12486097 -0.04497551
000070 0f d8 93 39 dc be d0 3d e1 a7 5b 3d 57 71 70 3d
       0.00028199 0.101926535 0.0536269 0.05870184
000080 d4 bb a8 bd 29 53 86 3d 93 50 d3 bd ce 30 17 be
       -0.0823895 0.0655883 -0.10318103 -0.14764711
000090 51 76 ca bd 47 b0 34 3d e1 4d a3 3e 2c d4 0d 3e
       -0.09885848 0.044113424 0.31895354 0.13850468
0000a0 26 39 0f 3e 2f 52 81 bd 0c 1e 59 bc 83 c1 a3 be
       0.13986644 -0.063145034 -0.013251793 -0.31983575
0000b0 f2 1d cb bb a3 19 25 3e 3a 8f c1 3e 5f 39 94 bd
       -0.006198638 0.16123061 0.37804586 -0.07237505
0000c0 78 3f 13 3e 5c f3 01 be 2c f5 95 be c8 ba 22 3e
       0.1437968 -0.1269049 -0.29288614 0.15891564
0000d0 48 40 b4 bd 61 eb 95 3d a8 a3 2d bb 6f 55 6f 3e
       -0.08801323 0.073202856 -0.0026495252 0.23372434
0000e0 33 d0 69 3e 37 4e bf bd dd 4d 87 3d 8c dc 31 be
       0.22833328 -0.0934109 0.06606648 -0.17369288
0000f0 3d 5a 76 3e d5 de 57 3c bc 0f 9e 3d d9 62 48 bc
       0.2405786 0.013175686 0.07717845 -0.012230598
000100 6e bf 5a 3e b5 23 29 be b2 e2 a3 3d 7c bf f3 3c
       0.21362087 -0.16517527 0.08002223 0.029754393
000110 c1 4a 10 be e3 c6 a0 bc ee 29 12 3e 38 dd 88 3e
       -0.14091016 -0.019626087 0.14273807 0.26731277
000120 4d 5c a9 bd 29 5b 66 3e 5a 3d 6a be 7d 1f 36 3e
       -0.08269558 0.22495712 -0.22874966 0.1778545
000130 eb 41 a8 be 85 af dd bc c5 1a 1b 3e 51 6a 11 bd
       -0.3286279 -0.027061233 0.1514693 -0.03550178
000140 fa 07 2d 3e a6 18 e5 3d 0a 62 05 be af 11 38 bd
       0.16897574 0.11186342 -0.1302568 -0.04493874
000150 ec 43 08 be f9 9c 33 3d 07 e1 0e be 36 dd a2 3d
       -0.1330716 0.043850873 -0.13953029 0.07952349
000160 6d 11 0b 3e 47 b5 50 3e 8d 2b 27 3d b1 03 0c 3d
       0.13580866 0.20381652 0.040813018 0.034183208
000170 5d a5 a2 3d f2 23 29 3e 1f 36 b1 bd 14 33 8a be
       0.07941697 0.16517618 -0.08652901 -0.26992095
000180 5b 64 1d 3e 67 80 67 bd a0 bf 62 be 70 0d 8f be
       0.15370314 -0.05651894 -0.22143412 -0.2793994
000190 8f 87 e4 3d ae 64 65 3e d2 16 8a be 6f fc 2c 3d
       0.11158668 0.22401688 -0.26970536 0.042232927
0001a0 d2 11 43 3e 61 d0 03 3e 95 bb 32 be 37 16 c4 3d
       0.19049767 0.12872459 -0.1745437 0.0957455
0001b0 89 f9 bd 3e 53 b2 ad 3b 25 5f 82 bd 16 83 6a 3d
       0.37104443 0.005300799 -0.06365804 0.05725392
0001c0 fd e8 1c be 6c 65 ae 3e 6a c8 6e bd d1 d5 21 3e
       -0.15323253 0.34061754 -0.0582966 0.1580422
0001d0 16 6e be bd 42 e5 26 3e 31 aa 51 bd 62 a5 fc bd
       -0.09298341 0.16298392 -0.051187698 -0.12336232
0001e0 11 39 77 be fa b9 57 3e 79 07 f1 3d 0f aa 23 3e
       -0.24142863 0.21067038 0.117690034 0.15982841
0001f0 e0 5a 6f 3e c5 1c 36 3d 03 48 02 3d 94 f1 84 be
       0.2337451 0.04446103 0.031806957 -0.2596556
000200 65 30 4d 3e 43 5c 31 be c1 b6 88 be 47 72 8e bd
       0.20037992 -0.17320351 -0.2670193 -0.069553904
000210 1a 8a a0 be 1e 40 56 bc 49 ef 51 3c e1 f4 97 be
       -0.31355363 -0.01307681 0.012813398 -0.29679015
000220 c5 d7 29 3e c7 fa fa 3d 97 9c 89 bd 46 14 39 3d
       0.16586216 0.12254863 -0.0671932 0.04518535
000230 23 c5 91 3e 5a 59 d8 3d eb ff be 3d 1b d9 a0 bc
       0.28470716 0.105639175 0.09326156 -0.019634774
000240 0b 8c 96 bd 83 83 06 3e 49 26 3a 3d 4f 80 51 3e
       -0.0735093 0.13136105 0.045446668 0.20459102
000250 5a 74 07 bd e4 c2 6c be ca 59 16 3d 99 81 43 3e
       -0.033069946 -0.2312122 0.036706723 0.19092406
000260 1b eb 3a 3c 41 e0 6d be b7 0b 09 be d4 4a 33 be
       0.011408593 -0.23230077 -0.13383375 -0.17509013
000270 a5 df 9c bd 61 87 45 be 2b 82 33 3c 83 4f 19 3e
       -0.07659844 -0.19289924 0.010956327 0.14971738
000280 ec e7 02 3e 9f 96 44 be 39 4c 60 bc 52 d0 54 3e
       0.12783784 -0.19198082 -0.013690048 0.20782593
000290 0e de 6e be 4d e7 3a 3b a5 33 64 3d 28 81 7b 3e
       -0.23326895 0.0028519214 0.055713315 0.24560988
0002a0 58 64 15 be 12 c2 ad 3e 86 4f cd 3d 67 ed 5d bd
       -0.1458906 0.33937126 0.100249335 -0.054181483
0002b0 22 a8 a4 bd 39 da 45 be b4 7c 31 be 30 4f b9 3e
       -0.08039881 -0.19321527 -0.17332727 0.36193228
0002c0 e5 5a cf bc 06 93 b0 be b0 8c ca bd 18 b9 51 be
       -0.025311897 -0.3448717 -0.09890115 -0.20480764
0002d0 20 31 51 3d f0 75 ea bd d0 1a 30 be 08 af 2b be
       0.05107224 -0.11448276 -0.17197728 -0.16765988
0002e0 bc 3e 8a 3e 7f 4a e4 3d 51 ac 89 be 1d d1 39 be
       0.27000988 0.111470215 -0.2688928 -0.18146177
0002f0 02 14 eb bc 59 15 10 3d c7 30 91 bc bd d2 8b bd
       -0.028696064 0.03517661 -0.017723454 -0.068273045
000300 66 31 55 bd 53 65 66 3e d5 c5 51 3e e5 92 80 be
       -0.052049063 0.2249959 0.20485623 -0.25112072
000310 2c 6f 32 be 5a 73 8c bb 07 19 64 3d 04 bc 9b 3c
       -0.17425221 -0.004286212 0.05568793 0.019010551
000320 c0 db 04 3e 03 30 59 bd 95 d7 a2 3d f2 e8 3f be
       0.12974453 -0.053024303 0.07951275 -0.18741205
000330 65 6a ed 3c b1 c1 95 3d 34 96 4b 3d 8c 35 fc 3d
       0.028981397 0.07312334 0.04970379 0.12314901
000340 bc 23 86 3d 32 7c 8a 3d 7c 0b be 3d 71 74 70 be
       0.065497845 0.067619696 0.09279534 -0.23481919
000350 11 a9 8b bc 7b 0c 65 3c fe 72 a1 bd 16 7b ce bd
       -0.01704839 0.013980026 -0.07883261 -0.100820705
000360 19 17 a4 be 0d 10 89 be c5 47 86 bb cf df 0d bc
       -0.32048872 -0.26770058 -0.004097911 -0.008659317
000370 d4 ba a5 3d 60 09 9e 3e 86 6f 6a 3d d0 d0 bf 3d
       0.08092275 0.30866528 0.057235263 0.09366
000380 4b 4d a4 bd 9e d7 1f 3c 2c d4 4c be cc c2 7f be
       -0.08022555 0.009755997 -0.20002812 -0.24976653
000390 c7 14 68 be a6 ec 74 3c 55 28 17 be 6e 1c ea 3d
       -0.22664176 0.0149489995 -0.14761479 0.11431204
0003a0 59 f0 80 3e 32 9f 3b 3e 15 8b ed 3e 24 0a 10 be
       0.2518337 0.18322447 0.46395174 -0.14066368
0003b0 bf e0 c9 3e bf c2 2d 3e 6d 40 b5 3e 8f 01 e9 bc
       0.3942928 0.16968821 0.35400715 -0.028443126
0003c0 9e 39 5b bf cd 09 55 3e 45 df 95 be 5b 52 1a 3d
       -0.8563479 0.2080452 -0.29271904 0.037676197
0003d0 b5 42 c1 be 4b a9 9f 3e cf ea 2a 3e 90 35 c5 bd
       -0.37746206 0.31183848 0.16691135 -0.09629357
0003e0 bc 39 07 3e d1 ed de bd 67 0c 3f bb 83 a7 75 be
       0.13205618 -0.10885204 -0.002915168 -0.23989682
0003f0 9d 18 26 bf cc ab c0 3e 52 04 8a bd 0a e1 80 3e
       -0.64881307 0.3763107 -0.06739105 0.2517169

_orig_mod.rnn.weight_hh_l0 f4 [384, 128]
000000 6c 4e 79 be b2 93 f1 bd e6 09 5b be 1a 5a 87 be
       -0.24346322 -0.11795749 -0.21390495 -0.2643593
000010 df 04 d4 3d aa 78 56 3e c2 00 fc 3e 17 7f 8d be
       0.103524916 0.20944467 0.49219328 -0.27636024
000020 a0 eb 4b 3e 2f 3d 64 be 78 03 45 3e 83 17 e3 3b
       0.19914103 -0.22288965 0.19239604 0.006930293
000030 8a 51 80 bd eb 61 95 be 6b 15 8a bd cf 3b 93 be
       -0.06265552 -0.29176268 -0.067423664 -0.28756568
000040 4f 76 68 be 32 e4 52 bc e4 76 e0 bd 76 a2 c2 3d
       -0.22701381 -0.012871789 -0.109601766 0.09503643
000050 e6 80 6d 3e fc 49 55 be 36 27 a4 3e 2e de 08 bd
       0.23193702 -0.20829004 0.32061166 -0.033415012
000060 da 5f 89 bc f9 f6 c1 bd 02 a1 c0 be fe ae 4e 3e
       -0.016769338 -0.094709344 -0.3762284 0.20183942
000070 df be 46 be 04 f9 0e 3e b0 fe 20 3e fa 26 b6 3d
       -0.19408749 0.1396218 0.15722156 0.08894153
000080 d7 86 85 3e ba 4d 4b bb f7 47 59 bd c9 48 3f bc
       0.26079437 -0.003102167 -0.053047147 -0.011675068
000090 69 b0 1b 3e 45 d7 95 3d 6b 01 c8 3b c4 a6 f4 3a
       0.15204014 0.0731645 0.0061036847 0.0018665423
0000a0 42 57 8d 3e 54 99 22 bd 65 be 42 bd eb 86 1d bd
       0.27605635 -0.039697006 -0.047544856 -0.038458746
0000b0 c5 a4 17 3e ab 0d 27 3e 25 f1 3f 3d 4e 11 60 3e
       0.14808948 0.16313808 0.046860833 0.21881601
0000c0 ec 50 ae 3d 60 ef 9e 3e d8 7d 95 3e da 0b cd be
       0.085115284 0.31042004 0.29197574 -0.40048105
0000d0 50 c6 83 3d 8b 86 b2 3e e5 e1 8b be 6e 96 06 be
       0.064343095 0.34868273 -0.2732078 -0.13143322
0000e0 33 20 01 bc 19 b3 0e be d1 3c 93 3d bc e4 ed 3e
       -0.007881212 -0.13935508 0.07189334 0.46463573
0000f0 44 01 9a bd 83 d0 e0 bd d4 66 eb bd 69 e9 87 3c
       -0.07519773 -0.109772705 -0.11494222 0.01659079
000100 7f bf 60 bc 7e dd 8f 3e cd 31 3f 3e d2 e1 5f bd
       -0.013717531 0.28098673 0.18671341 -0.05465872
000110 70 97 01 3e c9 d8 18 be cb 2f 64 3d 88 03 47 bd
       0.12655425 -0.14926447 0.05570964 -0.048587352
000120 61 1b a2 3e 5f bf 2e be 6d 59 7c be b1 15 39 bd
       0.31661513 -0.1706519 -0.24643488 -0.045186702
000130 b8 1b 2e 3c c2 b0 28 3e 63 81 a0 3d b0 9a 39 3e
       0.010626726 0.16473678 0.078371786 0.18125415
000140 f0 43 44 bd b2 85 4c bd ae 76 d8 3e 5c 40 c5 be
       -0.047916353 -0.04993219 0.42278045 -0.38525665
000150 7a bd 8e bd e9 fe 98 3e d6 01 8a bd 94 de fb 3e
       -0.069697335 0.2988198 -0.067386314 0.4919325
000160 77 3e 96 bd 17 0a 98 be 04 5e 2d 3e 0c 72 41 bd
       -0.07336133 -0.29695198 0.16930395 -0.047227904
000170 06 47 af 3e c1 34 7e be fe 1b 8b 3e 36 35 ac ba
       0.34233874 -0.24824812 0.27169794 -0.0013138417
000180 74 49 06 3e bf 97 60 3e 87 83 f1 3e b2 e8 95 3d
       0.13113958 0.21932887 0.4717066 0.07319774
000190 5d db c3 3d 00 c9 85 3e 99 5e d3 3c 28 aa 01 bd
       0.095633246 0.26129913 0.025801944 -0.031656414
0001a0 d6 d1 84 3e 93 06 62 be 4f 80 55 3e ad 2b b0 bd
       0.25941342 -0.2207282 0.20849727 -0.086020805
0001b0 4a 0c ca 3d ba dd 37 3b c4 1a a5 be 34 c0 1a bd
       0.09865625 0.0028055743 -0.32246983 -0.037780955
0001c0 aa ed c3 be c7 7a 12 3d 71 8a 41 be 8b 1a 02 be
       -0.3826726 0.03576162 -0.18900467 -0.12705438
0001d0 7c b5 82 be c0 d2 2b 3d d4 97 1e be b9 f4 a0 be
       -0.25529087 0.041949034 -0.15487605 -0.3143671
0001e0 70 db 18 3e 36 96 2a bf c6 6b 2c 3d 51 7a 46 3e
       0.14927459 -0.66635454 0.04209497 0.19382598
0001f0 f5 7f bb 3e 8f 92 45 be 3c fd a6 bd 0a 03 a5 3e
       0.3662106 -0.19294189 -0.081537694 0.3222888
000200 2a 8c 9a 3d 10 bb e5 3d d6 ff c5 3d 5a 19 76 3e
       0.075462654 0.1121732 0.096679375 0.24033108
000210 f4 32 08 be fc 0f 57 3d 75 75 63 3d 2a 72 75 bd
       -0.13300687 0.05250548 0.055531938 -0.05992333
000220 e5 22 c8 3d 22 c3 29 bd cf 9a 16 be de 27 ed 3e
       0.097722806 -0.04144586 -0.14707492 0.4631948
000230 3c 01 29 be 74 4b d7 bd b9 b0 58 bd bc 37 79 bd
       -0.16504377 -0.105124384 -0.05290291 -0.060844168
000240 dd 9b 78 bd d6 b1 40 bd 47 d8 92 bc 92 7f cd 3d
       -0.060695518 -0.047044598 -0.017925395 0.10034098
000250 72 f1 38 bd 56 02 44 be b0 a1 d8 3d af 78 8e be
       -0.045152135 -0.19141516 0.105777144 -0.2782645
000260 1c 1a 7c be 92 91 49 3e 81 d1 05 bf 4e fa a8 bd
       -0.24619335 0.19684437 -0.522728 -0.08250867
000270 83 b9 51 be e3 8e a4 bd 42 a5 62 bd bc 06 48 be
       -0.20480923 -0.08035066 -0.055333383 -0.19533819
000280 0b 8d bb 3d ac d1 ca 3e 25 7b 95 3d 7f c6 f4 3d
       0.09157761 0.39613092 0.072988786 0.119519226
000290 57 4b c3 3d e4 68 62 bd da fb c4 3e fc 18 0f be
       0.09535854 -0.055275813 0.38473397 -0.13974375
0002a0 45 b2 37 3b 85 3c 58 3c 95 7f 9c 3e af 50 bc be
       0.002802984 0.013198023 0.30566087 -0.36780307
0002b0 6c 19 28 3e 1a 42 d6 bd 57 ee 45 bd 19 9b c9 bc
       0.16415948 -0.104618266 -0.048323 -0.02461009
0002c0 19 7e a8 3d 24 15 a4 3e 80 ff 8e bc 6c 43 4f be
       0.08227176 0.3204738 -0.017455816 -0.20240563
0002d0 15 b3 6e 3e 6f 50 11 be 2f d3 85 3e 23 a5 93 be
       0.23310502 -0.14190839 0.26137683 -0.28836927
0002e0 ac db db bd 80 84 91 bd 22 74 77 3d 35 b9 9b 3d
       -0.107352585 -0.071053505 0.060413487 0.07603685
0002f0 40 7e a2 3e 7d e4 da 3c 33 ce 71 3e cc 27 49 3e
       0.31736946 0.02672028 0.23613815 0.19644088
000300 ce 12 c6 3d 7c a8 c5 be 6b 79 c7 3d ac 2f 90 be
       0.096715555 -0.38605106 0.097399555 -0.2816137
000310 6b 0f 98 bd 0e 06 10 3d 1f ed 97 3e 03 2a ff bd
       -0.07424816 0.035162024 0.29673097 -0.12459185
000320 7f 08 33 bc c5 2e a8 be 68 4c 72 3e 52 e5 e4 bd
       -0.010927319 -0.32848182 0.23661959 -0.11176552
000330 a7 35 0f be b0 4e 47 3e de 78 ca bd 4c 28 6f be
       -0.1398531 0.1946361 -0.09886335 -0.23355216
000340 9c 68 ec 3d b1 1a 77 3e f4 8f c6 3e 85 2a 4b be
       0.1154339 0.24131276 0.38781703 -0.19840439
000350 0d 58 fd 3d 7a 7e 8b bd 26 a7 6d be 53 25 04 3e
       0.1237031 -0.06811233 -0.23208293 0.12904863
000360 9c 96 60 3d ba 14 f2 3e 67 75 17 be 55 c8 06 3e
       0.054831132 0.47281438 -0.14790879 0.13162358
000370 c9 dc 5d bd d6 37 5d be 4c 86 51 3e 3c 80 2e bb
       -0.054165635 -0.21603331 0.20461386 -0.0026626727
000380 fc ce a0 bd 0d d9 9a bd f2 d7 28 3c 19 14 6f be
       -0.07851979 -0.075609304 0.010305392 -0.2334751
000390 c5 db 5c be c0 b2 31 3e 2a 0b 40 bd 99 7d 84 3d
       -0.2156821 0.17353344 -0.046885647 0.06469268
0003a0 10 ed 89 bd 7c f5 c5 3d 51 44 e9 3d 30 58 1a 3d
       -0.06734669 0.09665963 0.113899834 0.03768176
0003b0 76 29 00 be 9d 6e 71 3e ac 3f 46 bd 22 16 0b be
       -0.12515816 0.23577352 -0.048400566 -0.13582662
0003c0 d6 d9 c1 3d db e7 9d 3e fe cc b1 bd 47 6f 4a be
       0.09465377 0.30840954 -0.08681677 -0.19769011
0003d0 a6 12 17 3e c6 25 60 3e ba b1 9e be 6c 01 26 bc
       0.14753208 0.2188941 -0.3099497 -0.010132175
0003e0 ca 21 7f bd 88 13 73 be 4c 5f 79 3e 62 27 41 3e
       -0.062288083 -0.2373792 0.24352759 0.1886268
0003f0 da cd 00 be f4 17 1b 3e df b9 6d be db 5b b5 3d
       -0.12578526 0.15145856 -0.23215435 0.08855411

_orig_mod.rnn.bias_ih_l0 f4 [384]
000000 19 f5 bf 3e 1a 69 94 bd 14 12 cc bd 97 cc b8 bd
       0.37491682 -0.07246609 -0.09964386 -0.090233974
000010 82 11 46 3d f0 9e 1d be 96 64 a6 3e 4f b9 b7 3d
       0.04835654 -0.15392661 0.32498616 0.08970892
000020 1a 48 00 3e 38 52 03 bc 9f 13 15 3d a6 66 e5 3e
       0.12527505 -0.008015208 0.036395665 0.44804877
000030 38 27 f4 3c 71 37 31 3c c3 0d f6 3d 2f 72 02 3e
       0.029803857 0.010816441 0.120143436 0.1273887
000040 fa 64 11 3e 77 8f 5f 3e 3c 68 0d bd 38 7d 2b bc
       0.14198676 0.21832071 -0.034523234 -0.010466866
000050 ce d2 5b 3d 6b c4 cd 3e ab 62 8a bc eb 1b 5a bd
       0.053667836 0.40188918 -0.016892752 -0.05324928
000060 b6 ad a1 bd 59 b0 5a 3e 11 8d b1 bc a2 7e ac 3e
       -0.07894461 0.21356334 -0.021673711 0.33690363
000070 0e 15 4a be 88 4a f3 bc 01 7f 36 3e 3e 0d d6 bc
       -0.19734594 -0.029698625 0.17821886 -0.026129361
000080 73 e9 59 bc 1c 08 8c 3e ee f3 a4 3d ce a6 5e 3d
       -0.013300288 0.27349937 0.080543384 0.054358296
000090 72 77 ea bd ae 8a fa 3d 54 23 31 ba d1 11 92 3e
       -0.11448564 0.12233482 -0.00067572785 0.28529218
0000a0 de eb 12 bc c6 ca de 3e e9 79 60 be 83 d1 db 3d
       -0.008967368 0.4351408 -0.21921505 0.107333206
0000b0 79 f2 f0 3d a2 30 9c 3b 04 95 b7 bc 8c 61 92 3e
       0.11764998 0.0047665397 -0.022409923 0.28590047
0000c0 ad f6 0f 3e 9f bc 85 3e 4b 82 7f 3e f0 09 3b be
       0.14058943 0.2612047 0.24952047 -0.1826551
0000d0 5c 35 58 3e c4 c0 d0 3d b1 3c 20 3e 08 50 c4 ba
       0.21114105 0.10193017 0.15648152 -0.0014977464
0000e0 f4 26 c6 3e 6f 47 0b 3e 0e f0 a1 3d cd 19 a8 3e
       0.38701594 0.13601469 0.07907115 0.32832184
0000f0 40 9e 33 3e cb 03 a1 3d 61 95 a8 3e 77 61 43 3e
       0.17540836 0.078620516 0.32926467 0.19080149
000100 86 cd 22 3e 61 44 a5 3c f3 12 d2 3d 3a 32 dc 3e
       0.15898713 0.020174207 0.102575205 0.4300707
000110 4f 2a 44 3e 1a c9 2e be 82 33 0f 3e 2a 05 7c 3e
       0.19156764 -0.17068902 0.13984492 0.24611345
000120 91 46 84 be cb b3 8c be 8c 1c f7 3b c7 a6 3b 3d
       -0.25835088 -0.2748092 0.007541245 0.04581335
000130 67 e2 cd bd 4c 89 87 3e f8 cc c5 3e ac 4e 23 be
       -0.100529484 0.26471937 0.3863294 -0.1594798
000140 99 a9 95 3e 22 49 d0 3c 65 b9 54 3d cf cd b1 3d
       0.29230955 0.025425497 0.05193462 0.08681833
000150 dc 58 8a 3e 1d 1b b4 3d f8 ad ca 3d 86 25 1f 3d
       0.2702092 0.08794234 0.09896463 0.038854145
000160 1a 15 6e 3e da 6e a7 3e c2 e4 a1 3d 3e ae 0d 3d
       0.23250237 0.3270176 0.0790496 0.03459
000170 9d 6e 02 3d 6e 34 88 3e 7f fb f9 bd ff 84 95 3e
       0.03184377 0.266025 -0.12206172 0.2920303
000180 fc 8b da bc 7c 98 0c 3e d8 17 12 bd d0 ab 87 3e
       -0.026678078 0.13730043 -0.03566727 0.2649827
000190 69 e6 b0 3d 21 53 33 3e 61 bd 07 3e 71 48 57 bd
       0.08637697 0.1751218 0.13255836 -0.05255932
0001a0 9e 21 d0 3e e7 e3 3e be e0 b2 87 bd d5 b6 2a be
       0.40650648 -0.18641625 -0.066259146 -0.16671307
0001b0 34 f6 07 3d be 17 d6 3e ad e3 4f 3e 23 9e 21 3e
       0.033193782 0.4181499 0.20301695 0.1578298
0001c0 2b 01 e1 3e a4 5e 1e 3e c7 af 18 3e 1f ab c3 bc
       0.43946204 0.1546579 0.14910804 -0.023885308
0001d0 f7 f4 8a 3e 11 9c b8 3c c3 bc a9 bd 50 ea 22 3e
       0.27140018 0.022535356 -0.082879566 0.15909696
0001e0 27 5b 98 3c 27 e4 36 3e 90 6c 7b 3e e7 0d 3e 3b
       0.018598152 0.1786047 0.24553132 0.0028999986
0001f0 c9 cc 49 3e 1c 3c 77 3e 45 25 ae 3c d6 91 72 3e
       0.19707026 0.24144024 0.021258006 0.23688444
000200 01 8b ee 3c ce 4e 39 3f 4a 78 dc 3e dc 26 20 3f
       0.029119017 0.7238587 0.43060523 0.62559295
000210 c6 c4 53 3f 50 ab 26 3f d3 c6 56 3d ce cc 6d 3f
       0.8272213 0.6510515 0.052435707 0.9289063
000220 90 c4 1a 3e c0 b0 37 3f 39 1f fa 3e ed 61 5c be
       0.15114045 0.71754074 0.48851946 -0.2152173
000230 9d 2d b3 3e 33 42 af 3d 2c c7 08 3f 00 fc 5a 3f
       0.34995738 0.085575484 0.5342891 0.8554077
000240 e7 b1 14 3e 91 e6 f4 3c 91 f3 9e 3e 87 0a 54 3f
       0.1452099 0.029895099 0.310452 0.82828563
000250 1a 45 31 3f d1 01 be be f8 e5 2d 3f 1d 6d 3d 3f
       0.69246066 -0.3711076 0.6792903 0.7399462
000260 6c 0b 84 3e d6 34 02 3e bd 5a f3 3e a1 aa 5b bc
       0.25789964 0.12715468 0.47530165 -0.01340738
000270 77 3e 5a 3f 33 d6 fe 3e 39 da bd 3e 1d 28 02 3f
       0.85251564 0.49772796 0.37080553 0.5084246
000280 08 b8 aa 3e f0 8b 52 3f ca 58 50 3f 8f 04 08 3e
       0.3334353 0.8224478 0.8138548 0.13282989
000290 c6 9c 4d 3f 35 2a e1 3e 03 91 51 3f d4 3d 0e be
       0.8031734 0.43977514 0.81861895 -0.13890773
0002a0 07 e4 41 3f d9 da 2f bc b8 0f 23 3f 40 36 d4 3e
       0.7573857 -0.01073333 0.6369586 0.4144764
0002b0 e1 03 41 3f 50 8c 57 3f ff 72 f6 3d 18 4e 74 3f
       0.75396544 0.84198475 0.120336525 0.9543166
0002c0 34 55 ee 3d e6 98 dd 3d e0 7d 1a 3f fe 72 28 3f
       0.11637345 0.10820179 0.6034832 0.65800464
0002d0 5f 79 10 3f d3 89 51 3e 30 00 3a 3f 1a 1a ae 3d
       0.564352 0.20462732 0.72656536 0.08501072
0002e0 1e d1 8a 3e 2d 32 d2 3e cd ea 8b 3e ce 61 31 be
       0.2711267 0.41053906 0.27327576 -0.17322466
0002f0 a5 36 a5 3e 5d 90 70 be 49 95 6c bd 0c 73 1b 3f
       0.32268253 -0.2349257 -0.057759557 0.6072242
000300 8d 29 00 3e 66 84 28 3f 0a 2a 77 be 89 eb 89 be
       0.1251585 0.65827024 -0.2413713 -0.26937512
000310 11 6a 1d 3f ff 3c 24 3f 69 1a f5 3d a9 80 04 3f
       0.6148997 0.6415557 0.11967928 0.5175882
000320 ef 7d 4f be ec fd 61 3f 3e f7 4f 3f c2 8a 1e 3e
       -0.20262884 0.8827808 0.81236637 0.1548262
000330 c5 ab 03 3f 25 93 16 3f 3e 43 82 bc 97 64 08 3f
       0.51433975 0.58818275 -0.015901204 0.5327849
000340 f7 e6 17 3f 3a 30 7f 3f 1c 3e a0 3e 51 16 30 3f
       0.593368 0.9968296 0.31297386 0.6878405
000350 eb 92 d8 3d 5b 7d ba bd 18 49 42 3f db 7f c2 bd
       0.105748974 -0.09105941 0.7589278 -0.09497043
000360 10 4d c2 3d e6 d1 fd 3d 60 1a a1 3e ec a9 e5 3e
       0.09487355 0.123935506 0.31465435 0.44856203
000370 d6 2c 85 3f 86 c5 0d be 7a 5d dc 3e fd 6e dc 3e
       1.0404308 -0.1384488 0.43040067 0.43053427
000380 e8 b9 1d 3f d4 2a d6 3d e9 c9 8c be 91 92 81 bd
       0.61611795 0.104573876 -0.27497795 -0.063267834
000390 33 77 26 3f 66 db b5 3e 7c f5 45 bd b3 10 0a 3f
       0.65025634 0.3551895 -0.048329815 0.5393173
0003a0 e5 27 06 be 6f a6 43 3f 85 05 01 3f 6a b4 15 3f
       -0.13101156 0.7642583 0.5039905 0.58478415
0003b0 96 28 4e 3f 66 7a 15 3e 49 9f dc 3e 22 27 b4 3e
       0.8053068 0.14597473 0.43090275 0.35186106
0003c0 c8 22 02 be 80 8e e5 3c 22 66 ab 3e f8 60 2e 3f
       -0.1270858 0.02802205 0.3347636 0.6811671
0003d0 63 65 d7 3e 70 5a 6a 3e 0b d1 4b 3f a9 75 59 be
       0.4206954 0.22886062 0.7961585 -0.2123629
0003e0 00 3e 40 3f 03 dc f9 bd 3d 1e 44 3d ea d0 4c 3f
       0.75094604 -0.12200167 0.0478804 0.8000628
0003f0 f0 c3 cb 3e 52 15 72 3d 70 d9 6b 3e cc a5 4c 3d
       0.39797926 0.059102364 0.23032165 0.049962804

_orig_mod.rnn.bias_hh_l0 f4 [384]
000000 b4 c1 f8 3e 10 a9 24 3c de 52 1f be e2 fd 13 3c
       0.48585284 0.010050073 -0.15558955 0.009032698
000010 98 53 91 3d 6e e4 f6 bd 58 57 bd 3e 4f 58 46 3d
       0.07096022 -0.12055288 0.369807 0.04842406
000020 c3 fb 18 3e 61 88 88 bc 6b 80 6d 3c 25 1b e7 3e
       0.1493979 -0.016666593 0.014495949 0.45137897
000030 b2 cf a8 bd 3c 1a a0 bb 64 a6 00 3e 45 fc 4e 3e
       -0.0824274 -0.00488594 0.12563473 0.2021342
000040 1a 61 f8 bb d0 3a e4 3d ff 6e b5 3d 40 5f 30 3d
       -0.007579935 0.1114403 0.088590614 0.043059587
000050 f1 da f0 3d ae 62 bf 3e 5f 5e 4f 3d d2 e7 57 3d
       0.1176051 0.37379974 0.05062711 0.052711315
000060 22 93 21 bd 34 5e 3d 3e 34 b4 b9 bc ea 80 ee 3e
       -0.039446957 0.18492967 -0.022668935 0.4658273
000070 38 87 2d be 1b 3c 57 bd e4 81 57 3e 90 13 58 bc
       -0.16946113 -0.052547555 0.21045643 -0.013188258
000080 09 b8 d7 bd ba 26 e3 3d 0d ed b4 3d 6a ff 97 bd
       -0.10533149 0.11091371 0.08834276 -0.07421763
000090 31 b0 78 bd c3 86 01 3e 61 14 70 3c 55 5c 6d 3e
       -0.060714904 0.12649064 0.014653296 0.23179753
0000a0 50 ef 2c bd 93 4f dd 3e 42 05 d0 bd 43 f0 fb 3c
       -0.042220414 0.43224773 -0.10157253 0.030754214
0000b0 ec c5 58 bb 81 a2 24 bc 8e bc 03 3e f4 ad 8c 3e
       -0.0033076955 -0.01004851 0.12864897 0.27476466
0000c0 74 42 d6 3d b9 00 86 3e 05 c1 5b 3e 25 12 0a be
       0.10461894 0.26172426 0.2146035 -0.13483484
0000d0 fe b0 51 3e 1d 59 4f 3d 6f 1c 26 3e cc d5 97 bd
       0.20477673 0.050622094 0.16221784 -0.074138254
0000e0 d8 ff c1 3e 79 95 3a 3e a9 3c 23 3d 45 4b 73 3e
       0.37890506 0.18221082 0.039852772 0.23759182
0000f0 66 00 e6 3d 80 78 6a 3e 6f 40 ba 3e 19 3a 12 3e
       0.11230545 0.2289753 0.36377284 0.14279975
000100 95 51 14 3e b9 74 f2 3c 04 be 12 3e 86 b3 aa 3e
       0.14484246 0.029596673 0.14330298 0.3334009
000110 f2 6c 84 3e 74 0a b9 bd da a3 35 3e 24 d7 9d 3e
       0.2586437 -0.09035197 0.17738286 0.30828202
000120 8e fb bc be 07 c7 36 be 36 08 30 3d 68 f0 71 bd
       -0.3691067 -0.1784936 0.04297658 -0.05906716
000130 2c 56 12 bd 00 00 e4 3d 8b a1 e4 3e 28 5e c3 bd
       -0.03572671 0.111328125 0.44654498 -0.09539443
000140 83 b3 53 3e 56 73 40 3d b3 51 da bc 7f a4 b9 3d
       0.20673947 0.046984993 -0.026650285 0.09064578
000150 07 e1 86 3e 9f c1 64 3e e3 9d 9e 3d 2a 52 15 3e
       0.26343557 0.22339486 0.07744958 0.14582124
000160 a8 60 a2 3e a1 dc a7 3e 9c 84 90 3d 77 f7 89 3d
       0.31714368 0.32785514 0.07056543 0.06736653
000170 8f 23 6b 3d 19 59 4e 3e 23 fe 09 be 12 e7 88 3e
       0.05740696 0.20151176 -0.13475852 0.26738793
000180 cf 36 cb bb 96 b1 4a 3c a4 f8 89 3b d6 b2 84 3e
       -0.006201602 0.012371441 0.0042105485 0.2591769
000190 1a fe 44 3d a6 7f c7 3d 74 54 92 3d 88 8f fc bd
       0.048093893 0.09741144 0.071450144 -0.12332064
0001a0 87 68 d8 3e 50 33 70 be ff 5f bb 3c 41 ec 37 be
       0.42267248 -0.23457074 0.022872923 -0.17961217
0001b0 48 39 8d 3d 14 02 99 3e be be 3d 3e 55 b5 2c 3c
       0.06895691 0.29884398 0.18529794 0.01054128
0001c0 c9 3b b0 3e 3a d6 1a 3e cd e8 d4 3c 35 71 10 bc
       0.34420612 0.15120783 0.025989914 -0.008816053
0001d0 06 c2 39 3e b6 ed 13 3d 8b 3e f9 3c 2d 9c 79 3e
       0.1814042 0.03611537 0.03042533 0.24375983
0001e0 69 f1 bc bc 95 f5 01 3e ec 9e 83 3e a9 2b 93 3d
       -0.023064332 0.12691338 0.25707185 0.07186062
0001f0 62 68 f6 3d 4a f8 40 3e 14 13 fa bd ff ff 24 3e
       0.12031628 0.18844715 -0.1221067 0.1611328
000200 19 28 7c 3c d6 9c 3e 3f 40 4c 07 3f 1c 27 43 3f
       0.015390419 0.7445806 0.52850723 0.7623155
000210 52 43 58 3f b0 0c 2a 3f e3 a4 7c bd 80 0e 74 3f
       0.8447772 0.6642561 -0.061680686 0.95334625
000220 30 57 39 3e e0 8e 14 3f 24 38 0f 3f 5f a7 88 be
       0.18099666 0.5803051 0.5594504 -0.26690194
000230 23 7b cf 3e e9 0a 40 3d 54 4d 0f 3f 8f 8a 47 3f
       0.40523633 0.046885405 0.5597737 0.779458
000240 4c 07 51 3e e6 a4 15 3d 42 03 cc 3e d8 47 4c 3f
       0.2041294 0.036534213 0.39846236 0.79797125
000250 20 b0 34 3f b6 ba b3 be 09 45 3f 3f ec 98 52 3f
       0.70581245 -0.35103387 0.74714714 0.8226459
000260 e5 61 9b 3e 22 30 30 3e e5 3f 06 3f 94 0b 89 bd
       0.30348125 0.17205861 0.52441245 -0.066916615
000270 10 db 71 3f 7b a7 00 3f d0 a5 cc 3e 81 01 13 3f
       0.9447489 0.50255555 0.39970255 0.5742417
000280 53 43 9c 3e a9 b2 69 3f e9 38 5b 3f 52 bf 0f 3e
       0.30520114 0.9128824 0.85633713 0.14037827
000290 f6 de 49 3f 0c be 03 3f 45 35 3d 3f 59 e5 54 be
       0.78855836 0.51461864 0.7390941 -0.20790614
0002a0 bc dd 41 3f 09 89 ee bc 1e 12 1f 3f de 21 b2 3e
       0.75728965 -0.029118078 0.6213702 0.34791464
0002b0 df 54 42 3f 39 e9 67 3f a4 0c 67 3e bb 4f 6e 3f
       0.75910753 0.90590245 0.22563416 0.9309041
0002c0 48 cf 34 3e d4 66 c8 bb 84 43 0a 3f cf 55 2d 3f
       0.17657197 -0.0061157737 0.5400927 0.6770906
0002d0 d4 42 11 3f 3f 6b 03 3e 60 00 41 3f 92 d4 21 3e
       0.56742597 0.1283388 0.753912 0.15803745
0002e0 e0 b9 27 3e 41 78 a2 3e fe 97 5a 3e af b4 25 be
       0.163795 0.3173237 0.21347043 -0.16182207
0002f0 c8 d5 82 3e dc 70 9f be be 7b eb bd 5a 46 13 3f
       0.25553727 -0.31140792 -0.11498211 0.5752922
000300 a4 15 d4 3d 6e ff 09 3f 89 c9 89 be eb e4 90 be
       0.1035569 0.5390538 -0.26911572 -0.2829965
000310 04 59 1a 3f 0b 7a 1f 3f 6c af 52 3e dd dd 0a 3f
       0.6029208 0.622956 0.2057473 0.54244787
000320 19 c2 51 be c4 31 63 3f 42 49 51 3f b0 d4 24 3e
       -0.20484199 0.8874781 0.8175241 0.16096759
000330 19 45 1b 3f a1 c7 0c 3f dd cd 86 bd ba 5a 09 3f
       0.6065231 0.5499211 -0.06582234 0.5365406
000340 2b 79 01 3f e3 a1 59 3f 42 f6 6e 3e 60 02 2d 3f
       0.5057551 0.85012645 0.23336127 0.6758175
000350 ec 67 16 3e e1 11 c8 bd 13 ac 38 3f 5c 78 d7 bd
       0.1468808 -0.09769035 0.72137564 -0.105210036
000360 8e 12 fe 3d 4b 62 ac 3d e1 3a b8 3e 53 12 cf 3e
       0.12405883 0.084171854 0.3598242 0.40443668
000370 eb 80 86 3f 5a 11 fd bc e9 b4 bd 3e 54 53 c9 3e
       1.0508093 -0.030892063 0.37052086 0.39321387
000380 b2 fd 1a 3f 20 83 e9 3d e8 cc 93 be f6 b2 b1 bd
       0.6054336 0.11401963 -0.2886727 -0.08676712
000390 8b 36 25 3f b5 a2 df 3e 21 0b 35 3d 18 e8 0c 3f
       0.6453635 0.43678823 0.044200066 0.55041647
0003a0 2f ec 0c bc ce 31 3f 3f c0 43 04 3f 3b 07 01 3f
       -0.008601232 0.7468537 0.5166588 0.5040166
0003b0 88 f8 4e 3f 12 d5 12 3e 53 99 14 3f c6 b2 f9 3e
       0.8084798 0.14339092 0.58046454 0.48769206
0003c0 2d 92 0c be 1b 3d 55 3d f7 f8 51 3e 05 8a 4f 3f
       -0.13727637 0.052060228 0.20505129 0.81069976
0003d0 d1 47 dc 3e 99 41 15 3e ed 90 2f 3f 46 ef af be
       0.43023542 0.14575805 0.68580514 -0.3436224
0003e0 aa 7b 36 3f e7 ec a0 bd 34 8b af 3d 15 53 50 3f
       0.71282446 -0.078576855 0.08571473 0.81376773
0003f0 5c 02 c1 3e 08 03 6c bd 8c 6c 89 3e 5d d0 39 bc
       0.37697113 -0.05762008 0.26840627 -0.011341182

_orig_mod.rnn.weight_ih_l1 f4 [384, 128]
000000 41 a3 cd 3d fc a7 91 be 2a da 41 3e 4d 93 ca 3d
       0.10040904 -0.28448474 0.18930879 0.09891377
000010 65 70 4c be e1 0a 0c be 97 13 c3 3d 42 89 bd bd
       -0.1996475 -0.13676025 0.09525221 -0.092546955
000020 87 25 25 3e 13 f0 3c 3d 9b 13 8b 3e af e8 08 3c
       0.16127597 0.04612739 0.27163395 0.008356257
000030 58 9a e3 3d da fe 51 bd 54 d9 1d be f2 88 cf 3e
       0.11113423 -0.051268436 -0.15414935 0.40534168
000040 75 96 51 be ed 0a 61 be b5 1c 16 bf 77 52 35 3e
       -0.20467551 -0.21976824 -0.58637553 0.17707239
000050 b5 09 2f be 98 bb 22 be fb 94 1f 3d a5 d5 f2 3d
       -0.17093547 -0.15891874 0.03896044 0.11857156
000060 fe dd 4c be 92 5f dd 3d 86 9c 57 be 28 f2 78 3e
       -0.20006558 0.10809244 -0.21055803 0.24311125
000070 9a 9d 98 3c 90 60 5c 3e cd 20 a8 bc dd c9 bb 3b
       0.018629838 0.2152121 -0.020523453 0.005730851
000080 c3 4b 16 bd 4d a1 f1 3c f0 be 9d be b8 40 ab bd
       -0.036693346 0.02949586 -0.30809736 -0.083619535
000090 61 d8 16 be f5 37 bb bc 99 01 d6 be a6 76 08 be
       -0.1473098 -0.02285383 -0.41798094 -0.13326511
0000a0 8c 73 7f 3e 75 57 8b 3d dd a1 43 be 59 54 65 bd
       0.24946421 0.068037905 -0.19104715 -0.055988643
0000b0 8d 07 ab be ce eb e1 3d 98 32 24 3e 68 77 79 3c
       -0.33404198 0.11031304 0.16034925 0.015226223
0000c0 9f e8 e0 3d 4e 7e 0f be d2 68 0a be 7d 11 00 be
       0.10981869 -0.14013025 -0.13516548 -0.12506671
0000d0 b7 7a b2 be 46 99 1b 3e 98 48 e9 bd aa 90 89 3e
       -0.3485925 0.15195188 -0.11390799 0.26868182
0000e0 bc c6 69 3e 36 6b 06 3e 0a 5b 3c bc 49 20 c9 3d
       0.22829717 0.13126835 -0.011496315 0.09820611
0000f0 85 ac 0f bd fc 9c 21 be 29 db a5 bd 6d 50 4d 3d
       -0.035076637 -0.15782541 -0.08098442 0.050125528
000100 bc e7 07 be b4 bd 09 3e 04 4b ca 3d 95 14 6d be
       -0.13271993 0.13451272 0.09877589 -0.23152383
000110 d0 d6 05 3e b9 9e 05 be 26 8b 66 3e fd e7 00 bd
       0.13070226 -0.13048829 0.22514018 -0.03147124
000120 ea af b4 bd 00 b6 1c 3d de 78 13 be 96 4f d1 bd
       -0.088226154 0.038259506 -0.14401576 -0.10220258
000130 fc ef 53 bd 3c 2a 48 bd 27 74 9c 3d c9 1d 3b bd
       -0.05174254 -0.048868403 0.07639342 -0.045682702
000140 4e 28 a9 3d 38 96 fd 3d 5a b6 04 be 55 1f 7a 3d
       0.08259641 0.123821676 -0.12960187 0.061065037
000150 fc 16 55 bd 0e 7e 8b 3e 91 73 08 bf b6 9d f0 bd
       -0.052023873 0.2724461 -0.5330134 -0.11748831
000160 89 9e 5b 3d ae cc eb bd ac 0f ea 3c 02 4f 47 bd
       0.053617988 -0.11513649 0.028571926 -0.048659332
000170 6f 30 93 be d7 ef 4b 3e c5 5f a5 be 7d f5 bd bd
       -0.2874789 0.1991571 -0.3229963 -0.09275339
000180 5b b6 dd 3e 89 14 5c 3d 4a e0 b4 bb 29 31 e6 bd
       0.4330319 0.05373052 -0.0055199014 -0.11239845
000190 06 da 76 3e 06 5d a2 3e df 76 2c be 3d 51 03 3e
       0.24106607 0.31711596 -0.1684222 0.12823959
0001a0 f7 85 67 3e d5 a5 54 3d 06 46 0a 3e a4 8c a4 3d
       0.22609697 0.051915962 0.13503274 0.080346376
0001b0 cd c6 30 3f 88 50 03 3e 9f 43 a7 be 19 e9 5e be
       0.69053346 0.12823689 -0.32668778 -0.21768607
0001c0 38 a6 d5 be 4d 54 a4 3d 99 42 c5 3d cd e7 31 3d
       -0.41728377 0.080238916 0.09631843 0.043433953
0001d0 34 59 83 be f6 f2 01 be 05 e5 c5 3d 83 1c 02 3d
       -0.25653994 -0.12690338 0.09662823 0.031765472
0001e0 1a 0d c5 bc d2 85 f6 bd 21 99 32 3e e9 d6 f4 3d
       -0.024054099 -0.12037243 0.17441227 0.11955053
0001f0 f3 dc 82 be 35 e9 89 be 3c 5a ba 3d 5b ed 0e 3e
       -0.25559196 -0.26935735 0.09099242 0.13957731
000200 8a 02 fe bd 74 bc cd bd c7 bc 81 bb 2f cd b9 3e
       -0.12402828 -0.1004571 -0.0039592716 0.36289355
000210 98 5e 3b be 12 df 07 bc c9 ab 32 3e 95 86 f4 be
       -0.18297803 -0.00829293 0.17448343 -0.47758928
000220 ea 30 9f 3e 5b 3a fc bb 07 49 3f be 92 9a 6a 3d
       0.31092006 -0.007697386 -0.18680201 0.057276316
000230 8d 45 6c 3d f1 94 b0 be f1 27 87 bc 79 e9 13 bf
       0.057683516 -0.34488633 -0.016498538 -0.57778126
000240 e7 8e b8 3e 78 85 09 3d 9b ca 1c bd d5 4c 91 bd
       0.36046526 0.03357455 -0.038279157 -0.07094733
000250 67 84 30 bd 3d 5b 67 3e 2e 29 09 be c7 3d d1 bd
       -0.04309502 0.22593398 -0.13394615 -0.10216861
000260 4c 32 cb be 3f 65 61 3e 68 2c 19 3d c2 42 21 3d
       -0.3968681 0.22011279 0.037395865 0.039370306
000270 ed f6 b2 3d 71 58 ea bd 3a 3b d1 bd 58 62 93 3e
       0.087385036 -0.1144265 -0.10216375 0.28785968
000280 ab 79 21 be 6c 36 93 be 9c 01 16 3d 6f 56 e6 bc
       -0.15769069 -0.28752458 0.03662263 -0.028117387
000290 6f a6 55 3d ae d0 a2 3b 99 5e 03 bf 8c 7b 7a bd
       0.052160677 0.004968724 -0.5131622 -0.06115298
0002a0 40 20 09 bd cf 62 a9 bc 15 9e 61 3d 3b 25 d7 3e
       -0.03347802 -0.020676998 0.0550824 0.42020592
0002b0 c9 fb de 3d 9f ce d6 3d 7c 2e 86 3e d3 29 4d 3c
       0.10887868 0.104886286 0.2620734 0.012522179
0002c0 79 bf 46 3e 9d a2 8f be 79 c0 23 be e0 2c e5 3c
       0.19408979 -0.28053752 -0.15991391 0.0279755
0002d0 51 a8 c0 be ea f2 0b 3e 72 8e 59 bd 45 58 ce be
       -0.37628415 0.13666883 -0.053114362 -0.4030172
0002e0 d5 a2 52 bd 76 0b 19 bd b6 49 4a bd 3c 66 60 be
       -0.05142482 -0.037364446 -0.049386702 -0.21914
0002f0 d8 52 bb 3e 3e 2a 3e be d8 f3 be bd dd 87 aa bd
       0.36586642 -0.18570802 -0.09323853 -0.08326695
000300 3d ac a8 bd 12 fe 27 3e 16 f4 65 3e 46 4d 0f bd
       -0.08235977 0.16405514 0.22456393 -0.034985803
000310 12 34 95 3d c1 6d c7 3e b1 df c1 be 3e 2c 84 3e
       0.07285322 0.38950923 -0.37865975 0.25815004
000320 ca 96 9e 3e 92 7d 2d bc 4f d8 f9 bd da 32 ac bd
       0.30974418 -0.01058902 -0.12199461 -0.08408137
000330 7d 21 b9 3e fd ea ee bd 10 bb fb 3e 42 80 a1 3d
       0.36158362 -0.11665914 0.49166155 0.07885791
000340 ac 98 bc be 10 16 88 3d 48 95 e1 3e 1e cf 80 3d
       -0.3683523 0.06644833 0.44059205 0.062895045
000350 c1 26 f0 3d 5c 39 0b 3d 79 54 28 3e 6a 62 4a bd
       0.11726142 0.03399025 0.16438474 -0.04941026
000360 c1 70 9d 3e 49 9e 1f be 42 30 3a be af ef 6c 3d
       0.30750087 -0.15587725 -0.18182471 0.057845768
000370 8e 50 8b 3e e6 b7 8e be 85 eb 0c 3e 22 c5 16 be
       0.27209896 -0.27874678 0.13761719 -0.14723638
000380 1e 7c 63 3e 82 b5 0c 3e 96 d7 da bd 31 60 8f 3d
       0.22215316 0.13741115 -0.10685651 0.07000769
000390 90 ac 25 3e 08 5d 01 3e 4b 25 aa be 76 87 0b be
       0.16179109 0.12633145 -0.33231577 -0.13625893
0003a0 3a 91 13 bd 23 4f cd 3d d4 4c 21 be e6 42 f1 bd
       -0.03602717 0.1002486 -0.15751964 -0.11780338
0003b0 12 53 38 3e 39 d1 9d 3e 18 e4 00 be c3 15 c2 3d
       0.18000439 0.30823687 -0.12587011 0.09476807
0003c0 5e 76 3d be a1 6c d7 3d ae 1a 0b 3e 90 5c a6 3d
       -0.18502185 0.10518766 0.13584396 0.08123124
0003d0 74 ce 05 3d f2 2a 21 bd f1 45 ff ba 26 9e f5 3b
       0.032667592 -0.039347596 -0.00194758 0.0074956594
0003e0 b4 24 ab 3d 1c aa 95 3e b8 58 42 3e f7 e2 69 3d
       0.0835661 0.29231346 0.18979156 0.057101216
0003f0 3e 15 85 be 5b ef 22 be ae 92 4c be 0a c8 b6 bd
       -0.2599277 -0.1591162 -0.19977829 -0.08924873

_orig_mod.rnn.weight_hh_l1 f4 [384, 128]
000000 52 42 80 bf f0 bf 14 be 72 7f 02 3f 5f 27 33 3e
       -1.0020239 -0.14526343 0.50975716 0.17495488
000010 79 89 51 3d 10 f0 37 3f 0c a5 65 be 6f b1 bf 3d
       0.051156495 0.7185068 -0.22426242 0.09360015
000020 ee 8c 02 be 63 7a c7 be 99 ec 0d be 96 cd 85 3e
       -0.12749073 -0.3896056 -0.13859786 0.26133412
000030 54 8c ec 3d 27 e7 32 bd 74 df 8d bf f0 78 a6 3d
       0.11550203 -0.043677475 -1.1083817 0.08128536
000040 a3 2e 9a be 7a c6 d6 bc 59 2f 4e 3f 44 95 05 be
       -0.30113706 -0.026217688 0.80540997 -0.13045222
000050 f6 ae 5c 3e 1d 1d 12 3e 1b 58 19 3d 41 26 be 3d
       0.21551117 0.14268918 0.03743754 0.0928464
000060 93 95 31 be cb be b5 3d a9 80 a5 3e 2d 21 26 bf
       -0.17342214 0.088742815 0.32324722 -0.6489437
000070 c8 79 28 be 25 b0 a2 bd 37 15 cd 3c 8b 76 b9 3d
       -0.16452706 -0.07943753 0.02503453 0.090558134
000080 1b 78 7e 3e b0 ff 6f bf 10 90 f4 bd 77 5f 24 bd
       0.24850504 -0.93749523 -0.1194154 -0.040130105
000090 85 54 ae be 55 03 76 bc 06 a6 d8 3e 08 e7 ca 3e
       -0.34048858 -0.015015443 0.42314166 0.39629388
0000a0 bb 17 01 3e 76 a2 b3 bd 07 dc 92 3e 59 5f b4 3e
       0.12606709 -0.08771221 0.28683493 0.35228994
0000b0 15 e5 87 3e 3c f1 8d 3e 99 5d af be 32 01 4b 3d
       0.26541963 0.2772311 -0.34251097 0.049561687
0000c0 47 75 c1 bd b6 a0 1d 3c 48 70 bd bd 24 0b 75 3e
       -0.09446197 0.009620836 -0.092499316 0.23930031
0000d0 22 65 0c 3f 8a 56 36 be d3 75 97 3d 15 db 99 bd
       0.54841816 -0.1780645 0.0739552 -0.0751249
0000e0 56 f5 33 3f 01 97 a2 3e 44 51 b8 3c b3 fd ae 3e
       0.7029623 0.31755832 0.022499688 0.34177932
0000f0 d4 ec 4a 3e ff 19 0f 3f 28 b4 69 3e 62 18 9f 3d
       0.19816905 0.5589904 0.2282263 0.077683225
000100 5a 7e 90 be 15 b5 87 be fb 38 9d bc 60 21 e8 bd
       -0.282214 -0.26505342 -0.01919221 -0.11334491
000110 f0 b5 15 be 85 90 fc be 33 53 20 3e 36 cb be 3e
       -0.14620185 -0.4932901 0.15656738 0.37264413
000120 2e 4f 1c be 01 88 16 bd b9 37 e0 bb ec 97 e8 3c
       -0.1526458 -0.036750797 -0.00684258 0.028392754
000130 03 4b 01 be 10 5e 03 3e bc b6 52 be 55 3c 6a be
       -0.12626271 0.12828851 -0.2057752 -0.22874577
000140 b1 7c f0 3e 1b 9f c6 be 32 b2 0a be 31 5e 06 3e
       0.46970132 -0.38793263 -0.13544539 0.13121869
000150 6e e7 05 3e 1e 1b 87 3c 7f e1 eb bd 38 5b 2e be
       0.13076565 0.016492423 -0.11517619 -0.17026985
000160 45 dd 48 bc 71 89 cf be 21 1d bc 3d 00 02 87 be
       -0.012259786 -0.40534547 0.091852434 -0.26368713
000170 d1 e1 99 be f6 98 c5 3e 28 90 1a 3d 86 1e 89 bd
       -0.30055097 0.38593262 0.037735134 -0.06695275
000180 e9 38 18 3e af 58 08 bf 1e 2f 49 3e 76 e6 2b bc
       0.1486546 -0.5326032 0.1964688 -0.010491958
000190 42 82 d7 bd ca 60 ab 3e 27 37 ca be 2e ee c9 bc
       -0.105228916 0.33472282 -0.39495203 -0.024649706
0001a0 7f 22 82 be af d4 01 bf 46 73 66 3b 97 06 37 bf
       -0.25416943 -0.50715154 0.0035163923 -0.7149443
0001b0 df 91 8d 3c ad c5 54 bd 2d 8c 3f be a9 df 6c be
       0.01728147 -0.05194633 -0.18705817 -0.23132195
0001c0 c8 f0 48 3f 58 ac ca be 56 0a 0c 3f d7 40 dc bd
       0.78492403 -0.39584613 0.5470327 -0.10754555
0001d0 94 18 24 3d a7 52 13 3f e5 cc 2e be 72 f8 49 be
       0.040062502 0.5754799 -0.17070349 -0.1972368
0001e0 94 c7 64 be 13 ed 98 3d d5 37 24 3e 19 05 e9 3d
       -0.22341758 0.07467093 0.16036923 0.113779254
0001f0 f5 17 81 be 76 24 d0 3e c6 61 f8 3e 01 a6 ce bd
       -0.2521359 0.40652817 0.48512095 -0.100902565
000200 33 f6 ad be 61 1f 38 bf 05 4c b4 3d 31 0b d3 3e
       -0.33976898 -0.7192288 0.08803562 0.41219476
000210 3e a2 40 3e 67 7e 00 3e 1f fe 83 3e 44 08 e8 3e
       0.1881189 0.12548219 0.25779817 0.45318806
000220 b1 13 15 be cc 5d b7 bb e8 b0 44 be cc 04 8f bd
       -0.14558293 -0.0055958983 -0.1920811 -0.06983337
000230 59 ff 8c be fc 66 6c be f9 ea a7 3d 59 df b1 3e
       -0.27538565 -0.2308616 0.08199114 0.34740713
000240 e9 38 4e be 53 68 16 39 d6 7b e5 3e d3 e4 45 be
       -0.20138897 0.00014343979 0.44821042 -0.19325571
000250 db 87 86 bd ed 98 80 be 1c 2c 24 3f bf de 01 ba
       -0.06568881 -0.25116673 0.64129806 -0.0004954151
000260 5b de 9b bc 9d 0d 8b 3e b5 84 ba bd 19 b2 8a 3d
       -0.019026926 0.27158824 -0.09107343 0.06772251
000270 f8 dd a5 bd 51 36 c2 3d 26 3f 09 3d 73 36 3b 3e
       -0.08098978 0.09483016 0.03350749 0.1828249
000280 6a 66 6a bd 4a 11 14 bd 0e 54 d7 bd 5c fa d1 bd
       -0.057226576 -0.0361493 -0.10514079 -0.102528304
000290 fb 05 66 bf fc 37 80 3b e1 0c 35 be 87 15 4e be
       -0.89852875 0.003912924 -0.17680694 -0.201254
0002a0 03 c6 0f 3f c1 db 04 3d f9 f8 f0 be 22 1f e4 3e
       0.56161517 0.032436136 -0.4706495 0.44555002
0002b0 15 78 2a 3e 2f 86 ef 3d f3 13 86 be bc ff 17 3e
       0.1664737 0.11695515 -0.26187095 0.14843649
0002c0 ae 93 02 3f 3f 20 74 bd 3d 52 88 3e 17 10 8c 3e
       0.5100659 -0.059601065 0.26625243 0.27356026
0002d0 0b a0 0b 3e 2a 3a 7f 3e 9a a1 02 bf 70 9f 02 3d
       0.1363527 0.24924532 -0.51027834 0.031890333
0002e0 c8 62 d5 be c8 3b 06 3f b3 48 b9 be 46 69 f7 bd
       -0.41676927 0.5243497 -0.36188278 -0.12080626
0002f0 c4 f6 af be eb e5 12 3e 5d fc 99 be e9 23 9d be
       -0.34367955 0.14345519 -0.3007535 -0.3069146
000300 82 af 10 be 4a c7 f3 bd cf 66 8e bd 80 88 12 bd
       -0.14129451 -0.11903246 -0.06953203 -0.035774708
000310 60 d6 cb 3e c2 f2 ad 3e ed f4 d6 3e 08 c0 bd be
       0.39811993 0.33974272 0.4198374 -0.3706057
000320 3f ee 9b be 7c e0 11 bf 4c 51 b4 be 19 d9 da 3d
       -0.30455205 -0.5698316 -0.35218275 0.10685939
000330 7e d7 ab be 85 b0 c7 3e 20 9c 23 be cf cb 9c 3e
       -0.33562845 0.3900186 -0.15977526 0.30624244
000340 ef 40 74 bd a3 38 79 be eb ab 9c 3d 87 5c 7a be
       -0.059632238 -0.24338011 0.07649978 -0.24449359
000350 b4 ed 25 3e f0 5e bd 3e 6f c4 03 bf e1 46 16 3e
       0.16203958 0.36986494 -0.5147161 0.14675476
000360 e3 22 b3 3e 94 1a ce bc cc e3 f6 bd 49 d8 35 bf
       0.34987554 -0.025159158 -0.120551676 -0.7103315
000370 53 ac 50 be ea 4c 61 bd 1c 11 b4 be 1a 8c 17 3d
       -0.20378236 -0.05500499 -0.35169303 0.036998846
000380 e8 09 0d bb 07 77 35 bf 5e 0f e7 3d 96 6a cc 3d
       -0.0021520797 -0.70884746 0.11282228 0.09981267
000390 3b fc 15 bf d8 4c e0 3d 7a 89 17 be 1b 95 81 3e
       -0.58588 0.10952157 -0.14798537 0.2530907
0003a0 4a 2e ce be 40 0c b3 be 18 4b 90 3e 05 a1 90 3e
       -0.4026969 -0.34970284 0.28182292 0.28247848
0003b0 f3 19 27 bd 07 96 a8 3e 0d dc 51 3e 27 fa 44 bd
       -0.04079623 0.32926962 0.20494099 -0.048090126
0003c0 01 d1 5e 3f 94 b5 1f 3e 04 09 b7 3e 39 2d 0f bd
       0.87037665 0.1559661 0.35749066 -0.034955237
0003d0 b8 8f a7 3d 26 6d 25 3f 1b 48 b0 be 03 5a 53 3c
       0.08181709 0.6461967 -0.34430012 0.012899878
0003e0 92 c8 04 3d 82 f3 d2 be 79 e7 78 be ef be d0 3e
       0.03241784 -0.41201407 -0.2430705 0.4077067
0003f0 10 88 99 bc 06 aa a3 bd 78 0b f3 bd 40 d5 09 3e
       -0.018741637 -0.07991414 -0.11867422 0.13460255

_orig_mod.rnn.bias_ih_l1 f4 [384]
000000 9c 94 45 3e 80 90 40 3e b8 c7 86 3c c9 f1 08 be
       0.19294971 0.18805122 0.016452655 -0.13373484
000010 72 bf 92 3d d4 10 de bd 82 be f8 bc ba 72 44 bc
       0.071654215 -0.108430535 -0.030364279 -0.011990244
000020 05 e6 0f 3e 27 df b0 ba c0 73 d0 3d 53 e3 48 be
       0.14052589 -0.0013494239 0.101783276 -0.19617967
000030 c0 01 5d 3d b7 d7 89 3e dc 3d 2a be 03 ad 44 bd
       0.053956747 0.2692239 -0.1662516 -0.04801656
000040 8a ec 89 3c 30 27 22 3e 8b dc a0 3c 25 ff 88 3c
       0.016836423 0.15835261 0.019636413 0.016723225
000050 96 81 99 bc 9f 42 29 3e 7e e4 bd 3c 00 c4 3b 3e
       -0.01873855 0.1652932 0.023180243 0.18336487
000060 d2 e7 9d bd 38 71 ad 3d df b6 c1 3e 75 e7 1f be
       -0.07710232 0.084688604 0.37834832 -0.15615638
000070 05 09 22 3d 76 f3 df 3d aa 23 b6 3c 82 6b e5 3d
       0.039559383 0.10935108 0.022233803 0.11202146
000080 41 30 e9 3a c7 41 0c be 45 19 4e 3e 8a 2b fe 3d
       0.001779087 -0.13696967 0.20126827 0.12410648
000090 de f8 bf 3c db 10 3a 3e 15 95 b6 3e 6f f0 54 3d
       0.023434099 0.18170492 0.35660616 0.051987108
0000a0 4b 6a a4 3d 20 d9 96 3d 33 8d 03 3d c5 bd c3 3e
       0.08028086 0.07365632 0.03211708 0.3823072
0000b0 80 20 ba bc 61 57 5c bd 2c 78 dc 3d 6b 76 18 3d
       -0.022720575 -0.05379427 0.107651085 0.037222307
0000c0 f4 2e f2 bb 45 25 5e bd 8d d3 1b 3d 89 53 95 3d
       -0.007390851 -0.05423476 0.038043547 0.07291324
0000d0 ae 73 f8 bd 25 b4 5d bc 3c 16 5f 3e 23 4b f5 bc
       -0.12131439 -0.013531719 0.21785825 -0.029943055
0000e0 89 53 a5 bd bf f8 93 bd 60 5e 2f bc 83 fd 04 3e
       -0.08072574 -0.07225179 -0.010703653 0.12987332
0000f0 a2 d5 88 3d 03 c9 6c 3d 25 b6 46 3e 10 f2 8d bd
       0.06681372 0.057808887 0.1940542 -0.069309354
000100 99 30 4d bc 8e 35 4b 3e 34 39 25 3d 3a c7 49 3e
       -0.012523794 0.19844648 0.040337756 0.19704905
000110 7f f1 c8 bd e4 28 6d 3d 03 3d 51 3c 8a d4 65 bd
       -0.09811687 0.057900324 0.012770894 -0.056110896
000120 02 66 12 3c 40 2b 17 bd 9c 50 a7 3d 07 e6 c8 3d
       0.008935453 -0.03690648 0.08169672 0.09809499
000130 c8 6d 38 be 85 0c 6f bd 97 31 18 3e c4 13 82 3e
       -0.18010628 -0.05836155 0.14862667 0.25405705
000140 5b 22 36 3d 78 40 8f bc 62 f8 3c 3e 80 6d 83 bc
       0.044466358 -0.017486796 0.18454126 -0.016043425
000150 f3 93 35 bc 28 23 2f bd a6 83 f6 3d f3 da 40 3e
       -0.011082637 -0.042758137 0.12036829 0.18833522
000160 bf b6 42 be 37 a2 be 3d dc 8b 88 3d 13 a6 b5 3d
       -0.19015025 0.09308284 0.06667301 0.08869567
000170 0a be 1e 3f 6b 88 30 3d 74 28 f6 bd ef 93 ac bb
       0.62008727 0.04309885 -0.120194346 -0.0052666585
000180 a6 68 4c bd bd 13 60 bb a9 bb f2 bd 2c 59 95 3a
       -0.049904488 -0.0034191452 -0.118521996 0.0011394373
000190 5c 1a a0 bc 52 0c 53 bd 29 09 8c 3d 95 b6 8d 3e
       -0.01954382 -0.05152542 0.06837685 0.27678362
0001a0 7b bf b1 3d f9 cb db bc 0e ad c5 3d 7d 43 98 3c
       0.086791 -0.02683066 0.09652148 0.018586868
0001b0 a7 b4 09 3a a1 e9 50 bc 6c ba 1f 3c 99 2b 94 bd
       0.00052530546 -0.012751014 0.009749036 -0.07234878
0001c0 bd 8c 9c bb 3f 14 62 3d 7a 91 a3 bd b2 2b 8b 3e
       -0.0047775195 0.05519509 -0.07986732 0.27181774
0001d0 47 3a 21 3d d3 41 13 3e e6 cd 41 3e 90 02 81 bd
       0.03936222 0.14380579 0.189262 -0.06299317
0001e0 d5 5c a8 bc cb 6e 45 3c 1f f9 c2 3c d5 99 a3 bd
       -0.020552078 0.012050341 0.02380043 -0.079883255
0001f0 00 be 41 3d 50 60 90 3e 2e 5d 13 3e c0 4e ad bd
       0.04730034 0.2819848 0.14391014 -0.08462286
000200 b4 2f 3a bd 45 ba 03 3e ad 2a 8c 3e b6 8e 47 3f
       -0.04545565 0.12864025 0.2737631 0.77952135
000210 8c 0a 96 3d 68 55 7b 3f 90 96 48 3f 40 a0 87 3e
       0.073262304 0.98177195 0.7835474 0.2648945
000220 67 de db bc 8d 6e 4a 3f 07 48 a6 3e 48 96 71 3f
       -0.026839448 0.7907494 0.32476828 0.94369936
000230 fe cf 65 3d 13 53 a6 3d ec 2b 83 3f 21 db fd 3e
       0.05610656 0.08121314 1.0247779 0.49581245
000240 05 b5 6f 3e 0f 2b 60 3f bd 24 dc 3e c7 ad 1e 3f
       0.23408897 0.875657 0.4299678 0.61983913
000250 28 8b e6 3e 43 08 c5 3e 42 ea 11 3f 3f e2 9d bd
       0.45028043 0.38482866 0.56998074 -0.07709169
000260 53 e3 cd bd 85 65 fa bd 85 19 ee bc ee b3 75 3f
       -0.10053124 -0.122263946 -0.029064903 0.95977676
000270 73 11 74 be 0d 11 3a be 8c b2 9d 3e f5 19 4d 3f
       -0.23834781 -0.18170567 0.30800283 0.8011773
000280 b0 6b 92 3e f8 55 66 3f 86 c4 09 3d 7e f2 f2 bd
       0.28597784 0.8997493 0.033634685 -0.11862658
000290 62 7a 45 3f 58 84 71 3e a0 79 ad bd 43 d5 fe 3d
       0.77139866 0.23585641 -0.08470464 0.1244302
0002a0 80 d1 bb 3e af 7b db 3d a8 4a 4c 3f a6 3f e1 3e
       0.36683273 0.1071695 0.79801416 0.43993872
0002b0 3b 29 e1 3e 30 82 77 3f 0f ff 36 3f c0 c9 e4 3c
       0.4397677 0.96683025 0.7148294 0.027928233
0002c0 cb 54 82 3e a0 af 13 be 99 08 30 3f 36 82 2d 3f
       0.25455317 -0.14422464 0.6876312 0.6777681
0002d0 de 9e 6e 3f fc 14 4e 3f 55 fa 04 bf cc 19 ac 3e
       0.9321116 0.8050077 -0.51944476 0.3361343
0002e0 41 b1 44 be 69 98 74 3f 2b ac 44 be 48 80 33 3c
       -0.19208242 0.9554506 -0.19206302 0.010955878
0002f0 35 86 ed 3e c9 ee 32 3f 73 f2 8c be 5d 7a 6d 3f
       0.46391454 0.6989561 -0.27528724 0.92764837
000300 e8 f2 e3 3e de 67 b6 3e d8 e3 94 3e 44 12 9a 3e
       0.4452126 0.3562612 0.2908008 0.3009206
000310 26 7b 77 3f c2 e5 cf bc bf 11 4d 3f 60 0d 56 3f
       0.96672285 -0.025378112 0.80105203 0.8361416
000320 f9 0d 2e 3e 23 f8 0d 3f cd 08 3a be 80 69 15 3f
       0.16997518 0.5545675 -0.1816742 0.58364105
000330 3c 69 3c 3f 02 c0 27 3f d2 23 9e 3e 3f 2a 0d 3e
       0.73598075 0.65527356 0.30886704 0.13785647
000340 65 95 9a be db 96 25 3c 1e e1 9e 3e db a8 a3 3d
       -0.30192104 0.0101067675 0.31031126 0.07991191
000350 81 60 02 3e a1 89 24 be 6b d0 ca 3e af 91 b1 bd
       0.12732126 -0.16068126 0.39612135 -0.08670365
000360 71 8d 4d 3f 23 35 32 3f 67 05 d9 3e 03 e6 64 3f
       0.8029395 0.6961233 0.42386934 0.8941347
000370 57 01 be 3e 13 3f 30 3f 21 2c 3a 3e 9d c6 8d 3e
       0.37110397 0.68846244 0.18180896 0.27690592
000380 2c fc 6c 3f 34 f2 5d 3f b4 37 44 3f cd eb fd 3e
       0.92572284 0.866977 0.76647496 0.49593964
000390 1e 5c 80 3f 05 2d 2a 3f 40 cb cf be 28 44 f0 3d
       1.0028112 0.66474944 -0.40584755 0.1173175
0003a0 30 c8 25 3e 10 56 19 3f 19 9d 48 3e 1d 21 67 3f
       0.16189647 0.59896946 0.19591178 0.902849
0003b0 ba d1 4d 3f 73 6b 44 3f ed 5c b7 3e 08 2f 08 3c
       0.8039814 0.76726454 0.35813084 0.008311994
0003c0 9b ce 77 3f 16 65 17 3e 49 06 72 3f 85 b4 44 be
       0.9679963 0.14784655 0.9454084 -0.19209488
0003d0 c6 56 c3 be fe ce 04 3f 86 96 ec 3e 87 10 9b 3c
       -0.3815214 0.51878345 0.4620859 0.01892878
0003e0 d4 6a 54 3f c4 7b 53 3f 78 d1 48 3f 32 2c 6d 3f
       0.82975507 0.82610726 0.78444624 0.9264556
0003f0 03 ab 23 be 8d cb f3 be 9b d7 c8 bd 51 04 55 3f
       -0.15983205 -0.47616234 -0.098067485 0.8320971
