4.2_Analysis/Train_Models/model_3/GRU_SupConLoss_final.pth (torch, 873583 bytes, 10 tensors)

_orig_mod.rnn.weight_ih_l0 f4 [384, 93]
000000 84 0a 02 be 67 bf de bd ec dc 86 be 04 86 d5 3e
       -0.12699324 -0.10876351 -0.26340425 0.41703808
000010 da f7 c8 3e 2a 94 55 be 04 fc 15 be 8e 35 91 be
       0.39251596 -0.20857301 -0.14646918 -0.2836117
000020 3d 9c 60 3e ad a9 2a 3e 4c 7e 17 3e 93 ef 45 be
       0.219346 0.16666289 0.14794272 -0.19329672
000030 56 c2 1b bf b5 1c 22 be f7 41 92 3e dd 6e 27 be
       -0.6084341 -0.15831263 0.28565952 -0.16350885
000040 5c 34 50 3e 34 38 28 3d 45 3e 7b 3c 1b a0 24 ba
       0.20332474 0.041069224 0.01533467 -0.0006279961
000050 06 b7 ca be 99 5c e5 3c da f0 1b bf 7b e8 5c 3e
       -0.3959276 0.027998256 -0.60914385 0.2157306
000060 79 7d a0 be 71 e7 39 3e e7 b7 0a bf 3f 05 46 3e
       -0.31345728 0.18154694 -0.5418686 0.19337939
000070 d6 0e 19 bd cf db 3c 3e be dd 36 bd 72 da 24 be
       -0.037367664 0.18443225 -0.044645064 -0.16098955
000080 10 51 d0 bd b6 9c 55 3d 24 2e a5 bd 5e b4 0c bf
       -0.101717114 0.052151404 -0.08065441 -0.5496272
000090 1e 0f 9d 3e 2d fb 37 3e 91 81 0f 3f d2 e6 13 be
       0.30675596 0.1796691 0.5605708 -0.1444352
0000a0 d7 72 6a be 45 7e a7 be 18 a5 2d be 60 65 4d bf
       -0.2289537 -0.32713524 -0.1695751 -0.8023281
0000b0 a4 31 f9 ba 45 b4 03 bf e6 fd 72 be a0 17 81 be
       -0.0019011986 -0.51446944 -0.23729667 -0.25213337
0000c0 c6 26 eb be 11 a1 18 bf 77 df 29 bf 0f 01 24 3e
       -0.4592802 -0.5962077 -0.66356605 0.16016029
0000d0 89 0f bd bc ab 2f ed be 4c 9f ec be 17 d7 94 bd
       -0.023078697 -0.4632543 -0.46215284 -0.07267588
0000e0 e2 2f 21 bf 15 b3 86 bd 78 07 70 be 0b 6c cd bd
       -0.6296369 -0.06577126 -0.23440349 -0.10030373
0000f0 f4 3d ec 3d 35 73 ce be c2 39 5c bd 59 80 1a bf
       0.11535254 -0.4032227 -0.05376602 -0.60352093
000100 b6 fc e2 be d1 1e 93 be ab bb 03 bf 98 67 31 bf
       -0.44333428 -0.2873445 -0.51458234 -0.69298697
000110 81 fa 98 bc cc 81 81 bd 4b b2 a5 3d 3f 66 12 bf
       -0.018674137 -0.06323585 0.08090647 -0.57187265
000120 8f c7 b5 be a8 fc aa be e3 30 78 3e f6 8e 1f bf
       -0.35503814 -0.33395886 0.24237399 -0.62327516
000130 42 93 dd bd 34 99 8e bc 79 03 cf bd 94 52 55 bf
       -0.10819103 -0.017407037 -0.10108084 -0.8332913
000140 f1 9e 78 be 4e 25 a5 3e b2 aa 48 3c 6c e2 3e be
       -0.24279381 0.32255024 0.012247728 -0.1864106
000150 42 ae bb 3e 1e 95 43 bf 1b 3a b6 3d 6d a3 6f be
       0.36656386 -0.7639941 0.088978015 -0.23402186
000160 a8 d1 71 3f f0 45 97 be 03 57 01 be aa 1b 97 be
       0.94460535 -0.29545546 -0.12630849 -0.29513294
000170 f2 0c e7 bc c4 b9 0a be 36 44 a4 be 6e 20 fd be
       -0.028204415 -0.13547426 -0.3208329 -0.49438804
000180 7c 0a 98 3e a6 70 82 be b0 57 f9 bd 35 f8 92 bc
       0.296955 -0.2547657 -0.12174928 -0.01794062
000190 30 51 c7 bd 9f 44 a9 bd 3b f7 11 bf 1d 97 32 be
       -0.09732282 -0.082650416 -0.5701787 -0.17440458
0001a0 f1 19 16 3e 33 a3 ba be 90 4c 30 3e de c0 a3 be
       0.14658333 -0.36452636 0.17216706 -0.31983083
0001b0 2f e0 6e be 3c 54 4c be 75 f3 34 3d 10 07 56 be
       -0.23327707 -0.19954008 0.04417749 -0.20901132
0001c0 08 cd 9c be d3 bb 29 bd 73 d1 46 3e 46 05 1d be
       -0.30625176 -0.04143889 0.19415836 -0.15334043
0001d0 d7 62 e5 3d 23 98 51 bd e7 b8 97 39 d9 66 0d 3e
       0.11200493 -0.05117048 0.00028938727 0.13808765
0001e0 0d 6f 63 be d3 23 91 bd 24 a4 f2 bc 2c d8 64 3e
       -0.22210331 -0.07086911 -0.029619284 0.22348088
0001f0 4b 6e a9 be d1 cf 72 be 61 13 78 3e 6f 3c c9 be
       -0.3309196 -0.23712088 0.24226142 -0.3930392
000200 2c 3e f2 bd 2a 61 e1 be 5d 1c 41 be 9d 7f 4a be
       -0.118282646 -0.44019443 -0.18858476 -0.19775243
000210 11 d7 ee 3d 23 bc 8e be d5 f0 93 3e 7a b3 8a 3e
       0.116621144 -0.27877912 0.28894678 0.27090055
000220 3f 28 ce bd 66 a8 01 be 81 fc e1 3d f6 70 11 be
       -0.1006627 -0.12661895 0.110344894 -0.14203247
000230 55 9f f6 bc 31 da f3 bd 4f 6b b9 3e ed ad d1 3e
       -0.030105272 -0.11906851 0.36214682 0.40953007
000240 ee 03 75 3e 09 bd a5 be d5 27 09 bd bd b0 05 3d
       0.2392728 -0.32370785 -0.033485252 0.032639254
000250 e4 92 8b be 91 6b 7f 3d fa 79 04 3b 81 ac f6 3c
       -0.27260506 0.062358443 0.0020214305 0.030111553
000260 c3 cc f6 bd f0 12 1f be eb b6 9b 3e 73 19 8d 3e
       -0.12050774 -0.15534568 0.30412993 0.2755848
000270 5f 76 0a bd a9 58 a0 be e4 ef 9a bd 0e 88 08 3f
       -0.033804294 -0.31317642 -0.07565287 0.533326
000280 d1 cb d2 3d 1f d1 88 3e 10 4e ae 3e 0c 35 9d be
       0.10292781 0.26722047 0.34043932 -0.30704534
000290 00 ef 07 3c 84 50 03 3e 09 c1 37 3e 25 1d 0c 3f
       0.008296728 0.12823683 0.17944731 0.5473197
0002a0 53 cd 47 be 53 90 14 be d8 fe 8b 3e 02 9a ac 3e
       -0.19511919 -0.1450818 0.27342868 0.3371125
0002b0 ea ca 0b 3f fd a3 36 3f 1e 4c e4 3e 9a 2a 23 3f
       0.546065 0.71343976 0.44589323 0.6373688
0002c0 28 5d 07 3f b3 9d 9f 3e d7 68 81 be 4c e6 74 3e
       0.5287652 0.31175002 -0.252753 0.23915976
0002d0 c4 1e 14 3d 8c 64 24 bd eb cc 54 3c 52 8c 44 3e
       0.036162153 -0.04013495 0.012988309 0.19194153
0002e0 39 81 2e 3e 0f 3f 41 3d 39 f3 c1 3d ba 65 c5 3e
       0.17041482 0.047179278 0.09470219 0.38554174
0002f0 84 c5 a9 3e b2 a5 fd 3e 2c 58 b9 3e 10 0d 75 3e
       0.33158505 0.49540478 0.36200082 0.23930764
000300 71 24 ad 3e d2 0e a6 3e 6c b3 b9 3d 95 a7 c4 be
       0.33816865 0.32433182 0.09067425 -0.38409105
000310 13 39 29 3f ed 22 5d be 62 32 91 be 57 99 c4 be
       0.66102713 -0.21595354 -0.28358752 -0.3839824
000320 dd b3 3d be c9 de 2d 3e d7 a1 38 3d 47 32 68 3e
       -0.18525644 0.16979517 0.045076218 0.2267543
000330 d0 1b 29 3f 6b b0 c9 3e e5 c6 ba 3e 2f e1 29 bd
       0.66058064 0.3939241 0.3647987 -0.041474517
000340 c8 29 93 be b7 bb 8c be a4 33 fd be 78 40 0e 3f
       -0.28742814 -0.27486965 -0.4945346 0.5556712
000350 f6 f9 ad be 12 0d 82 3e b4 d6 67 be 5b 98 cc 3e
       -0.33979768 0.25400597 -0.22640496 0.39959988
000360 5a 6c fa 3c bc 90 90 bd c2 74 d2 3d cf 6c be be
       0.030569244 -0.07058856 0.10276176 -0.3719239
000370 02 97 e8 be 6e ef f4 3e fe a7 19 bf 09 e8 9e be
       -0.4542771 0.4783892 -0.6002196 -0.31036404
000380 95 c9 07 bd 2f 06 c9 be 52 66 1b be f5 1c 4f bd
       -0.033151228 -0.3926253 -0.15175751 -0.050564725
000390 b4 f7 15 3e 90 f4 64 bd 7b 93 8e be 60 3a cd 3e
       0.14645272 -0.055897295 -0.27846894 0.400836
0003a0 e4 99 cd be 81 03 0c 3e 2d ac 46 be fa 6e 21 3e
       -0.40156472 0.13673212 -0.19401617 0.1576499
0003b0 74 d6 07 be 8d 97 a1 3c 6d 96 86 be 06 30 f8 3d
       -0.13265401 0.019725585 -0.2628664 0.12118535
0003c0 65 a7 c4 bd 7a e3 45 bf 7a 56 59 be 3e 0b 59 3d
       -0.096022405 -0.77300227 -0.21224394 0.052989237
0003d0 69 90 41 bf a1 f8 3d bf b8 cc 9a be a2 b1 15 bc
       -0.7561098 -0.742075 -0.30234313 -0.009136589
0003e0 75 3a f2 be a0 a5 73 be 90 7c d9 be 98 f2 38 bf
       -0.47310224 -0.2379365 -0.42477846 -0.7224517
0003f0 3a 25 e6 3d 3c c7 a1 3e 71 b4 d3 3e cc 72 30 be
       0.11237569 0.31597316 0.41348603 -0.17231292

_orig_mod.rnn.weight_hh_l0 f4 [384, 128]
000000 41 a1 54 3f ca 97 56 3e 15 96 1c be 7a 45 19 be
       0.83058554 0.2095634 -0.15291627 -0.1496791
000010 6f 7b 19 3e 2a e7 47 3e e8 6a 5d 3e f6 91 19 3e
       0.14988492 0.19521776 0.21622813 0.14997086
000020 26 e2 0d be c5 df 80 3e 54 20 81 be a5 c9 cf 3e
       -0.138558 0.25170723 -0.25219977 0.4058353
000030 af c6 18 bf 99 05 8e 3d fe 04 73 3d 39 a0 84 3d
       -0.5967817 0.069346614 0.059330933 0.064758725
000040 c7 d7 6e be b0 1a 88 be 1a f8 0c 3c b7 d1 89 3e
       -0.233245 -0.2658286 0.008604074 0.26917812
000050 ce 70 d4 3e 8c c6 af be 1f ff 2f bd 29 26 f9 bd
       0.41492313 -0.34331167 -0.04296791 -0.121654816
000060 8a 71 90 3e d4 dc e8 3e d1 ad ff 3e a7 b4 dc be
       0.28211623 0.45480978 0.499373 -0.43106577
000070 bf 7c 01 be 72 8d ab bd 71 67 8c 3e 31 6e 79 be
       -0.12645243 -0.08376588 0.2742267 -0.24358441
000080 62 04 d3 3e 42 b9 83 3e 90 f1 0a bd 59 32 21 be
       0.4121428 0.25727278 -0.03392178 -0.15741862
000090 c3 7e 75 be 62 e6 bf be 07 47 45 be 46 4d 60 3e
       -0.23974137 -0.37480456 -0.19265376 0.21904477
0000a0 2f 07 1b 3e 2d b7 aa bc bf 83 ac 3d 8e fa e3 3e
       0.15139459 -0.020839298 0.08423566 0.44527096
0000b0 4c 65 65 bf 76 ae 18 bc 90 db 51 3f 42 1d b1 be
       -0.8960769 -0.0093189385 0.8197565 -0.34592634
0000c0 1b 3b ca 3d 31 08 78 bf 0f ea 8d 3e c8 4c 41 bd
       0.09874555 -0.968875 0.27717635 -0.047192365
0000d0 1c 6e fe bc 1a 4f a9 bd b9 0e ce 3e 35 0b 4e 3e
       -0.031058364 -0.082670406 0.40245607 0.20121463
0000e0 95 dc e8 3d f1 b6 f9 be df 28 d6 bd 7e ab 1a 3d
       0.11370198 -0.48772386 -0.10457014 0.037761204
0000f0 19 b2 02 be 2d cf af 3e 2b 54 ff bb dd 7c 92 3d
       -0.12763251 0.3433775 -0.007792016 0.07152722
000100 86 37 25 be e2 b6 6a be a3 36 67 be f5 d8 d1 be
       -0.16134462 -0.22921327 -0.22579436 -0.40985838
000110 82 4e df 3d 34 f5 cb be 27 86 f2 bb a9 56 f9 bd
       0.10903646 -0.39835513 -0.007401246 -0.12174732
000120 5e 45 05 bd 3b 28 e9 be 2f a9 9d be 19 0f a7 3e
       -0.032536857 -0.45538506 -0.3079314 0.32628706
000130 a8 cf 26 3f f4 48 1d 3e 8a 41 5b be 5f 98 5d be
       0.6516061 0.1535986 -0.2141172 -0.21640156
000140 17 da 09 bf 24 1f 41 be 82 6d 90 be 4a e1 ec 3e
       -0.53848404 -0.18859535 -0.28208548 0.46265632
000150 95 55 10 3e a4 f1 9f be 44 54 70 3e d1 03 63 be
       0.14095147 -0.31239045 0.23469645 -0.22169425
000160 bd 9d 40 be 4a cf 8d 3c cb a4 a0 be fd 39 c5 3d
       -0.18810172 0.017310757 -0.31375727 0.09630201
000170 17 fd 9a bd a8 2b 05 3d 03 87 6f 3d 67 72 ff be
       -0.07567804 0.032512337 0.058478367 -0.4989197
000180 20 85 1a 3e b9 45 b6 bd e3 ab 61 bc 7d 62 83 3e
       0.15089846 -0.08900017 -0.013773891 0.25661078
000190 0f 98 97 3d 32 be 7c be 6f 4e fa 3c 0d e4 0e bf
       0.0740205 -0.24681929 0.030554978 -0.5581673
0001a0 cb c9 4c 3d ae df 51 3d 3b 5c 22 3d 2f 6b aa 3d
       0.049997132 0.05123871 0.03963874 0.08321225
0001b0 fa 37 0e 3f 04 a5 b1 bd 5d 6f ac bd 41 1d 39 3e
       0.55554163 -0.08674052 -0.08419678 0.18077566
0001c0 7e 55 00 be ce af f8 3d 19 d6 46 bd 50 b7 0a 3f
       -0.12532613 0.12142907 -0.048544023 0.5418596
0001d0 a6 95 31 3d 6c b0 40 be 4d b4 97 bc ad 97 f5 3c
       0.043355606 -0.188173 -0.018518591 0.029979551
0001e0 c1 46 9d be 58 66 71 3c 51 87 d2 bd 39 4e 41 bf
       -0.30718043 0.014733873 -0.10279716 -0.75509983
0001f0 24 a7 88 be c5 56 8d bb ff 1a 5b bf 8a 0e 67 be
       -0.26690018 -0.0043133222 -0.8558807 -0.2256414
000200 9b 0f d5 3e 79 cb 11 3f 02 9e e4 3e 4b bc 31 bc
       0.4161347 0.569511 0.446518 -0.010848115
000210 07 87 e1 3e 71 21 e2 3d 7d 04 fe be 8d 70 ca 3e
       0.4404833 0.11041535 -0.496128 0.39538994
000220 1a dc d0 bc 82 c2 f3 3e 5b f5 e7 3e ef b3 db be
       -0.025495578 0.47609335 0.4530438 -0.42910716
000230 b5 35 7f be a5 04 c0 be 65 1c 4e bd 1c 14 3c 3e
       -0.24922831 -0.37503543 -0.050320048 0.18367046
000240 0e fe a4 be 37 30 09 3e 6a 47 14 3f 85 68 9e bd
       -0.32225078 0.13397299 0.5792147 -0.07734779
000250 bd cf a3 3e af 0b f6 3d 6c 20 92 bd 39 f5 23 bf
       0.3199443 0.12013947 -0.0713509 -0.64046055
000260 75 c7 da 3d ec ef dc 3d 84 e0 27 3f 11 85 3b bb
       0.10682575 0.10787949 0.6557696 -0.002861325
000270 84 0d 92 3e 41 35 9b 3e da 93 a0 3f cb b7 c9 be
       0.28525937 0.30314067 1.2545121 -0.39398035
000280 c8 e0 90 be 91 99 17 be 7e 88 fd 3e e3 51 61 3e
       -0.28296494 -0.14804675 0.49518198 0.22003894
000290 12 71 06 3d 39 7c b9 3d 9a 03 b4 be b8 db c9 3e
       0.032822676 0.09056897 -0.35158998 0.39425445
0002a0 06 a7 c6 3e 4e 26 7b bc 58 b4 9c be 17 08 e9 3e
       0.38799304 -0.015328957 -0.3060634 0.45513985
0002b0 50 c3 27 3e 8a 99 af be 92 5b 94 3e 4b 33 19 bd
       0.163831 -0.34296829 0.28976113 -0.037402432
0002c0 ba 89 6f 3e 86 ca de 3e fa 36 26 bf 7d 15 6d be
       0.23392382 0.43513888 -0.6492764 -0.23152728
0002d0 1f e2 29 be f3 df 21 3f e7 94 10 3d 02 72 1b 3e
       -0.16590165 0.63232344 0.035298254 0.1518021
0002e0 9e 01 8c 3d 2f 99 95 bd c0 b7 4f be c1 b0 aa be
       0.06836246 -0.07304608 -0.20284939 -0.33337978
0002f0 e9 86 bb bd 30 66 8a ba be 27 84 3e b1 07 f2 3d
       -0.091565914 -0.0010559019 0.2581157 0.11817873
000300 7b e1 26 be bb ab d5 be e8 f8 16 3f 1a 30 17 bf
       -0.16296951 -0.41732582 0.5897355 -0.5905777
000310 d9 bd 07 3f 6e 30 9b bc 6d fd 29 3e 9d c6 2b bf
       0.5302406 -0.018943992 0.1660058 -0.67099935
000320 53 4f e2 be 7e 4e 83 3e 83 6c 08 bf 50 38 17 bf
       -0.44201145 0.25645822 -0.53290576 -0.590703
000330 1c d2 f4 3d 0f b2 35 3e 47 34 d5 3d 6d 80 b2 3e
       0.11954138 0.17743705 0.10410362 0.34863606
000340 51 0e c3 3e 0b a3 1d 3e 13 57 10 3e 36 98 b0 3e
       0.3809686 0.15394227 0.14095716 0.34491128
000350 34 66 07 3f be 4a 54 be 2f 5e e1 be cb 87 f2 3d
       0.52890325 -0.20731637 -0.4401717 0.11842307
000360 60 9b 59 3c df 4f 36 bb c5 06 30 be a9 79 5b 3c
       0.013281673 -0.0027818603 -0.17190082 0.013395705
000370 ba 23 47 bd 87 16 3f 3e 7f c8 8a 3e a6 87 21 bf
       -0.048618056 0.18660937 0.2710609 -0.6309761
000380 cf ea c5 bd 6b d3 2c 3b 51 8f 3b 3e 67 18 33 bf
       -0.09663927 0.0026371132 0.1831639 -0.6995911
000390 9e e0 25 bd b0 d2 de 3c 08 81 36 be 26 10 ac 3e
       -0.040497415 0.027200073 -0.17822659 0.3360607
0003a0 e5 b8 a6 be e7 fa e3 3d 71 2e 2e 3d 69 dc 2c bf
       -0.32562938 0.1113184 0.04252476 -0.6752382
0003b0 d2 10 3e 3e 58 49 03 3e 85 ea ba 3d fb 61 a1 be
       0.18561104 0.12820947 0.09126762 -0.31520066
0003c0 a5 59 4a 3f 54 d4 97 3c e6 03 d3 be 8a 2f e3 bd
       0.79043037 0.018533863 -0.41213912 -0.11093052
0003d0 d6 ab 31 be f7 9d 01 3e 6f 99 04 bf 7e 78 0b 3f
       -0.17350706 0.12657915 -0.5179662 0.5448073
0003e0 12 be 51 3e bf d1 2d be 94 09 a3 be c1 32 32 be
       0.20482662 -0.16974543 -0.31843245 -0.17402174
0003f0 48 e5 e7 be 7c 9c bb 3d 64 1a a6 3e 64 82 99 bd
       -0.45292115 0.091607064 0.3244201 -0.07495573

_orig_mod.rnn.bias_ih_l0 f4 [384]
000000 c4 78 a2 be 03 94 e9 3c b4 8b df 3e dc d9 cf 3e
       -0.31732762 0.02851296 0.43661273 0.405959
000010 e0 19 02 3e d8 48 e7 3e 43 96 6b bb b0 a7 8e bc
       0.12705183 0.45172763 -0.0035947717 -0.017413944
000020 64 9a 2b 3d e6 dd 24 3e e3 0b c5 3e fa a9 4f bb
       0.041895285 0.16100273 0.3848563 -0.0031687007
000030 34 10 0e bf 25 57 56 3d 50 be 6b be 1a 03 01 3f
       -0.55493474 0.0523292 -0.23021817 0.5039536
000040 c1 34 5f 3e 60 8b 8a 3e 6a 40 be 3d a7 86 c0 be
       0.21797468 0.2705946 0.0928963 -0.37602732
000050 55 8a 25 3f a1 a3 3b 3d de 2d 62 bc 84 7d 74 3f
       0.646642 0.045810346 -0.013804881 0.9550402
000060 c2 9b e4 3e 27 bf 45 bd 56 91 c5 3e 19 c3 af 3e
       0.44650084 -0.048278 0.38587445 0.34328535
000070 ab 80 c7 bc 30 7e 28 3f a7 65 c2 3e 8e 47 55 3f
       -0.024353346 0.65817547 0.3796818 0.8331231
000080 be 88 32 3e 5b 94 83 3e ce 84 e1 bd e5 fb 1d 3f
       0.17434976 0.25699124 -0.110116586 0.61712486
000090 3b 35 29 3f 47 e6 82 3d 74 8e 89 be 55 67 5e 3d
       0.6609685 0.06391578 -0.26866496 0.054297764
0000a0 fe 33 11 3d bd 18 02 be 6e 00 e1 bd 53 8c 1d 3e
       0.035449974 -0.1270475 -0.1098641 0.1538556
0000b0 d2 43 10 3f 23 78 4b 3e af ce 10 3f ab 58 3b 3f
       0.56353486 0.19870047 0.56565374 0.7318217
0000c0 5e 85 a0 3e be 5d f9 bd a1 43 9e 3d 07 27 12 3f
       0.3135175 -0.12176083 0.07727743 0.570908
0000d0 c9 9f 97 3c e6 cb 91 3e 79 d4 3c 3e 37 03 50 3e
       0.018508809 0.28475875 0.18440427 0.20313726
0000e0 3b 46 0b 3f 08 ff 1b 3f be e1 99 3e e4 97 5d 3e
       0.5440404 0.6093602 0.3005504 0.21639973
0000f0 bb 08 9e 3e dd 90 83 3e 4b 0a 75 3e 76 b0 da 3d
       0.30866036 0.2569646 0.23929708 0.106781885
000100 d9 80 85 bd f0 44 0f be 7a 9b bd 3e b8 0b 0a 3f
       -0.06518716 -0.13991141 0.37032682 0.5392413
000110 18 0d 25 3e 15 df 82 3e b4 c6 a8 3d 72 51 97 3e
       0.16118276 0.25560823 0.082410246 0.29554325
000120 43 52 86 3e 14 a5 0e 3f 18 8d 91 be f7 0f e4 3d
       0.26234636 0.5572064 -0.28427958 0.111358576
000130 60 3f 3c be 4b e8 83 bd 80 3a 44 bc 44 9a cf 3e
       -0.1838355 -0.06440791 -0.011976838 0.40547383
000140 7a 17 5e 3f 0a c3 45 be bd 9c ea 3d 40 df eb 3e
       0.8675457 -0.19312683 0.11455677 0.46068764
000150 41 a6 9b 3e 7a a5 92 3e 83 6d aa 3e 73 5b 50 3f
       0.3040028 0.28641874 0.33286676 0.8138954
000160 ff 0b 14 bd 65 2d 81 be 76 ea b7 be b5 45 a9 3e
       -0.036144253 -0.25229946 -0.35921067 0.33060995
000170 af 5c ab 3e 1d 81 8d 3e 73 46 1c 3f bb d1 a7 bd
       0.3346915 0.27637568 0.61044997 -0.081943
000180 f1 f8 ad 3e 5b c1 d4 3e d3 49 6f 3e d0 b1 27 be
       0.3397899 0.4155377 0.23368005 -0.16376424
000190 0a 33 43 bd 69 5c 59 bd d7 0a 9e be 1d 9f 63 bd
       -0.047656097 -0.053066645 -0.30867645 -0.055571664
0001a0 22 96 9b 3e 50 d7 69 3e f7 b7 40 3e 1d e2 fb 3e
       0.3038798 0.22836041 0.18820177 0.49195948
0001b0 27 20 9c 3e 06 2b d4 3e 6e c7 37 3e 41 ed 74 be
       0.3049328 0.41439074 0.1794717 -0.2391863
0001c0 21 de 03 3f 91 40 02 be da b8 23 3f 07 3b b9 bc
       0.51510817 -0.12719943 0.63953936 -0.022611154
0001d0 36 46 9f be 66 e8 83 be b0 4f 70 be 81 6a ad bd
       -0.31108254 -0.25763243 -0.23467898 -0.0846758
0001e0 15 b9 a1 3e 15 11 fd 3e 90 20 e9 3e b0 dd af 3e
       0.3158652 0.49427095 0.45532656 0.34348822
0001f0 51 da b5 3d 56 80 06 3f bd 24 89 3e c9 90 fd 3e
       0.08879531 0.52539575 0.26785842 0.49524525
000200 d4 ad 9b bd ff eb 69 be 37 96 2f 3f 0e e7 5b 3f
       -0.076015145 -0.22843932 0.68588585 0.85899436
000210 f5 65 41 3f 66 ff dc 3e 35 b0 8b 3f a2 23 4b 3f
       0.755462 0.43163604 1.0913149 0.79351246
000220 6b dd 88 3f 28 a7 db 3d 05 5c b1 bd 1d d1 04 3f
       1.0692571 0.10725242 -0.086601295 0.5188158
000230 0a 07 13 3f 30 ee 30 3f 9a 5f 09 3e b9 97 c3 3d
       0.57432616 0.69113445 0.13415375 0.09550423
000240 db 4c 8c 3f 0b 8d 04 bf 3b 38 a5 be e8 e7 01 bf
       1.0960954 -0.51777714 -0.32269463 -0.50744486
000250 c5 a9 2d 3f 64 7b f9 3e b1 fd 99 3f 89 7a 4c 3e
       0.6783717 0.48726952 1.2030545 0.19968618
000260 57 8b 53 3f 09 0a 88 3e 3f 85 11 3f c3 df fa 3e
       0.8263449 0.26570156 0.5684394 0.48998842
000270 9e 1f 9d be 94 ac b8 3f b2 ca 11 3f 51 a6 87 be
       -0.30688184 1.4427667 0.56949914 -0.26494077
000280 f9 35 68 3f b5 ac fe 3e 3a 2a 0c 3f 8a ba 87 3f
       0.90707356 0.4974114 0.5475193 1.0603802
000290 68 d9 0d 3f 22 8b 00 3f 7a d2 88 3f df 32 5e 3e
       0.5540986 0.502123 1.0689232 0.21699093
0002a0 4c 14 14 3f f4 58 73 3f a3 72 3b 3e 7e 63 15 be
       0.5784347 0.95057607 0.18305449 -0.14588735
0002b0 be a3 08 3e e9 e4 b4 3f 37 81 cb 3e 88 8e a2 be
       0.13343713 1.4132358 0.3974702 -0.31749368
0002c0 2a a3 3a 3f 17 06 b3 bb 10 f3 87 3f 57 00 6d 3f
       0.7290522 -0.0054633725 1.0621052 0.92578644
0002d0 23 78 44 3f a7 24 27 3f f1 a7 3e 3f b6 74 94 3f
       0.76745814 0.652903 0.7447501 1.1598117
0002e0 e5 89 4b 3f f2 86 31 3e 87 03 40 bd f3 c0 72 3f
       0.79507285 0.17336634 -0.046878364 0.9482567
0002f0 7c c7 88 3f 69 64 3c bf db 36 90 be 91 0a 6f 3f
       1.0685878 -0.73590714 -0.2816685 0.933755
000300 24 e5 2e 3f 8d 56 51 3f fd b5 78 3f e1 ae a5 3f
       0.6831839 0.8177269 0.9715269 1.2943994
000310 6a bc 91 be c1 97 dd 3e 80 3a ac 3e a6 3d fe 3e
       -0.2846406 0.43279842 0.33638382 0.4965641
000320 c9 a4 4a 3f a4 d3 07 3f 60 30 d6 3e 9e 55 87 3f
       0.7915769 0.5305731 0.41833782 1.0573003
000330 2a 78 e6 be 44 aa 44 3f aa e1 e2 3e a9 0a 8f 3f
       -0.45013553 0.76822305 0.44312793 1.1175128
000340 5e f0 e9 be ae 3b 0c 3f 80 92 91 3f 34 27 c4 3e
       -0.45691198 0.54778564 1.1372833 0.3831116
000350 01 31 9f be 3f b2 15 3f 3f 72 78 3f 5b e7 6e be
       -0.31092075 0.58475107 0.97049326 -0.23330443
000360 8d 46 20 3f 94 bf 67 3f 27 b5 8d 3e 18 2c 65 3f
       0.6260765 0.905267 0.2767727 0.89520407
000370 07 46 e4 3d 0b 71 93 bd f7 d3 f7 bc 3e a3 34 3e
       0.11146169 -0.071992956 -0.03025244 0.17640397
000380 e5 a8 87 be 16 6d ef be c5 ee 37 3f 55 52 03 bf
       -0.26496044 -0.46762913 0.7184871 -0.51297504
000390 ec f9 dc 3c 85 fa 55 3e 35 92 02 3e 69 5a 9f 3e
       0.02697464 0.20896347 0.12751086 0.31123665
0003a0 bf 22 f1 3e 6d ac b7 3d 20 24 11 3f 3b f6 95 3f
       0.47096822 0.089684345 0.5669575 1.1715769
0003b0 33 ca 56 3f 0a bf 6b 3d 15 70 b1 3e 72 05 86 3d
       0.8390228 0.057555236 0.34655824 0.06544007
0003c0 e5 f0 30 3d ac 37 63 3f 12 d5 40 bc 99 72 1e bf
       0.043198485 0.88756824 -0.01176955 -0.6189361
0003d0 ce 03 31 bd 42 c4 26 3e 70 82 3b 3f d9 3f 6f 3f
       -0.04321652 0.16285804 0.73245907 0.934568
0003e0 58 9c 9b 3d d3 c1 c8 be 33 98 87 be 6d 5c ae be
       0.075981796 -0.39210376 -0.26483306 -0.3405489
0003f0 9b 78 74 3f 56 ea 44 3f 45 72 80 3f 35 7f 0f 3f
       0.9549653 0.7692007 1.0034872 0.5605348

_orig_mod.rnn.bias_hh_l0 f4 [384]
000000 b5 bc 4b be 52 1c 20 3d b8 f7 03 3f 11 78 e3 3e
       -0.19896205 0.03908951 0.51549864 0.4442754
000010 86 d4 5e 3e 0d ec ae 3e dd cf 94 3d ee 7d ce bd
       0.21760759 0.34164467 0.07266209 -0.10082613
000020 88 b5 16 3d 67 0e 1a 3e a3 e7 b0 3e ad 2b ce bd
       0.036794215 0.15044557 0.34551725 -0.10066924
000030 0d b0 04 bf 67 a2 b5 3d 2e f2 ca be ca 71 dd 3e
       -0.5183113 0.088688664 -0.39637893 0.43250877
000040 ed dc 4b 3e 80 ee 91 3e 8b 56 91 3d cd 4f ac be
       0.19908495 0.28502274 0.07096585 -0.33654633
000050 9e 17 48 3f 69 0e 4a 3d 5d 68 e2 bd 45 91 60 3f
       0.78161037 0.04933015 -0.11055062 0.87721664
000060 15 81 d0 3e 31 c1 e6 bd f7 c5 b4 3e 03 9a 89 3e
       0.40723482 -0.11267317 0.35307285 0.26875314
000070 36 06 9e bd 28 96 36 3f 31 95 ea 3e 9b 84 3c 3f
       -0.077160284 0.7132287 0.4581695 0.7363984
000080 48 34 60 3e 90 64 1b 3e 5f e0 5c 3d 50 96 1b 3f
       0.21894944 0.1517508 0.053924914 0.60776234
000090 d3 51 0e 3f 84 52 7b 3d db 34 c3 be 17 d9 f6 3d
       0.55593604 0.06135799 -0.38126263 0.12053125
0000a0 b6 d9 ee 3b e7 a9 47 be 20 98 2a be 25 42 18 3e
       0.0072891368 -0.19498406 -0.16659594 0.14868982
0000b0 19 8f fd 3e ca 1a 38 3e 78 d6 2b 3f 96 b9 1e 3f
       0.49523237 0.17978969 0.6712413 0.6200193
0000c0 0b 67 e4 3e bb 09 ff bd b6 e5 c1 3c ae 86 22 3f
       0.44609866 -0.12453028 0.023669105 0.63486755
0000d0 7a 42 11 3e 14 af 70 3e 7a 6a a1 3e 87 8d 60 3e
       0.14185515 0.23504287 0.31526548 0.21928988
0000e0 30 6e 1e 3f a5 7f 1f 3f 81 fb 80 3e 7e b9 1d 3e
       0.6188688 0.62304145 0.25191882 0.15402791
0000f0 1f 81 9c 3e 17 c6 8b 3e fd 66 90 3e 98 35 43 3e
       0.30567262 0.27299568 0.28203574 0.19063413
000100 51 eb 8f 3d ff 22 6a be 19 71 61 3e 68 38 1d 3f
       0.07027305 -0.22864912 0.220158 0.61414194
000110 e4 2b e1 3d b8 63 83 3e 43 c2 a5 3c c7 31 89 3e
       0.109946996 0.25662017 0.020234233 0.2679579
000120 c2 52 3f 3e 93 d2 07 3f 18 e9 af be c5 9b 2c 3c
       0.18683913 0.53055686 -0.34357524 0.010535185
000130 43 86 35 be b8 4b cf bd 7c 6c e9 bd 03 a2 de 3e
       -0.17726998 -0.10121864 -0.11397645 0.4348298
000140 10 ee 60 3f 87 49 11 be a3 5a 75 3d 4e 16 f9 3e
       0.87863255 -0.14188205 0.05990089 0.4864983
000150 dd a9 aa 3e 0f 79 92 3e c8 8c bb 3e 56 c3 50 3f
       0.3333272 0.28607985 0.36630845 0.8154806
000160 cc 39 d8 bd a9 ff 74 be fc 35 b7 be 8f 20 bc 3e
       -0.10557899 -0.23925652 -0.35783374 0.3674359
000170 4e 3f af 3e 81 b1 5e 3e b0 6e 31 3f 7f c0 8d bd
       0.34227985 0.217474 0.6930952 -0.06921481
000180 bc b0 8b 3e a1 ee a5 3e 39 9b d2 3d eb f0 ba bc
       0.27283275 0.32408622 0.102835126 -0.022819957
000190 dd 33 24 bb d5 34 87 bd e3 73 a1 be 37 09 e9 bd
       -0.0025055327 -0.06601874 -0.31533727 -0.11378711
0001a0 cc 53 af 3e 73 24 a2 3e f2 79 73 3e 3b ad cb 3e
       0.3424362 0.31668434 0.23776987 0.39780602
0001b0 29 4c c7 3e 00 99 c9 3e 04 4d 81 3e 17 09 46 be
       0.38925293 0.39374542 0.2525407 -0.19339405
0001c0 0c 54 fc 3e e1 92 fc bc 34 46 48 3f 6e 67 42 bd
       0.49282873 -0.030831756 0.7823212 -0.04746192
0001d0 bb 52 a6 be 48 3c 62 be a2 d6 27 be 9a a0 f4 bc
       -0.32484993 -0.22093308 -0.1639047 -0.029861737
0001e0 7e a6 c8 3e d8 8e 23 3f 1e 07 e4 3e 8e 5f de 3e
       0.39189523 0.6388984 0.4453668 0.43432277
0001f0 c7 75 b8 bc a9 99 ee 3e 3e 73 99 3e b4 d8 c7 3e
       -0.022517098 0.46601608 0.29970735 0.3903252
000200 eb e9 2d be 8c b7 66 be 03 6d 35 3f 10 bc 5a 3f
       -0.16983764 -0.22530955 0.70869464 0.8544321
000210 de b9 3b 3f dd 31 c1 3e 5f d6 7f 3f 2c fc 5c 3f
       0.73330486 0.37733355 0.9993648 0.86322284
000220 1f 71 83 3f c6 87 6f 3d 56 e4 73 bc 97 ba d5 3e
       1.0268897 0.058479093 -0.0148859825 0.4174392
000230 54 9b 38 3f 3f dc 2c 3f ed 0d df 3d 3c 95 32 3e
       0.7211201 0.6752357 0.10891328 0.17439741
000240 f6 07 76 3f f9 81 d3 be 04 b8 6c be f1 e3 fc be
       0.961059 -0.413101 -0.23117071 -0.49392655
000250 98 5c 36 3f 11 7b fa 3e bb 8f 91 3f 47 90 e7 3d
       0.71235037 0.48922017 1.1371988 0.113068156
000260 e2 3d 3e 3f 31 21 bd 3e ac 71 1c 3f 48 8c c5 3e
       0.74313176 0.36939386 0.6111095 0.3858359
000270 11 bb 84 be b2 f1 ad 3f 7b f3 23 3f 86 db 83 be
       -0.2592397 1.3589385 0.64043397 -0.2575342
000280 b3 0c 7d 3f 3d c3 1b 3f 8f c7 06 3f 04 e6 88 3f
       0.988475 0.60844785 0.5264825 1.0695195
000290 4d 26 0b 3f ba 55 1e 3f 89 a8 7c 3f 99 b6 60 3e
       0.5435532 0.6184956 0.98694664 0.21944655
0002a0 77 a7 27 3f 21 19 81 3f 3f 53 30 3e 19 8a c4 bd
       0.65489906 1.0085794 0.17219256 -0.095966525
0002b0 a7 86 b4 3d 9c 1f ac 3f 89 2e af 3e 3d 41 d8 be
       0.088147454 1.3447146 0.3421519 -0.42237273
0002c0 66 d3 4c 3f 03 07 d9 bd df 5e 8e 3f 20 8e 67 3f
       0.8001007 -0.105970405 1.1122702 0.9045124
0002d0 d1 7d 36 3f 85 1c 34 3f 3a 25 4a 3f 16 68 91 3f
       0.7128573 0.7035602 0.78963053 1.135989
0002e0 5a ce 63 3f 9a 37 ea 3d 4a c3 16 3c cf 2e 82 3f
       0.8898674 0.114363864 0.009201834 1.0170535
0002f0 f4 8a 8e 3f 92 e2 54 bf 16 f3 d0 be 45 4b 7a 3f
       1.1136155 -0.8315822 -0.4081046 0.977711
000300 b1 d1 43 3f 4e 70 42 3f fa 3e 80 3f fd 3b 99 3f
       0.7649184 0.75952613 1.0019219 1.1971432
000310 60 60 93 be b6 58 cd 3e e0 17 a3 3e 46 9f f6 3e
       -0.28784466 0.40106744 0.31854153 0.4816839
000320 cf 99 45 3f 6b 03 0c 3f 03 d6 8a 3e 33 3a 65 3f
       0.7718782 0.54692715 0.27116403 0.8954193
000330 ca b8 b9 be 1a fe 5f 3f 8a 1c fb 3e 81 e1 83 3f
       -0.36273795 0.87497103 0.4904521 1.0303193
000340 7d 1c 0f bf e8 45 1b 3f 31 7a 8c 3f b9 b2 d4 3e
       -0.55902845 0.60653543 1.097479 0.41542605
000350 30 4c a0 be 67 32 0f 3f 48 f2 88 3f be 30 8a be
       -0.31308126 0.5593628 1.0698938 -0.26990312
000360 b9 2c 16 3f ec c1 7d 3f 09 05 a0 3e 49 57 7c 3f
       0.5866199 0.99124026 0.31253842 0.98570687
000370 77 b4 4a 3e 0c bd 1c bb 8d dd 9f bd ad 37 0d 3e
       0.19795404 -0.0023916392 -0.07805929 0.1379077
000380 2f 3f 5d be 49 bc ee be 98 a5 63 3f 2a 95 ec be
       -0.21606134 -0.46628025 0.8892455 -0.46207553
000390 71 32 73 bc 77 cb 06 3e 7f c2 ad 3d 4a 02 c8 3e
       -0.014843569 0.13163553 0.08484363 0.39064246
0003a0 0b 36 0c 3f a0 15 cd 3d 1c e8 22 3f 69 44 81 3f
       0.54769963 0.1001389 0.6363542 1.0099002
0003b0 3b a2 70 3f f2 c8 e3 3d 2e e7 c7 3e f2 81 0b 3e
       0.93997544 0.11122312 0.39043564 0.13623789
0003c0 52 f8 73 3d e7 b5 67 3f d0 8c c9 bd 98 fc 2f bf
       0.05956299 0.90511936 -0.09841311 -0.687448
0003d0 23 97 f0 bd e2 b4 88 3e 2d f0 18 3f 49 41 6a 3f
       -0.11747577 0.26700503 0.5974148 0.9150587
0003e0 b9 c0 e7 3d 01 75 b2 be 88 16 7c be d4 42 9c be
       0.11316056 -0.34854892 -0.2461797 -0.30519736
0003f0 5d 50 80 3f ed 36 3d 3f 2f 06 7b 3f 94 11 0d 3f
       1.0024525 0.73911935 0.9805631 0.5510495

_orig_mod.rnn.weight_ih_l1 f4 [384, 128]
000000 75 16 bc 3e cf 40 cc 3d d6 0d 24 bf e9 c7 72 3f
       0.36735883 0.09973299 -0.6408361 0.9483629
000010 b3 f1 a7 be c7 5c bc be cb 5c cb 3e 38 28 84 3e
       -0.3280159 -0.36789533 0.39719233 0.25811934
000020 d7 9d aa 3e 49 51 ec be 50 35 d0 3d cf 62 80 be
       0.33323547 -0.46155766 0.101664186 -0.25075385
000030 9b ed 95 be f0 64 1d 3d 9b 27 df 3e 59 49 06 bf
       -0.2928284 0.03842634 0.43584904 -0.5245567
000040 73 98 89 3d 6d c1 45 3d b4 74 3f 3e 30 a2 66 3c
       0.067185305 0.04828017 0.18696862 0.014076754
000050 f8 c5 f2 be 6a af 93 be 38 7c 94 be 77 3c 15 3e
       -0.47416663 -0.28844768 -0.2900102 0.14573847
000060 a9 95 ae be 9c 72 c2 3e ec b1 8b be 2f 00 76 be
       -0.34098557 0.37978065 -0.2728418 -0.24023508
000070 53 1e b2 be e4 b6 b9 3e 8a 7f 71 be 3b c6 5c bf
       -0.3478876 0.36272347 -0.23583809 -0.86239976
000080 e4 1c 3b 3c 2a b7 c7 3e b6 92 1b bf 71 80 02 3f
       0.011420462 0.3900693 -0.6077074 0.50977236
000090 c2 1d ad bc 25 e2 2b 3e 84 fd 03 3f 9c 62 21 bc
       -0.021132354 0.16785486 0.5155871 -0.00985017
0000a0 e2 82 0b 3e ab 35 c8 3e 72 7c 4d bd 4f d1 fa 3b
       0.13624147 0.39103445 -0.05016751 0.007654346
0000b0 3d 77 75 be 81 7d 02 bf 44 2e d3 be c4 77 b5 bd
       -0.23971267 -0.50972754 -0.41246235 -0.08860734
0000c0 47 33 ea 3e 92 6c 02 3e f2 4e 88 be 87 21 8e 3d
       0.45742247 0.12736729 -0.2662273 0.069399886
0000d0 8d 6c e4 be 6f 6b f6 3e a6 92 ea be 10 d4 c6 be
       -0.44614068 0.4812884 -0.4581501 -0.38833666
0000e0 3a 77 06 3f 4f 7c 31 3d b0 18 f3 3d 7c c2 c0 bc
       0.52525675 0.04333144 0.11869943 -0.023530237
0000f0 d7 40 bf bd 24 67 ae 3e ba 49 17 3f 19 27 00 be
       -0.09338539 0.34063065 0.5909687 -0.12514915
000100 b8 75 19 3d 6c f8 fe be e9 7f 2b 3e 57 bc 4e be
       0.03746578 -0.49798906 0.16748013 -0.20189033
000110 71 3a a0 3c da 3e d2 be fb a2 1a 3f 80 94 32 be
       0.019559117 -0.41063577 0.6040494 -0.17439461
000120 18 6d 99 3e 66 54 58 3d f8 6a c9 3e fc b8 bc be
       0.29966044 0.052814864 0.39339423 -0.36859882
000130 bf 6d 48 3e 80 75 0e 3e 6c 4e 57 bf bd 99 bb 3e
       0.19573115 0.1391201 -0.8410404 0.3664073
000140 d4 24 c3 3e c7 ac c0 be 00 c0 9c bd a0 fc 8e bd
       0.38114035 -0.3763182 -0.076538086 -0.06981778
000150 a1 5d b6 3d a0 55 4c bf be 41 63 3d b1 06 a4 3e
       0.08904577 -0.79818153 0.05548262 0.32036355
000160 33 fa 56 be 51 00 b3 3c e7 0b d8 bc 7c 73 36 bf
       -0.20993881 0.021850737 -0.026372863 -0.71269965
000170 7e cd f8 3e c3 cd d7 be eb 01 22 3c f6 b1 fd 3e
       0.48594278 -0.4214917 0.009888153 0.49549836
000180 13 8a 06 bf 6c 12 00 3f f2 17 a3 be 08 99 e7 be
       -0.52554435 0.5002811 -0.31854206 -0.4523394
000190 eb fb bf 3d a3 e3 0b bf c8 fe dd 3e f1 e2 24 be
       0.093742214 -0.5464422 0.43358445 -0.16102196
0001a0 bc 03 f6 bb b4 ac 82 bf 88 a0 8e 3c 1e b9 54 3e
       -0.0075077694 -1.0208955 0.017410532 0.20773742
0001b0 f5 d1 20 3e 1a cc 45 be 82 0d 2b bd bd 4b 9d 3f
       0.15705092 -0.1931614 -0.04176093 1.2288738
0001c0 a1 4e 0e 3f a8 cc b1 3d ea bf 17 3d 6d f9 00 be
       0.5558873 0.08681613 0.037048258 -0.12595148
0001d0 02 2b 1d 3f 56 05 da bd ab 71 28 bc 27 93 c2 be
       0.6139375 -0.10645549 -0.010281007 -0.38002893
0001e0 0c 5c 5e 3f a9 5d db 3c d0 7f b6 be e5 38 02 3e
       0.868592 0.02677806 -0.35644388 0.12717016
0001f0 c5 d3 be 3e 51 0b 85 be c0 25 d4 be 27 4e 03 bf
       0.37270942 -0.25985196 -0.4143505 -0.51291126
000200 9e 32 bc 3e 53 ab be bd e6 18 0e 3f f9 25 26 be
       0.36757368 -0.09310021 0.5550674 -0.16225423
000210 46 a2 51 3e 9a b4 07 be f3 63 ce be e2 f4 89 bd
       0.20472059 -0.13252488 -0.4031063 -0.06736161
000220 47 27 86 be d0 f1 75 be e9 0e 07 bf 62 02 58 be
       -0.2620184 -0.24018025 -0.52757126 -0.21094659
000230 96 e4 d9 bd be 23 d3 3e c6 d2 8f 3e 3d 7c 48 be
       -0.106393024 0.41238207 0.28090495 -0.19578643
000240 bf fc a4 3e 0b 7e 11 3e 05 51 d2 3e 90 c0 d7 be
       0.3222408 0.14208238 0.41077438 -0.421391
000250 81 2f 32 be 66 41 37 3e 8e d1 d3 bd fe a3 a0 3e
       -0.17400934 0.17896041 -0.10342704 0.31375116
000260 42 35 2d 3e b8 80 cd bd 82 75 9f 3d 22 8e db 3e
       0.16914847 -0.10034317 0.07786085 0.42881876
000270 68 80 1c 3f 16 ef 85 be 80 70 a5 3e 8b e0 8b be
       0.6113343 -0.2615897 0.32312393 -0.2731975
000280 37 03 43 3c c1 8d 5b 3c 61 24 53 3e 8e c5 0b 3f
       0.011902622 0.013400496 0.20619346 0.5459832
000290 7f 54 3e be b0 ae b4 3e 9b 44 78 3d cb e4 dd be
       -0.1858692 0.35289526 0.060612302 -0.43338618
0002a0 af 54 df 3e 27 5d b2 3e 47 d8 1d bf a9 c8 d1 3e
       0.43619296 0.34836695 -0.6165814 0.40973404
0002b0 38 fd 06 3e fe 54 b8 bd 6c 89 9b 3e 16 5a da bd
       0.13182533 -0.09000586 0.30378282 -0.10661714
0002c0 0e b8 3e 3e 4b 12 3d bc 0f 99 59 3e ac b6 46 3e
       0.18624899 -0.011540006 0.21249793 0.19405621
0002d0 8b b1 83 be 28 4b 95 3e b4 0d c2 be a8 81 b3 b9
       -0.25721392 0.29158902 -0.3790108 -0.00034238142
0002e0 e6 73 5e 3e 53 6c 99 3d a6 ba f0 3d 5a 18 2b be
       0.21723899 0.07491364 0.1175435 -0.16708508
0002f0 4b f4 da bd 52 fd c9 3d aa d6 ca be 1c 25 79 bd
       -0.106911264 0.0986277 -0.396169 -0.060826406
000300 76 27 a1 be 07 eb b5 3e cf 71 30 be d3 0a 07 bd
       -0.3147542 0.35530874 -0.17230915 -0.032969307
000310 ee ac aa be 6e 78 30 be a5 55 01 bf 3f 59 6c 3e
       -0.3333506 -0.1723344 -0.5052131 0.2308092
000320 97 41 ca be 25 57 9e bd d1 1d 61 be 36 40 dd 3d
       -0.39503166 -0.07731465 -0.2198403 0.10803263
000330 00 ef 93 bd d6 bc ea 3e 0a 63 5f be ea 59 1f be
       -0.0722332 0.45847195 -0.21815124 -0.15561643
000340 04 c5 84 3e 8f 26 eb 3d c5 a9 a9 3d 55 1f 34 be
       0.2593156 0.11481964 0.08284334 -0.17590077
000350 25 bc 61 3d ff c8 f6 3b 79 f1 d5 be 15 d7 07 3f
       0.05511107 0.007531285 -0.41785792 0.53062564
000360 76 80 d4 3c 79 ec 0b bf 21 3a 0a bf b3 0b 1b 3c
       0.025940161 -0.54657704 -0.5399495 0.0094632385
000370 f5 e5 0f bf d4 c5 15 bf 4a 27 bf bc 2b cb bf be
       -0.5621026 -0.58504987 -0.023334164 -0.37459692
000380 1c c7 0a 3e b7 c4 b7 be 83 d9 ae 3d 24 69 b1 be
       0.13552517 -0.3589227 0.08537581 -0.34650528
000390 29 1b 2f be 3f 94 79 3e 31 f4 76 be e5 89 dd be
       -0.17100205 0.24372958 -0.24116589 -0.43269268
0003a0 91 92 f4 3d b8 59 a5 be 32 94 30 3e 3f 6b b3 3e
       0.11942018 -0.32295012 0.17244032 0.3504276
0003b0 f0 65 84 be 4c 43 91 be e3 94 2a 3e 93 ac f7 bd
       -0.25859022 -0.28371656 0.16658358 -0.12093463
0003c0 53 42 f3 bc ba c5 0d 3d 63 84 11 3e cb bd 30 3e
       -0.029694712 0.034612395 0.14210658 0.172599
0003d0 35 2d 2e 3e 06 7b c3 be f5 b1 04 be 47 67 61 3d
       0.17009433 -0.38179797 -0.1295851 0.055030134
0003e0 8a 51 39 be 17 44 df 3e 1b 70 68 be 11 f0 d4 3e
       -0.18097511 0.43606636 -0.22699015 0.41589406
0003f0 0b 47 b6 3d 5c 23 b1 be 08 72 ef 3d 98 30 72 be
       0.08900269 -0.3459729 0.116916716 -0.2365135

_orig_mod.rnn.weight_hh_l1 f4 [384, 128]
000000 63 c5 d1 bd df af 67 bc f6 6c ce 3e 11 01 06 3e
       -0.10242727 -0.014141052 0.40317506 0.13086344
000010 4e 08 19 be b3 bb 45 be 8d 44 63 be 71 6b 1a bf
       -0.14944574 -0.19309883 -0.22194119 -0.6032019
000020 a8 45 1b 3f 89 a4 17 3d 43 ba 11 3e 2c 39 9f 3d
       0.6065316 0.037022147 0.1423121 0.077745765
000030 00 e8 bc bd 0c 75 2f bf 5d 0b a1 bd d2 19 9c 3e
       -0.09223938 -0.68537974 -0.078634955 0.3048845
000040 59 19 84 3e ba ff a7 3e ff 9c ea be aa af 04 be
       0.2580059 0.3281229 -0.45822904 -0.12957636
000050 a8 08 b4 be 54 ab fa 3b 88 4c 0b 3f a5 2b 12 be
       -0.35162854 0.0076498184 0.5441365 -0.14274462
000060 fe b6 a7 3b c3 4e 24 bd 23 4a 9f 3d 45 a1 ab be
       0.00511825 -0.040114176 0.07777812 -0.33521476
000070 8f 49 4c bf 9a 7e 87 be d7 49 37 3e 9d 19 10 bd
       -0.7979974 -0.26463777 0.17899261 -0.035180677
000080 80 90 b3 3d 10 89 12 bd 69 60 05 be 32 1a ff bc
       0.087677956 -0.035775244 -0.13025059 -0.03114042
000090 06 47 ab bc 4a 12 b6 bb ec 86 1e be c0 e9 b8 3d
       -0.02090789 -0.0055563794 -0.15481156 0.09028959
0000a0 2d 8b 06 be f0 53 9f be f9 50 0b 3e 4d 37 01 3e
       -0.13139029 -0.31118727 0.13605107 0.12618752
0000b0 91 9a e2 be 74 27 9d be 06 6e 18 bf ae 8b c6 be
       -0.4425855 -0.30694163 -0.5954288 -0.38778442
0000c0 7b c0 8f be d4 80 14 3e 6d 94 bf 3e 0e 98 91 be
       -0.28076538 0.14502269 0.37417927 -0.2843632
0000d0 c2 41 ea be 1d e1 b5 be 2b 66 28 be ca 5a 19 3e
       -0.45753294 -0.3552331 -0.16445224 0.1497604
0000e0 f2 ca 9d 3e 8e b7 7f 3d 9a 7f 3c be 5a ca cc be
       0.30818897 0.06243091 -0.18408051 -0.39998132
0000f0 1e cc ac be 63 c9 6a 3c 8a 34 8a be 53 d2 e3 3e
       -0.3374948 0.014330241 -0.2699321 0.44496402
000100 a4 29 76 3e 3b fc 3a be 3e 8a 79 bd 67 81 1f be
       0.24039322 -0.18260281 -0.060922854 -0.15576707
000110 1f d6 fb be 7b 28 b1 bd e5 4f d5 bd 2d f9 87 be
       -0.491868 -0.08650299 -0.10415629 -0.26557294
000120 c9 43 aa 3d f3 8b e9 3d 9a c7 dd bd 78 1e f6 3e
       0.0831371 0.11403646 -0.108290866 0.4807012
000130 18 61 ae 3d 30 06 fa be 6b 1e 00 be 21 0c 2b 3e
       0.08514613 -0.48832846 -0.12511604 0.16703846
000140 b4 a7 cf be 00 97 b2 bd b2 a7 0b be 2c 75 0f 3e
       -0.40557635 -0.08720207 -0.1363819 0.14009541
000150 93 2c bc 3e c0 34 e4 be db 4c 05 bf 38 2b 24 3e
       0.36752757 -0.44571495 -0.520704 0.16032112
000160 08 20 00 3f ba e8 85 bd 22 d9 f6 bc be e2 3e be
       0.50048876 -0.0653853 -0.030132834 -0.18641183
000170 fd f1 02 3f cc 00 43 be ea dc 04 3f 59 9c dd 3e
       0.51150495 -0.19043273 0.5189959 0.43283346
000180 04 dc 0d bf 84 80 8d be 4e 66 c1 3d b1 3e b1 3c
       -0.5541384 -0.27637112 0.09443341 0.021636339
000190 d6 83 ce be f5 33 1e be 9a 0c 6e bd 16 83 8d 3e
       -0.40334958 -0.15449508 -0.058117487 0.27639073
0001a0 11 20 1e be eb 86 98 be 8e de a6 be cd 97 1b bd
       -0.1544192 -0.29790434 -0.3259167 -0.037986565
0001b0 7a ac 14 3f 78 59 ea 3d c3 c9 e9 3a aa 1b 6c 3e
       0.5807568 0.11442846 0.0017836619 0.23057428
0001c0 5f cd 21 bf 1d cb 08 bf 46 2e a1 3d a6 a7 ef be
       -0.63203996 -0.53434926 0.07870154 -0.46807593
0001d0 ae 3c 07 3e 17 da 27 3e 33 fc d4 be 62 f6 51 be
       0.13206741 0.16391788 -0.41598663 -0.20504144
0001e0 1e 0b 3d be 56 01 1d 3c 71 2d 11 be 5a af 35 be
       -0.18461272 0.009582838 -0.14177491 -0.17742673
0001f0 6a cb ac be 49 fd 15 3f b4 fd 86 3e 67 d4 23 3e
       -0.33748943 0.5858961 0.26365435 0.15998994
000200 ba 95 50 be 05 63 13 bf aa cc fa bd d3 57 97 bd
       -0.20369616 -0.57572967 -0.12246068 -0.07389798
000210 57 c5 dc 3e 53 e4 16 be 27 f1 7e bf 7d b4 40 bf
       0.43119308 -0.14735536 -0.9958672 -0.75275403
000220 c4 6d 81 3f 58 2a fe be 72 0b e4 b9 0b 61 4b 3e
       1.0111623 -0.4964168 -0.00043496076 0.19861238
000230 7e 3a e2 be 6d 20 dc 3c ab 56 d1 be 6a 5b 0f be
       -0.4418525 0.02687093 -0.40886435 -0.13999715
000240 ef 6a 0b bf 74 48 93 bf bf 7c 04 3f 4b 8a fd be
       -0.5446004 -1.1506486 0.5175285 -0.49519572
000250 fa 56 f4 3d 00 b5 3e bc b7 e6 f0 be 8f 2d 2e 3f
       0.11930652 -0.011639833 -0.4705102 0.68038267
000260 ac f6 8a be d6 70 33 bd 00 3c 91 be ca 63 2a bf
       -0.2714132 -0.04380878 -0.2836609 -0.66558516
000270 7b 05 e2 bd d6 4d 6b be 63 b4 09 3f a7 f0 50 be
       -0.110362016 -0.22978911 0.53790873 -0.20404302
000280 3f fe f3 be 0b f4 11 3e 7a 04 50 bf c8 57 4e be
       -0.47654912 0.14253251 -0.8125683 -0.20150673
000290 2f fb ab bd 76 06 86 3e 33 fd 4a bf 3e d5 d3 be
       -0.08397519 0.26176804 -0.792926 -0.41373628
0002a0 7f 9a 1b 3f c0 6f fd be 88 02 1d 3e ff a9 3c 3f
       0.6078262 -0.4949932 0.15332997 0.73696893
0002b0 c5 f7 00 3f ee 76 81 3d da 7f 5e 3f e6 85 d2 3b
       0.50378066 0.06321512 0.86913836 0.0064246533
0002c0 5c 7c 41 be ce 3f bc 3e ce 0c 8d be 8f d6 a9 3e
       -0.18895096 0.3676743 -0.27548832 0.33171508
0002d0 4c ad 41 bf 26 4b 57 3d 2e 8d 88 be 58 f1 3c 3e
       -0.75655055 0.0525619 -0.26670212 0.1845144
0002e0 d4 8e 68 3f 08 0f 35 3e 45 c0 f1 be c7 7c 5a 3f
       0.9084294 0.17681515 -0.47217003 0.85346645
0002f0 f9 6f 89 3d 47 af aa 3e c7 5b 06 3d 6e 47 48 3f
       0.0671081 0.3333685 0.03280237 0.78233993
000300 a5 c0 bb 3e 7b 50 b6 3d 79 21 df bd 0d be c8 3e
       0.36670414 0.08902069 -0.10895056 0.39207497
000310 cd d2 e0 be a4 55 dc 3e cf db 2b bd 5e 50 6b bd
       -0.43910828 0.4303409 -0.041957673 -0.05744969
000320 b5 90 dc bc 2c 5c 89 3e ac 01 e8 3e ec 87 ee be
       -0.02692447 0.26828134 0.45313776 -0.46588075
000330 bf ae 17 3e b1 d7 ff be de 48 36 be b3 b5 67 be
       0.14812754 -0.49969247 -0.17801234 -0.22627907
000340 48 53 df bd 12 a9 b9 3d 97 3a 20 3f 63 c6 d5 bd
       -0.109045565 0.09065451 0.625894 -0.1043823
000350 28 bc c4 3e 34 ef 41 bf 72 0d 37 be 17 40 d4 3d
       0.38424802 -0.7575562 -0.17876223 0.10363787
000360 35 a5 db 3e 59 8e a9 be 18 36 23 3d 67 28 1a bf
       0.4289948 -0.33116415 0.03984651 -0.602179
000370 92 49 0f 3e 19 39 ff 3d 07 ca 21 bf 48 40 28 bf
       0.13992909 0.124620624 -0.63198894 -0.65723085
000380 e6 2d 09 bf 41 73 06 3f 7a 85 8b be 4c e5 a4 be
       -0.5358566 0.52519614 -0.27250272 -0.3220619
000390 37 90 04 bf 49 45 02 bf df 98 91 3e 6c ee e0 3e
       -0.51782554 -0.5088697 0.28436944 0.439319
0003a0 f9 18 fc 3d 45 c0 f6 3c 10 7f 4b 3f dd c3 18 3e
       0.12309451 0.030120978 0.79490757 0.14918466
0003b0 82 e2 44 be b9 ae f9 bd df d6 0b 3e 9c b5 97 bb
       -0.19227031 -0.12191529 0.13656186 -0.004629804
0003c0 7d f8 ba be d8 d4 ba 3d d0 3c 59 3e b7 1a 2e bf
       -0.36517707 0.09122628 0.21214604 -0.68009514
0003d0 2c 3c 98 3e 21 5c 32 3f 8c 49 60 3b 0a da 02 3e
       0.29733407 0.6967183 0.0034223525 0.12778488
0003e0 0f a7 87 be fc ec 95 bd bf 3d c7 bd ff c4 5b be
       -0.26494643 -0.07320592 -0.09728574 -0.21461867
0003f0 74 d9 06 bf 88 d8 91 3e 52 61 db 3e 64 b6 89 bd
       -0.5267556 0.28485513 0.42847687 -0.067242414

_orig_mod.rnn.bias_ih_l1 f4 [384]
000000 c5 0a 18 bc c7 b1 80 3c be 73 f9 3c 7d 03 12 bc
       -0.009279911 0.01570977 0.030450698 -0.0089119645
000010 01 e7 27 bd e1 69 53 be 54 e8 d9 3e 0e f6 61 3e
       -0.040991787 -0.20645858 0.42560065 0.22066519
000020 b5 38 86 3d 16 5a a4 3e 6b ed bf 3e 12 d1 10 3e
       0.06553785 0.3209998 0.37485823 0.14142254
000030 10 ca a7 3d 71 02 5b 3e 06 4b 79 3a cb a8 81 be
       0.08192837 0.2138765 0.00095097756 -0.2532409
000040 08 96 bf 3e 98 b9 9f 3e 47 7b 68 3e 93 c4 f3 bd
       0.37419152 0.31196284 0.22703277 -0.11902728
000050 22 19 08 be a8 b9 2d bd 4b 3d 37 3e 01 5c ba bc
       -0.13290837 -0.042413384 0.17894475 -0.022748949
000060 de 82 0b 3d ee 4d 92 3f ab 2b af 3c ca 0f 94 3d
       0.03406035 1.1430032 0.021383127 0.07229574
000070 81 66 d5 3d 8c 36 aa 3e 44 02 c5 3c 23 21 34 3e
       0.10419942 0.3324474 0.024048932 0.17590766
000080 26 a6 82 bd 4d 9f 53 3e 53 ef 11 3f 74 16 88 3e
       -0.063793465 0.20666237 0.57005805 0.2657963
000090 fd 57 9a 3f e0 52 09 be 11 19 9f 3e dd 04 5b bd
       1.2058102 -0.1341052 0.31073812 -0.053471435
0000a0 57 56 9f bd c2 e7 2f 3d 0b 62 e4 3c 28 bd 24 3e
       -0.0778014 0.04294563 0.027878782 0.16087782
0000b0 95 10 f8 3d c6 1a 04 3e 21 1d 01 bd ca 6c 7f 3e
       0.12112538 0.12900838 -0.03152192 0.24943843
0000c0 57 8c 6a bd 0c 20 54 3f c3 12 b7 3e ac 65 14 3e
       -0.057262745 0.828614 0.35756502 0.1449191
0000d0 50 1e 23 3e be 0e 61 3e 28 38 13 3d e9 56 8c 3c
       0.15929532 0.2197828 0.035942227 0.017131286
0000e0 8b 35 25 be 10 7c 57 bd f6 3b 0b 3e e0 00 1b 3e
       -0.16133706 -0.05260855 0.13597092 0.15137053
0000f0 2a a9 39 3e 40 63 d5 3e 19 d9 a8 3e c7 5e a5 3e
       0.18130937 0.41677284 0.32978132 0.32298872
000100 d6 6e 0f 3e 29 88 78 3e 02 9a 4c bd 8c 5a 9a 3e
       0.14007124 0.24270691 -0.04995156 0.30147207
000110 a9 7f 3f 3d cd 81 45 bd 8e 47 0b 3e c3 f8 db 3e
       0.046752606 -0.04821949 0.13601515 0.42963228
000120 83 48 f7 3d 7f e1 f8 3d c3 9d 54 3d 5a 93 3f 3e
       0.120743774 0.12152385 0.051908266 0.18708554
000130 cb cb af 3f e0 1f cb 3d ec f4 3d 3e d8 04 18 3f
       1.3734068 0.09918189 0.18550462 0.5938239
000140 1b 34 51 3e e9 96 ad 3d 10 37 10 3f e6 d4 e9 bd
       0.20430033 0.084760495 0.5633402 -0.1141756
000150 6f cf b2 bd 6d ed e9 3d d0 e6 96 3e 77 1f 1c bd
       -0.08730971 0.114222385 0.2947297 -0.038115945
000160 18 24 5c be a2 ca e2 3e af 82 f6 3e fb 71 f0 3e
       -0.21498144 0.44295222 0.4814658 0.4696196
000170 e5 9b 82 3e 59 b5 3d 3e 0d af 82 bd 7f cd 62 3e
       0.25509563 0.1852621 -0.063810445 0.22148703
000180 c9 33 ab 3e e8 d0 04 3f 7e 1a 66 bd a1 a8 77 bd
       0.33437946 0.51881266 -0.05617761 -0.06046355
000190 12 8c 37 be 26 a5 52 3e 7c 22 2f bd eb 11 4e be
       -0.17924526 0.20570812 -0.042757496 -0.20124023
0001a0 dc de dc 3e e2 49 26 3f 3e c6 3c be 9f b5 91 3e
       0.43138778 0.64956486 -0.18434998 0.28458878
0001b0 78 f5 63 3e 86 a4 2a bd aa a7 87 3e 1e fe 8f 3e
       0.22261608 -0.041660808 0.26495105 0.28123564
0001c0 fa 39 17 3e a9 e2 a9 3e 7a d1 81 3e 33 62 62 3f
       0.1476821 0.3318074 0.2535513 0.8843109
0001d0 46 9f 6d 3e 53 dd 19 3c a3 df 2d 3f a5 17 9b 3e
       0.23205289 0.009391147 0.6791937 0.30291477
0001e0 f0 84 55 bd 95 59 9c 3f 23 65 47 3d 2a 97 62 3e
       -0.052128732 1.2214838 0.048680436 0.22127977
0001f0 3a 71 de bd be 34 ab 3e 94 66 de 3e c5 f5 3b 3d
       -0.1086144 0.33438677 0.43437636 0.04588868
000200 94 ac 49 3f 45 b8 80 bb 53 84 ed 3e 72 92 87 3e
       0.7877896 -0.0039282166 0.46390018 0.26478916
000210 ed 5a 42 3e 7a 80 6d 3f d9 93 c1 3e 20 96 cf 3e
       0.18979998 0.92774165 0.3780811 0.40544224
000220 11 4a 59 3f f7 be ef be ee 46 2f bf a5 ac d9 3e
       0.8487864 -0.46825382 -0.68467605 0.4251453
000230 f4 4e 5c bf b0 08 b9 bc af 71 38 3f 91 f2 03 3e
       -0.8605797 -0.02258715 0.7204847 0.128855
000240 67 81 d7 3d ee ca 1c 3f c0 38 37 3f a6 78 31 3f
       0.105227284 0.61247146 0.7157097 0.6932472
000250 1a d0 d0 bd 34 88 35 3e 02 79 84 3e b1 c4 75 3e
       -0.10195942 0.17727739 0.25873572 0.24000813
000260 27 09 62 3e a4 4b 5d bf ac 59 fb 3d a3 37 5c 3f
       0.22073804 -0.86443543 0.12272963 0.86022395
000270 be d7 67 3f 14 37 8a bf 93 50 1c 3f 3c 77 ca be
       0.9056357 -1.0798059 0.61060447 -0.39544094
000280 66 af 61 3f 9b c5 72 3e 58 ef ac 3e 75 b5 84 3d
       0.8815826 0.23708193 0.33776355 0.06479923
000290 34 30 d8 bf 67 b0 84 be 1e a4 06 3f 31 99 48 be
       -1.688971 -0.25915834 0.5259417 -0.19589688
0002a0 e3 a3 24 3f 1c 55 19 3f 10 27 02 3f f0 82 44 3f
       0.6431257 0.5989549 0.50840855 0.76762295
0002b0 9a bc 4d 3e fb eb 54 3f 56 b3 8e 3f e0 e2 eb 3e
       0.20091477 0.8317258 1.1148479 0.4607153
0002c0 6b 13 52 3f 95 42 d2 3e eb 35 c6 3e c1 ec 38 3f
       0.8206088 0.41066423 0.3871301 0.7223626
0002d0 06 fc 61 3f 08 8a ab 3e e1 ba ee be 50 7a f7 be
       0.8827518 0.33503747 -0.46626952 -0.48335505
0002e0 b3 1d 8d 3f c8 a1 d4 3e a6 6f 8f be c1 55 4b 3f
       1.1024688 0.4152968 -0.28014868 0.79427725
0002f0 e2 1f 00 3e 94 ee 3d 3d 1e 89 c8 3d 8c af 00 3f
       0.12512162 0.046370104 0.09791778 0.50267863
000300 b5 db 69 3f 28 89 be 3f 60 69 4d 3f 34 74 28 be
       0.9135087 1.4885607 0.80238914 -0.16450578
000310 9d 8a e8 3e 73 e1 10 3e c7 16 0c 3e fd a3 e1 3e
       0.45418254 0.14148502 0.13680564 0.44070426
000320 76 ac 42 3e 2e 0f af bb 54 6b 61 3f 63 24 57 3f
       0.19011101 -0.0053423857 0.88054395 0.84039897
000330 6d 84 98 bf 04 ac 8c 3e 1f 00 f2 3d f1 91 2b be
       -1.1915413 0.27474988 0.11816429 -0.16754891
000340 7f 12 ed 3e c7 f0 89 3e 71 61 39 3e dc 86 be 3e
       0.46303174 0.2694151 0.18103577 0.37212265
000350 2a 48 0a 3f be 30 6c 3d f4 72 58 3f 6b 75 2a bc
       0.54016364 0.05766367 0.84550405 -0.010403971
000360 4b 48 47 be 9a e9 39 3d 5d 1f 6e 3e 23 b4 34 3f
       -0.19461171 0.045388795 0.23254152 0.70587367
000370 8b aa 1b 3f 28 e5 6f 3e 4e 95 22 be 93 63 89 3f
       0.608071 0.2342726 -0.15877268 1.0733513
000380 66 a5 f4 3e 9e 88 58 be 2e 4c 0f 3e cd f4 53 3f
       0.4778244 -0.21145865 0.13993904 0.8279541
000390 b2 70 8c 3f 03 d7 fe bd b0 c8 54 bf 4f 1c 72 3f
       1.0971892 -0.12443354 -0.83118725 0.94574445
0003a0 78 64 d3 3e 86 80 0c be 03 f5 37 3f d5 c2 d3 3e
       0.4128759 -0.13720903 0.71858233 0.41359583
0003b0 29 e6 de bc be 16 84 3f 7e 06 01 3f 15 38 9a 3e
       -0.027209358 1.031944 0.5040053 0.30120912
0003c0 40 2a db 3e a7 f5 a3 bd 6c 76 56 3f 78 7b 28 3c
       0.42805672 -0.08005839 0.8377445 0.0102833435
0003d0 fa fd 18 3f a2 5b 71 3f 1a a7 d1 be de 2e a4 3e
       0.5976254 0.94280446 -0.409478 0.32067007
0003e0 e4 0d d3 be 3b ec dc be f2 19 f7 3e e0 e5 6b 3f
       -0.41221535 -0.4314898 0.48261982 0.92147636
0003f0 36 10 ca 3e 9b 05 a0 3d 03 18 05 bf 05 50 6d 3f
       0.39465493 0.07813569 -0.51989764 0.92700225
