4.2_Analysis/Train_Models/model_3/GRU_LiftedStructureLoss_final.pth (torch, 807662 bytes, 10 tensors)

_orig_mod.rnn.weight_ih_l0 f4 [384, 93]
00000000: f37c 703e 5ca5 303d 6c68 d53d c375 493d
00000010: f65b 03be a668 253f 96b5 d73e d3e0 24be
00000020: ce02 32be 92a9 1f3f 91eb 853d 2079 19be
00000030: a9f6 833e 0f66 653e 21d2 463d 9c36 c83d
00000040: 5878 483f 2c6e 463e d537 573e d40e 3b3e
00000050: 3c7f 38be 98ce ed3d 9cbd 37be 87e7 b5be
00000060: 8976 bebc f61c e23d 6e7a c93e 90c7 8dbe
00000070: 291c 4e3f 7bfb 023f 7e06 82bc 411b c6be
00000080: ca3a cebe 31dc 6d3e da49 10bf 3872 2fbf
00000090: 4c3a 863d 8823 15be a94c 8a3e 6a7b 5e3d
000000a0: cd77 21bf 0078 67bf 58dd 0f3e 1ed0 b33e
000000b0: db2a 383e 3690 4cbf f8fa 7e3f 71ca b43e
000000c0: e4ea 863d 5552 193f 5bb9 9b3f 2bb2 babe
000000d0: 0051 c53e 95f7 56be 84a9 4c3f e1fc a23e
000000e0: 3851 743b e5ca 233f 7159 973e e7c7 2e3e
000000f0: c0cc 0e3f e1f8 af3d c81e 243f ad3f 013f
00000100: b9b8 103f fbc4 3fbe ed97 d9bd 68a6 853f
00000110: 0717 453f 2e20 933f a892 d33c f675 8a3f
00000120: 6577 693f 1f02 203f 1bc7 283e 6a31 44bd
00000130: 2523 1f3f 9c2b 9c3e 63ed 89bd d18d 38be
00000140: 5a6b fb3e 8e5d 203e 477e 6c3f 4153 b1bd
00000150: ea80 09bf 9510 8b3e f431 db3e c899 a13d
00000160: e7dd 94bd 55d6 403f 56d2 173e ecdc 513f
00000170: 7eec 02bf 905b 513e 7ca6 bcbe 0302 603d
00000180: 97c6 523f bdf9 2c3f deb3 d6be 2ca7 d23c
00000190: d2e9 a8be cdcd 27bd e10e 7bbe c394 09bf
000001a0: 1e63 8bbe a840 0ebe b69e d3be 7813 713f
000001b0: fcf1 ad3c 800f 483f 4d76 853e e7e3 f83c
000001c0: 6118 103d add5 6c3d a8ac 2dbe d124 d4be
000001d0: c3db 923e 7a10 fcbe c990 b03e f2cf 903f
000001e0: ef24 dd3e a393 1a3f af3c d63e 562a 843e
000001f0: 8415 aebe fc63 63bc 6593 833e be4e 81bd
00000200: e34a 5f3d 36ad 593e 668e eb3e 659f 203f
00000210: bc76 af3e 93ef 123f 8c3e 793e 93d3 45bd
00000220: 4049 d13e f24e 72be c709 dcbd 6184 d03f
00000230: bc4e 6b3e 240c 263e 414f 49bd dc2f 0b3d
00000240: f67c 86be 417c 613f f4b2 33bf 7e66 1d3d
00000250: a53d 983e 5b75 a13f 5faa da3f d6a8 1b3f
00000260: 4f18 143f 115f 303f 8da3 ad3c a94f 993e
00000270: a3c9 c3bd aa91 193f 9a33 23bf 4115 9d3e
00000280: 85a5 84be 2dfa de3d 000d 223d bde8 cd3e
00000290: bff3 89bd 2bf9 303e cfc9 69be 9dbd d3be
000002a0: 7999 45bc e2df 47bf e5d4 263f faf8 cc3e
000002b0: 13e2 0cbe cc10 70be 9535 03be 44e1 a5be
000002c0: 6969 983e b232 323c d7b7 a93e 28ee 153e
000002d0: e0c5 133f 145b 803d 5a49 273f ddd0 4bbf
000002e0: a630 8e3e 9ae9 83bd 0b19 f23e 6141 0cbe
000002f0: 810d 133e 8835 59bf 6b16 1abe 8ac0 763f
00000300: 58e0 b93e c206 ac3e ed6a 253f edfb f43e
00000310: 652f 1cbe 12e4 333d 8f52 c3bc 04f0 e33d
00000320: 1b1b f8bd 170a 3d3f 5d8a 733f 4891 133f
00000330: 7008 1d3f ac6f 0c3e 87f6 78be e494 953e
00000340: c830 193f 0d3a c33e 1c61 04be 3a1f 22bf
00000350: 6c85 ff3d 9346 483f fcd3 d43e 4869 8f3e
00000360: a6b3 cabe 6862 04bf e6ad 33bd 4ed6 ab3d
00000370: 5ab2 7a3f e7cc 553e 692d 8ebe 8287 c83e
00000380: e749 6d3f 10fa 923e 9afe 583e 540c cebe
00000390: 3f91 b1be b624 73bd 06ef 453e 72b7 99be
000003a0: 293b 753f 2e36 113f d1e9 083f 9983 5b3f
000003b0: 7a11 913e 45f1 653e 12a7 e4be af70 883d
000003c0: 4007 c4be e3e4 b8be ecf7 8ebe 7873 6fbe
000003d0: 8efc fe3d 0e32 273f b779 1b3f 5b30 703e
000003e0: 2a38 dabe 87c9 d9be b63d a03d 852f 433d
000003f0: fcab 2d3e ae6f 9cbe d410 a43e a56a c4be
0.23485164 0.04312645 0.104203075 0.049184572 -0.12828049 0.64612806 0.42130727 -0.16101389
-0.17383882 0.6236812 0.06539071 -0.14987612 0.25774124 0.22402214 0.04854024 0.09776041
0.7830863 0.19377965 0.21017392 0.18267375 -0.18017286 0.1161167 -0.17943424 -0.35528204
-0.023249881 0.1104068 0.3935122 -0.27691317 0.8051172 0.5116498 -0.015872236 -0.38692668
-0.40279227 0.23228528 -0.5636269 -0.6853366 0.06554088 -0.14564335 0.27011612 0.054316916
-0.63073426 -0.9041748 0.1404928 0.35119718 0.17985098 -0.7990755 0.996017 0.353107
0.065877706 0.59891254 1.2165941 -0.36464056 0.3853836 -0.20992883 0.7994616 0.31833556
0.0037279855 0.6398147 0.29560426 0.17068444 0.55781174 0.08592392 0.6410947 0.50487787
0.56531864 -0.18727486 -0.10624681 1.0441408 0.7698826 1.1494195 0.025826767 1.0817249
0.91197807 0.62503237 0.16482203 -0.047898687 0.62163 0.3050202 -0.06734731 -0.18022849
0.4910534 0.15660688 0.92380184 -0.086584575 -0.5371233 0.2716109 0.4281155 0.078906596
-0.07268887 0.75327045 0.1482633 0.81977725 -0.5114211 0.20445085 -0.36845767 0.05468942
0.82334274 0.6756857 -0.41934103 0.02571448 -0.3299089 -0.04096775 -0.24517395 -0.5374262
-0.27224058 -0.13891852 -0.41332024 0.9417033 0.021233551 0.7814865 0.2606682 0.03038211
0.0351795 0.057820965 -0.16960394 -0.4143434 0.2868329 -0.4923132 0.34485462 1.131346
0.4319224 0.60381526 0.41843173 0.2581355 -0.3400079 -0.013878819 0.2569839 -0.06313847
0.054514777 0.21257481 0.4600708 0.62743217 0.34270275 0.5739681 0.24340266 -0.048297476
0.40876198 -0.23662928 -0.107440524 1.6290399 0.22979254 0.16215569 -0.049147848 0.03398119
-0.26267213 0.8808022 -0.70194936 0.038427822 0.2973453 1.2613939 1.7083243 0.608045
0.5784959 0.6889506 0.021196151 0.29943588 -0.095599435 0.5998789 -0.6375061 0.30680278
-0.2590753 0.10887561 0.03956318 0.40216628 -0.06735944 0.1728255 -0.2283089 -0.413556
-0.0120605165 -0.78075993 0.651686 0.40033704 -0.13758115 -0.23443907 -0.12813409 -0.32398427
0.29767922 0.0108763445 0.3314807 0.1464163 0.5772381 0.06267372 0.653463 -0.79615575
0.2777149 -0.0644104 0.4728473 -0.13696815 0.1436062 -0.8484731 -0.15047614 0.9638754
0.36303973 0.33598906 0.6461628 0.47848454 -0.15252455 0.043918677 -0.023843078 0.11129764
-0.12114545 0.7384352 0.95133 0.57643557 0.61341 0.13714474 -0.24312793 0.29215157
0.5984006 0.38130227 -0.1292767 -0.633289 0.1247662 0.7823269 0.4156798 0.2801001
-0.39590186 -0.51712656 -0.043867014 0.08390485 0.9792839 0.20878945 -0.2776902 0.39165884
0.9269089 0.28706408 0.21190873 -0.4024378 -0.34681126 -0.059361182 0.19329461 -0.3002277
0.95793396 0.56723297 0.53481776 0.8574768 0.28333646 0.22455318 -0.44658715 0.06662118
-0.3828678 -0.36112127 -0.27923524 -0.23383892 0.12450515 0.6531075 0.607326 0.23455946
-0.42620975 -0.42536566 0.078242704 0.04765274 0.16960138 -0.30553955 0.3204409 -0.38362613

_orig_mod.rnn.weight_hh_l0 f4 [384, 128]
00000000: a0e5 0abf df9f d3be 7ad6 68be d494 58be
00000010: e993 a5bf 8f5a 9c3e 7129 c2be a0f5 60bf
00000020: b6dd d63d d658 93be f939 a83e fe29 fcbe
00000030: 2c4f c2be 62fe 29bd cb59 edbe dfcf bbbe
00000040: d5eb 893e 86aa 013f 998f dd3e cbfc 9bbd
00000050: 906a dcbe ff80 7e3e 3baf e5be 469d a5be
00000060: 96cf 103f 1e40 07be 0971 43bf 8df3 c7be
00000070: 71a5 f9be d540 2a3e c03a 7fbf 76a7 83be
00000080: bafd f43d 89ef 18bf 76cb 5fbf f3f3 69be
00000090: cf45 7a3d e040 8a3e 0452 3b3f 4d01 973e
000000a0: 4420 d6be 376f 913e fff5 48be 89bc 8c3e
000000b0: fb8a c23d 7276 b1be 4f15 853e 0546 7fbd
000000c0: d90e d2be efd9 0cbe 492a 913e 6562 cb3e
000000d0: 4eb2 083e 380c b4be c04c 743c 09c9 c1be
000000e0: c9cd 053f 00d5 e93e b322 73be 311b 96be
000000f0: 4b1c 153f c297 2abe 84c2 843f 2d14 fa3e
00000100: 63d4 15be 6ee3 d4bc 3165 fe3d 54ac 1ebd
00000110: 279f 3c3f 4e15 bf3e 011a b83e b429 3dbf
00000120: 83e1 633f 9ffa efbe 5ab8 333f 4edd 00bf
00000130: 11f7 113f 201d 223f 61b0 8b3d 4f3b ec3c
00000140: ffb3 5cbd d9fb 0c3d 1c77 07bf ee4a a03e
00000150: cc8f 8f3f 3c1d 2b3f c688 973e 59ce f13d
00000160: 25e2 d7be ca7e aa3d af50 1abe 95a2 0e3f
00000170: 174a bd3e 9d88 e93e c481 913f f21c a33d
00000180: 24bc 10be db76 3a3f 5f23 303d 92c8 bdbe
00000190: 3c09 3b3e 1fcb 32bc 87b8 e7ba bd69 acbc
000001a0: 30a6 83bd 57af 17bf c3bd 503e fb0f 033e
000001b0: aa02 973d 3161 853f 9c36 e83e 7bfe 633e
000001c0: d6c3 523e 09b8 88bd bed0 813f c943 183e
000001d0: ae6c 40bf 06b0 eabd 995f 2a3f eac4 febe
000001e0: 1325 9ebe e71e 2d3e f647 9dbd fb03 453f
000001f0: 09c0 9fbe 85b6 54be d8a2 e4be bd18 ae3c
00000200: 3c00 143d 99ab 3abe bc41 e2be 0e54 97bd
00000210: 761a 61bf 1f18 e63e d18b 243f 55b8 c43c
00000220: 5641 86be 1cde f9be d534 99be 33e3 8e3e
00000230: 730b 83bf 759d b8be ddfa 803d 9e20 2ebe
00000240: b1d5 643c 7d78 6dbc 87d7 f93e b7f8 abbb
00000250: 6e69 8d3e e0cc 24be 7792 3d3d cbd7 0bbe
00000260: 64cb 243e 1f9a 963f 586d 0ebe 7b9d b63d
00000270: d961 c2be c64f a0bd 95b2 40be 5256 0fbe
00000280: 0e7d c3be 6876 e7be 5bf2 1ebe 94a4 cabe
00000290: 7f55 4d3e 02a0 833e 740e b2bd d52a e93c
000002a0: ed17 7abe e1ff 7bbf cd8a 4f3e 9b3e 0abf
000002b0: 59e3 a33c 74e4 9cbe 402f 243f 2875 7c3f
000002c0: 4571 2d3e dbf7 353e 908a a7be cbd2 61bf
000002d0: fa07 aa3e 7af4 d23e b59c e23e dc7f 213f
000002e0: ed89 783e 0122 053f 488e 37be 4130 a6be
000002f0: bb9a 123f ef90 b4bc f2aa c4be 7495 153f
00000300: 3e29 9d3e e6a2 1e3e 97ce cabe 940a dabe
00000310: 1c05 193e b528 bcbd 40b7 543e 58e9 15bf
00000320: 14eb da3c 654a e1be 2923 98be 1e16 df3e
00000330: 0b10 b03e e860 783f 74b2 cdbd d7fb e2bd
00000340: 6e8b b23e eaec 37be 3088 1ebf 3513 c1be
00000350: 069d 233f 2916 433e 49cb 953e c051 66bd
00000360: feb3 a7be f6d2 8bbe db33 1abf c443 a03d
00000370: 5c6d f1be bd18 2bbe 7f1e 733e 59ca 27be
00000380: abf5 a3be ff57 64bf da34 85bf 5c13 8bbe
00000390: c291 c2bb 6080 d03e 204c 0dbf 3c7d f13e
000003a0: e893 45bf a1f5 66be 7f6f 0ebf 2bdc 4dbd
000003b0: 5bd7 c13e e521 573e 3585 c63e 53a9 56be
000003c0: 35ed 0ebf 7bf8 a63e e532 9dbe 7d99 053f
000003d0: 1679 77be 7628 553d 88db 1e3f c76f 3abe
000003e0: e02e 52bf 5a50 173f 1482 093f f7d9 453e
000003f0: 990e 7b3c fd41 f53e ad4e 70be ae61 fdbe
-0.5425663 -0.4133291 -0.22738066 -0.21150523 -1.2935764 0.3053784 -0.37922242 -0.87874794
0.10491507 -0.28778714 0.3285673 -0.49250787 -0.37951028 -0.041502364 -0.4635757 -0.3668203
0.26937738 0.50650823 0.4327362 -0.07616576 -0.4305005 0.24853896 -0.44860253 -0.32346553
0.5656675 -0.13208053 -0.7634435 -0.39053002 -0.48759034 0.16626294 -0.9969902 -0.257137
0.11962457 -0.597405 -0.8741983 -0.22846965 0.06110173 0.2700262 0.7317202 0.2949318
-0.41821492 0.28405163 -0.1962509 0.2748759 0.09499165 -0.3466068 0.2599282 -0.062322635
-0.41026953 -0.1375501 0.28352574 0.39723507 0.13349268 -0.35165572 0.014910877 -0.3784869
0.5226713 0.4567032 -0.23743705 -0.2931762 0.58246297 -0.16659454 1.0371861 0.48843518
-0.146318 -0.025987353 0.124216445 -0.038738564 0.7368035 0.37320942 0.3595734 -0.7389176
0.8901598 -0.46870896 0.70203173 -0.50337684 0.5701762 0.6332569 0.06820751 0.028836874
-0.053882595 0.03441987 -0.5291612 0.31307167 1.1215758 0.66841483 0.29596537 0.11806936
-0.42164722 0.08324964 -0.15069841 0.5571683 0.3697059 0.4561204 1.1367726 0.07964505
-0.1413427 0.7283761 0.043002483 -0.37067086 0.18265241 -0.010912686 -0.0017678895 -0.021046514
-0.06428182 -0.5925192 0.20384888 0.12799065 0.07373555 1.0420285 0.45354164 0.22265045
0.20582518 -0.06675727 1.0141828 0.14869608 -0.7516583 -0.11459355 0.6655212 -0.49759609
-0.3088766 0.1690632 -0.07679741 0.769592 -0.312012 -0.2077275 -0.4465549 0.02125203
0.036133036 -0.18229522 -0.44190776 -0.07389079 -0.87931 0.44940278 0.6427584 0.024013678
-0.26221722 -0.48802269 -0.2992312 0.27907714 -1.0237869 -0.3605763 0.062978484 -0.1700463
0.013966964 -0.014494059 0.48797247 -0.005248155 0.276195 -0.16093779 0.046282258 -0.13656537
0.16093212 1.1765784 -0.13908899 0.08916756 -0.37965277 -0.078277156 -0.18818124 -0.13997772
-0.38181347 -0.45207524 -0.15522139 -0.39578688 0.20052145 0.25708014 -0.08694163 0.028462807
-0.2442319 -0.98437315 0.20267792 -0.5400178 0.020005869 -0.30643046 0.641346 0.98616266
0.1693774 0.1777033 -0.32722902 -0.8821227 0.3320921 0.41202146 0.44260183 0.6308572
0.24271365 0.5200501 -0.1792537 -0.3245869 0.5726735 -0.022041766 -0.3841167 0.5843117
0.30695528 0.15491828 -0.3961074 -0.42586195 0.14943355 -0.09187452 0.2077303 -0.5855918
0.026723422 -0.4400207 -0.29714325 0.43571562 0.3438724 0.9702287 -0.10043803 -0.11083191
0.34872 -0.1796147 -0.61926556 -0.37709966 0.63911474 0.19051422 0.29256657 -0.056230307
-0.3275451 -0.27309388 -0.60235375 0.07825425 -0.47153747 -0.16708656 0.23742102 -0.16385783
-0.32023367 -0.8919677 -1.0406754 -0.27163208 -0.005937786 0.40722942 -0.5519428 0.4716586
-0.7717881 -0.22554637 -0.5563888 -0.050258797 0.37859616 0.21009023 0.38773504 -0.2096303
-0.558307 0.3261145 -0.30702892 0.5218733 -0.24167284 0.05204054 0.6205373 -0.18206702
-0.82102776 0.5910698 0.5371411 0.19321428 0.015323305 0.47901908 -0.23467512 -0.49488586

_orig_mod.rnn.bias_ih_l0 f4 [384]
00000000: 49ce 31be 327b 2fbe 6cc0 43be 5fb6 413f
00000010: 0ae9 b2bc aaf3 53bc e156 f9bc be03 2c3d
00000020: 6e00 dabe d4f8 95be d799 cfbe 5744 55be
00000030: bcaa b9be 233d da3e e9db 08be 30f7 40bf
00000040: 757c 433e 6960 e9bd 030e 37bd ca41 123f
00000050: 5188 5dbe 4ed0 273c 24d0 363f 1052 153e
00000060: 8ac2 9b3e 7bf4 abbe 2080 9e3e 915b fcbe
00000070: f279 063e 5c81 3d3f 02d5 26be 7679 adbd
00000080: e98f fb3e 4ae5 fe3d eb2d c93e 798e ab3f
00000090: 13a2 d73e 9807 52be d1bf acbe 66ec cbbe
000000a0: 23e9 4f3f e5dc be3e c93c 3ebe 021a 813e
000000b0: b3f9 573f 671a 5b3e 3a8a 9f3c cdb9 703e
000000c0: 2c65 053d b669 fa3e f6d6 fb3e 2586 fabe
000000d0: 81e4 64be 3631 043e a773 003f a618 74be
000000e0: ccc7 4abe 28d2 3ebe b04e 0bbd 5c02 603f
000000f0: a5a4 2cbf a8be 003d 2921 103f 93eb ee3e
00000100: 9ac2 103f 8ab8 083e 258d c33e aa07 423d
00000110: ac80 c63e 0285 83bf 604b 483f f200 7d3c
00000120: bd1a 083e d1b7 04bd 7a62 303e 00b2 0ebf
00000130: 49f3 89be 0597 d4be 9c4d 3cbf 9589 aa3e
00000140: a393 953f 5c20 923e 11a6 0bbf f19e 0a3f
00000150: b73f 223f ef52 2f3f bce1 fa3e 666d 603f
00000160: d0db 83be a4e6 a53e 43d9 3b3f 8a56 38be
00000170: 292f f73d 7648 123e 566e 493f dca0 ad3e
00000180: 7751 e73e d79b 063f 217a 47bc 03ef a63e
00000190: 2e99 4d3e 48f5 a0be bf25 2cbe 7772 65bd
000001a0: 352a ae3e a52a bbbe daa0 0e3f 27ca 023f
000001b0: d00d 30bf 938c 96be f47e 19bd 366d c63e
000001c0: 002c 1cbf a6fa 5c3f 03f8 a83e c283 853b
000001d0: 51a5 4c3f 8288 5b3d 7fab f3bd b472 493e
000001e0: 7341 663e 03d8 3a3d d155 d43d 098b 323e
000001f0: d1f5 bb3e a94b c1be 65e8 c0be b96c 8fbe
00000200: b212 363f 35cf 19bf 6386 4b3f 08da e13d
00000210: b225 2c3f ad90 6b3f beeb 3d3f 81a4 e6bd
00000220: 5bcf 243f 892d 6abe d7c4 e43c f97a 2e3e
00000230: 753c 6fbc afa5 973f 8599 05bd c42a 1d3e
00000240: b3ea 3d3e 52d3 b83e d13e b13e c121 24be
00000250: 3746 913d f10e 96bf 769c 293f bb8f adbf
00000260: f5f6 dd3e cc28 3bbf da66 2f3e c959 683f
00000270: 6e30 2f3f 1e18 b7bc ecad d0be 1e42 74bf
00000280: 2ca5 823d 0188 b33d 9498 0dbf 505f 913c
00000290: 098d b8be 4c76 74bb 5203 273d 9b41 883f
000002a0: 43d9 5e3f 94ff 22bf 917e 71bf fb8e 333f
000002b0: 6f36 633f 8fb8 afbe b8e9 f6be 4cc3 5d3f
000002c0: e094 c7bd f83c e23d f1d5 6abe 5c8b d2bd
000002d0: bd21 dcbc 96a9 723f 3e50 b2be 9052 5e3f
000002e0: cff0 353f d9f5 02bf ce69 0cbf 6c2e 903f
000002f0: a2bb 5c3f 31ec ef3c a3ea 15bd 6e9d 503d
00000300: 6bf6 9dbe 4e0b 5f3d 27bd e43e 39f8 80be
00000310: 0c54 333f 0225 eb3b dca8 45bd 2a54 313f
00000320: b487 fbbd dc06 35be e3bd 303f b31c bd3f
00000330: 13f5 45be 7c46 a0bf 36ca e63e a3db 463f
00000340: cf7b 4c3e 43e6 873f 8863 10be f807 513d
00000350: 3c59 183c 1f71 34bf 5d18 bf3d e492 863f
00000360: 0162 b43f dc03 863f 857a c0bd e9a1 173f
00000370: 7879 4d3f b362 7a3f 7248 df3d ea30 48bf
00000380: 34c8 ef3f 3520 203f 8374 473e 354c 71be
00000390: ab14 5c3f 004a a33e b4f8 933e 3783 eabe
000003a0: e320 2f3f e121 003f 0ee5 0abe 8c80 123f
000003b0: 4e9d a23f 7f2f 313f e1f0 99bd 3f7a adbc
000003c0: b9e7 e33e 3c5c 8fbe 6b39 f63e 98a1 71be
000003d0: 8b67 d83d fafe 803f e48f 4f3f 0f7f 463f
000003e0: 6176 843f b8ba c03f 91be d23f 322a 19bf
000003f0: 62d6 60bf 326c 403f eaa4 303f b4f9 f3bd
-0.17363848 -0.17136839 -0.19116372 0.756689 -0.021839637 -0.012936512 -0.030436935 0.041995756
-0.42578453 -0.29291403 -0.40547058 -0.20826851 -0.36263072 0.4262477 -0.13365139 -0.7537718
0.19090445 -0.11395342 -0.044691097 0.57131636 -0.21634032 0.010242535 0.7141135 0.14582086
0.3042186 -0.3358496 0.30957127 -0.4928861 0.13132456 0.7402551 -0.16292194 -0.084704325
0.49133232 0.12446077 0.39292845 1.3402854 0.4211584 -0.2051071 -0.33740094 -0.39828795
0.81215113 0.37277904 -0.18577875 0.25215155 0.84365386 0.2139679 0.019475091 0.23508377
0.03256719 0.48908776 0.4918744 -0.4893047 -0.22352792 0.12909397 0.5017647 -0.23837528
-0.19802779 -0.18634856 -0.03401059 0.875036 -0.6743873 0.031431824 0.563006 0.46664104
0.5654694 0.13351646 0.38193622 0.04737059 0.38770044 -1.0274966 0.78240013 0.01544212
0.1329145 -0.032401863 0.17225066 -0.55740356 -0.26943424 -0.4152147 -0.7355592 0.33308092
1.168568 0.28540313 -0.5455027 0.54148775 0.6337847 0.6848592 0.49000347 0.8766693
-0.2575364 0.32402527 0.7337839 -0.18001762 0.12069542 0.14285454 0.78683984 0.33911788
0.4517934 0.5258154 -0.012175114 0.32604226 0.20077965 -0.31437135 -0.16811274 -0.056017365
0.34016576 -0.36555973 0.5571419 0.5108971 -0.68771076 -0.29404125 -0.037474588 0.38755196
-0.6100464 0.8631996 0.33001718 0.0040745446 0.7993975 0.05359698 -0.11897945 0.19672662
0.22485904 0.04561616 0.10367931 0.1743585 0.3671098 -0.37753037 -0.37677303 -0.28012636
0.71122277 -0.600818 0.7950193 0.11027914 0.6724502 0.9201763 0.7418784 -0.112618454
0.643789 -0.22868933 0.027925892 0.17039098 -0.014601816 1.1847438 -0.03261711 0.15348345
0.18546562 0.36098725 0.34618238 -0.16028501 0.070934705 -1.172331 0.66254365 -1.3559488
0.43352476 -0.73109126 0.17129079 0.90762 0.6843327 -0.022350367 -0.40757692 -0.95413387
0.0637916 0.08766175 -0.5531094 0.017745644 -0.360451 -0.0037301956 0.04077465 1.0645021
0.87050265 -0.6367123 -0.9433375 0.70140046 0.88754934 -0.34320495 -0.48225188 0.86626124
-0.097451925 0.11046785 -0.22933175 -0.10280487 -0.026871556 0.9479002 -0.34826845 0.8684473
0.7107057 -0.51156384 -0.54848945 1.1264167 0.86223805 0.02928743 -0.03660072 0.050931387
-0.30852064 0.05445414 0.44675562 -0.2518938 0.7005012 0.0071760425 -0.04825674 0.6926905
-0.12281743 -0.17678398 0.69039744 1.4774383 -0.1933177 -1.252151 0.4507615 0.7767889
0.19969104 1.0617145 -0.14100468 0.05103299 0.009298619 -0.7048511 0.09330819 1.0513577
1.4092408 1.0469928 -0.09398369 0.5923143 0.8026347 0.97806853 0.1090249 -0.78199637
1.8732972 0.62549144 0.1947804 -0.23564227 0.85969037 0.31892395 0.28900683 -0.45803234
0.68409556 0.50051695 -0.1356394 0.57227397 1.2704256 0.692131 -0.07516647 -0.021176456
0.44512728 -0.28000057 0.4809068 -0.235968 0.10566624 1.0077813 0.81078935 0.77537626
1.0348626 1.5056982 1.6464406 -0.5983001 -0.8782712 0.7516509 0.6900164 -0.119128615

_orig_mod.rnn.bias_hh_l0 f4 [384]
00000000: 0e7f 2dbe f6c7 0abe 9956 d4bd 2704 413f
00000010: e779 54bd 35b5 8dbc 43b8 8a3c 0894 34bd
00000020: bdac d0be 2791 86be 04a1 e0be 6037 a2be
00000030: 35ca fdbe 8ad5 c93e 99c9 56be e5d6 22bf
00000040: 3b0b ba3d a615 e2ba 9500 b53d d97d 0a3f
00000050: ae26 51be 7471 b43d 91b4 2f3f 3cdc 743d
00000060: 542b 343e 747d b7be 84fa 913e 479b 18bf
00000070: 96b5 7e3e f257 203f 8cdf b6bd 0e0c 093d
00000080: 6b5c da3e 03a5 303e 85e4 d93e 49a4 b83f
00000090: 0d72 043f f78a 48be d2c9 a9be 92dc b8be
000000a0: 2502 453f 4e18 8d3e 80f7 efbd d1fe a23e
000000b0: 2a3a 483f bd72 b63e 37f4 0a3e 9e67 893e
000000c0: d2f1 323e c69a 0a3f baa3 0d3f 763b 00bf
000000d0: c870 0dbe 7eb4 743d 0b55 f93e c884 30be
000000e0: a984 45be 8943 2fbe 8abe 543d 11ca 363f
000000f0: 975a 4bbf 5601 3bbc c05d 1c3f 4f0d 003f
00000100: e050 033f 8030 713e 7159 d23e 0242 a83d
00000110: ba4f b93e 22ba 77bf e8d0 443f 8fbd 0c3e
00000120: 1416 e43d 2dae 53bd 6fa2 f13d 2556 16bf
00000130: b71a 90be 3a65 f9be 63d2 57bf b6ef 8e3e
00000140: 22e4 843f 5a32 343e 996e d9be 3d03 1c3f
00000150: 4270 153f 675c 2e3f 260a d73e 953e 4c3f
00000160: 5e02 6fbe 0dcd 933e 9041 633f 17d8 21be
00000170: 77c6 b23d 4813 293e 8ad9 2d3f a36a ec3e
00000180: e7df e93e bdf6 fa3e 890c b3bd e3f5 a33e
00000190: d58f 893e d2a6 98be 7fbb 10be 9870 9c3c
000001a0: 96a4 c53e bbf4 b7be bf8d 223f d30d 1a3f
000001b0: 5d94 1dbf 8e69 9bbe 243b 78bc 80eb 9a3e
000001c0: 0715 25bf 9ae7 4a3f b84b ce3e abba aabc
000001d0: 9983 593f a854 16bd cb75 58be 4c0a 1b3e
000001e0: 55c6 443e cbf4 15bd aec2 973d e759 463e
000001f0: 7bbc cc3e a012 d6be 3951 bbbe 20ac 6bbe
00000200: 5c79 253f 10b6 efbe c5c7 5d3f 6523 1ebc
00000210: 2d55 083f 8fd1 773f eb82 243f 3361 d1bd
00000220: 18ed 0e3f 460b a7be b5d9 813d 922a cf3d
00000230: cc67 d1bd 338d a23f a596 bebd b7d6 4f3e
00000240: e955 9e3e dfe4 ba3e 85d3 e93e c7b4 b1bd
00000250: ff5d cbba 14b6 8ebf b31e 2b3f 0382 b7bf
00000260: 39f8 f03e 980a 38bf 650f fa3d 054e 7c3f
00000270: 6a29 4b3f 8bd8 863c e413 c7be eb09 80bf
00000280: c988 ec3d c74e b03d c052 1fbf b41e d83c
00000290: 488f b1be df6e 03be 6d78 a63c 8091 7e3f
000002a0: d71a 643f 176c 0cbf 9dd3 80bf 9e6d 233f
000002b0: d171 503f d07c cebe 1e25 ebbe 2ee9 823f
000002c0: 61d0 2b3b 7486 203e e801 62be e3c0 2dbe
000002d0: b7e9 c0bd 0e79 733f a7a2 b1be 1056 683f
000002e0: 2f9c 3f3f 751c 17bf df16 0ebf 6264 973f
000002f0: a31c 4f3f 1708 893d 833b febd af64 293d
00000300: ef30 cabe 71c1 73bd a15d 003f 6e41 a3be
00000310: a9b0 3f3f 32a5 133d bd4b bb3c 6715 253f
00000320: 6f16 fcbd 4317 4fbe 42a4 323f 30af ca3f
00000330: a486 2bbe bb35 93bf 5059 af3e aef7 5b3f
00000340: d91f 8d3e 0510 813f 36e8 1abe 3be2 823d
00000350: 3e68 003d 9357 2fbf 9a7d 763c 5fcb 903f
00000360: c227 c53f 6e0b 873f 6dc3 23be 81ce 163f
00000370: 3c32 583f 463a 823f 3ffb bc3c aece 60bf
00000380: c5cb f03f 697d 453f 8926 4a3e 7766 6cbe
00000390: ea8e 693f 7326 be3e 291f 8f3e 6d53 ecbe
000003a0: b549 2d3f 522a ae3e 0e9e 2cbe 2149 f53e
000003b0: 0157 ad3f 0a8a 513f 186c 46be f9dc 06bd
000003c0: a555 de3e e857 24be 6941 073f fa10 80be
000003d0: cfb1 dc3d 0130 903f a243 3e3f c54d 683f
000003e0: c0bc 8c3f d9d5 b03f 09a6 d93f 8dab 35bf
000003f0: 5065 6dbf 6a46 5a3f f507 203f dce5 12be
-0.16942999 -0.13552842 -0.1036808 0.7539696 -0.051874068 -0.01729832 0.016933566 -0.044086486
-0.4075679 -0.26282617 -0.43872845 -0.31682873 -0.49568334 0.3942073 -0.20975341 -0.63609153
0.09084173 -0.0017248883 0.08838002 0.5409828 -0.20424911 0.08810702 0.686349 0.059780344
0.17594653 -0.358379 0.2851144 -0.59611934 0.24873957 0.62634194 -0.08929357 0.033458762
0.42648634 0.17250447 0.4255716 1.4425136 0.5173653 -0.19584261 -0.3316179 -0.36105782
0.769564 0.27557606 -0.11717129 0.31835034 0.7821375 0.35634413 0.13569723 0.26836866
0.1747506 0.54142416 0.5532795 -0.5009073 -0.13812554 0.059742443 0.48697695 -0.17238152
-0.19288887 -0.17115606 0.051939525 0.7140208 -0.79435104 -0.011413893 0.6108055 0.5002031
0.5129528 0.23553658 0.41083863 0.08215715 0.3619364 -0.9676839 0.76881266 0.13744186
0.111370236 -0.05167978 0.1179856 -0.58725196 -0.28145382 -0.48710042 -0.843054 0.2791726
1.0382121 0.17597333 -0.42467192 0.6094244 0.58374417 0.68109745 0.4199993 0.7978299
-0.23340747 0.2886738 0.88771915 -0.15805088 0.087292604 0.16511261 0.67910063 0.46175107
0.45678636 0.4901637 -0.08742625 0.32023534 0.26867548 -0.29814774 -0.14134024 0.019096658
0.38602132 -0.35928902 0.6349754 0.60177344 -0.6155451 -0.3035397 -0.015150819 0.30257797
-0.6448521 0.79259646 0.40292144 -0.020840963 0.8496643 -0.03670183 -0.21138684 0.15140647
0.19216283 -0.036610406 0.07410179 0.19370233 0.3998755 -0.41811085 -0.36585405 -0.23014879
0.64638305 -0.4681859 0.8663295 -0.009651993 0.5325497 0.96804136 0.64262265 -0.102236174
0.55830526 -0.32625788 0.063403524 0.101155415 -0.10224876 1.269934 -0.09306077 0.20296751
0.3092492 0.3650274 0.4566919 -0.08677059 -0.0015515684 -1.1149316 0.6684372 -1.4336551
0.4706438 -0.71891165 0.122099675 0.9855655 0.7936007 0.016460678 -0.38882363 -1.0003027
0.11549527 0.086087756 -0.6223564 0.026381828 -0.34679627 -0.12835263 0.020321095 0.99440765
0.89103454 -0.5485243 -1.0064579 0.6383914 0.8142367 -0.403296 -0.45926756 1.0227411
0.0026216733 0.1567629 -0.2207104 -0.16968112 -0.094195776 0.9510659 -0.34694406 0.9075632
0.7484769 -0.59027797 -0.5550365 1.1827509 0.8090307 0.06690996 -0.12413695 0.041355785
-0.39490458 -0.059510652 0.50142866 -0.31885856 0.74878937 0.036046214 0.022863263 0.6448578
-0.12308966 -0.20223717 0.6978189 1.5834713 -0.1675058 -1.1500772 0.34247828 0.85924804
0.2756336 1.0083014 -0.15127644 0.06390806 0.031349413 -0.68493 0.015044594 1.1312064
1.5402758 1.0550363 -0.15992518 0.5890885 0.8445165 1.0174034 0.023069022 -0.8781537
1.8812186 0.77144486 0.19741262 -0.23085962 0.91233695 0.3713871 0.2795346 -0.461574
0.67690593 0.34016663 -0.16857168 0.47907355 1.3542176 0.81851256 -0.19377172 -0.03292558
0.43424717 -0.16049159 0.5283418 -0.25012952 0.10776102 1.126465 0.7432195 0.90743667
1.0995102 1.3815261 1.7003795 -0.7096489 -0.92732716 0.85263693 0.6251214 -0.14345497

_orig_mod.rnn.weight_ih_l1 f4 [384, 128]
00000000: f994 5e3e 7674 e5be c380 c3be 94c7 083f
00000010: dac3 433e 083c c83e 1710 02be dcca 31be
00000020: 835e 593e b135 a8be b9c0 5f3f b1e1 9c3e
00000030: 0f61 683d 686c ee3d 0ed7 aabe 59c8 92be
00000040: 54fa 363f 865a 8cbe adfb 6abe 0366 0a3e
00000050: 3358 aabe c3b9 c13d 338b da3e 6d1a 043d
00000060: 8693 103f b76e 0b3f 6f54 2fbf 31fe bdbe
00000070: 8118 6abf 0cd4 05be db3c 133b bd9d 17bf
00000080: 3d25 01bf 16f8 9c3e dd57 09bf 3734 8d3e
00000090: 17aa 28be e923 443e 915e 7c3c 734d 233d
000000a0: d327 7d3d 96fb 30be 61f7 a0bd a54e 373e
000000b0: 34a5 b3be 8911 8bbe 15c8 3abf 1be5 f9be
000000c0: 4040 6ebe 7ef1 433f a828 78be e19f 003e
000000d0: 69a4 8bbe 6112 013d afdb 5c3d 779c d2be
000000e0: 065e 4f3e 7195 d63d 601e 843e 4969 613e
000000f0: 32bf 78be 1d13 0c3e 6ba6 31bf 0776 9cbe
00000100: ead9 d6be c5b1 ecbe 4fe8 153e 2df6 5f3f
00000110: 0a2f d6bd d379 413f ae9f 11bf d3f9 323f
00000120: 929f 29be c140 10be 3075 cfbd 0be2 0b3e
00000130: 0ff2 3d3f f333 013f ec34 e53e 91f1 4c3a
00000140: 0c12 a7be 0b72 1ebf 3fd5 6a3e dc9c 983d
00000150: a6f7 80bc a3c6 89be 3a9d 85be 0155 d73e
00000160: 689c 1b3f 1d1b 44bd 0bf2 18bf a200 a5be
00000170: 8ca0 99be ee07 60be dfaf 443f e2ae 773e
00000180: e23a 893e 7433 6d3d 056b 8cbd bbd6 04bf
00000190: 64a8 a1be 8b07 98be c495 9cbe 5f85 3e3e
000001a0: 3c33 babe 7e9c e63e ed05 593e e03d c43e
000001b0: d0e7 443e 92f2 c1bc 1df6 0e3f 1aa6 6abd
000001c0: fc52 5fbe b8cf 27bf 9643 513e e045 113f
000001d0: 078d 413e 2c40 993d a0eb a1be 1e2e 833e
000001e0: c389 f1bd d9c5 c93d d307 14bf 7fd5 2a3e
000001f0: 50d5 223e d347 dd3e f981 68bf de53 dbbd
00000200: a9b9 c2be a5bb 9dbf f1f3 933f b834 2ebe
00000210: 2fa8 b93e dcb0 26be f0f8 93be 0363 883d
00000220: 88f3 8abd c9cf 74bf a1bf e83e 4340 98bf
00000230: 168c ecbd 7907 803e 5af5 1bbd 258c b1be
00000240: dbc6 b4bc f0bb ac3d b924 39bf 2455 103f
00000250: 7a54 11bf ca63 3dbe b56b 343f d195 a53e
00000260: caed 16bf a7c6 b93e ccf3 a23e 6b84 a13e
00000270: 22dc 7dbf 7706 dc3e ac01 1ebf 9023 e3be
00000280: 9238 1c3e 9e2e 0bbf 40b1 7c3f 76b5 22bf
00000290: 8bfe 493d a7b8 fa3e aa52 92bd 39d0 083f
000002a0: a783 5f3d 4f31 933d 5b05 913e 16bb 79be
000002b0: 8a2d 00bf 88f4 7cbe cb3f aabd 1942 cb3e
000002c0: 6a1e a33e d04b ccbe 968c 19bf 4571 b63d
000002d0: 0564 e93e 3651 30be 1b9d eabe 2822 02bf
000002e0: 76e4 a93e 439d 0fbf 6f1d 723f 6526 9f3e
000002f0: 0bfb fbbe 9272 ae3e fbfd 35bd b7a0 213d
00000300: 95c1 82be a69d 8fbf 82a8 3fbf 7173 52be
00000310: c20a 083f e7c5 33bf 6cf3 62be 2448 12bf
00000320: 15a7 123f f16a 74be 8c30 bf3e 99fc 7ebe
00000330: 5714 c2bd fc70 14bf dcac 4a3e e765 85bf
00000340: 798a 073d 7198 b6be 0ba0 d53e d712 90be
00000350: 56e7 b53e 0dbe 1dbf 4d15 00bf 4870 3b3f
00000360: b38e edbd 46dc 03be a2b1 bf3e 377c 963e
00000370: 54b6 473f c130 d03c 9685 a1bd 37a5 2bbd
00000380: f549 d63e dd56 6bbf a817 103e bd17 cb3e
00000390: 3b6a 1a3f 3dea 123f 8d69 88be 862b 3d3f
000003a0: fee9 b7be 2d9b 053f b60b 363f dcf0 6cbe
000003b0: 77e5 64be df8f d7be 734b 553e caa3 113e
000003c0: 2f8c c6be faa2 13bf b7fa a9be 994d c0be
000003d0: 6165 a0bd d81f 083d 138d c73e 9ff8 3b3e
000003e0: d221 e0be a817 67be cdc5 16bf 0029 e43e
000003f0: e1d3 143f af5b 21be 3c6c 83bd 0c2b 4fbf
0.21736516 -0.44815415 -0.38184175 0.5342953 0.1911768 0.391083 -0.1270145 -0.17362541
0.2122746 -0.32853463 0.87403446 0.3064094 0.056733187 0.116417706 -0.333672 -0.28668478
0.7147572 -0.27412814 -0.22947569 0.13515477 -0.33270416 0.09459259 0.42684326 0.032251764
0.564751 0.5446581 -0.6848821 -0.37107995 -0.9144364 -0.1306917 0.0022466693 -0.59225065
-0.50447446 0.30658025 -0.53649694 0.275789 -0.16471134 0.19154324 0.015403406 0.039868783
0.061805557 -0.17283472 -0.07859684 0.17901094 -0.35086977 -0.27161816 -0.7296155 -0.48807606
-0.23266697 0.7654036 -0.24234259 0.12560989 -0.27273872 0.031511668 0.053920444 -0.41134998
0.20250711 0.104777224 0.25804424 0.2201282 -0.24291685 0.13679166 -0.6939456 -0.30558798
-0.4196313 -0.46229377 0.146394 0.8748501 -0.10458191 0.75576514 -0.56884277 0.6991245
-0.16564777 -0.14087202 -0.101297736 0.13660447 0.7419748 0.50469893 0.4476694 0.00078179786
-0.32630956 -0.61892766 0.2293291 0.074517936 -0.015743088 -0.2690936 -0.26096517 0.4205704
0.6078553 -0.04787742 -0.5974433 -0.32227045 -0.300053 -0.21878025 0.7683086 0.24187806
0.26802737 0.057910398 -0.0685635 -0.5189015 -0.31573784 -0.29693255 -0.30583012 0.18605565
-0.36367214 0.4504127 0.21193667 0.38328457 0.19229054 -0.023675237 0.5584429 -0.057287313
-0.21809 -0.6555133 0.20435938 0.56747246 0.18901454 0.07482943 -0.3162508 0.25621122
-0.11793854 0.098521896 -0.5782444 0.16683005 0.15901685 0.4321886 -0.9082332 -0.10709356
-0.38032272 -1.232289 1.155882 -0.17012298 0.36261126 -0.16278404 -0.28900862 0.0665951
-0.06784731 -0.95629555 0.454587 -1.1894611 -0.11550157 0.250057 -0.038075782 -0.34677234
-0.022067478 0.08434284 -0.7232166 0.56379914 -0.56769526 -0.18495098 0.7047685 0.32340863
-0.5895659 0.36284372 0.31826627 0.3154634 -0.9916402 0.42973682 -0.617213 -0.4436307
0.15255955 -0.5436801 0.9870796 -0.6355814 0.049315017 0.48969004 -0.07144673 0.5344272
0.054568913 0.07187139 0.28324398 -0.24387774 -0.5006949 -0.24702656 -0.08312949 0.39698866
0.31859142 -0.3990159 -0.5998014 0.08908323 0.4558412 -0.1721848 -0.45822987 -0.5083337
0.33182114 -0.5609934 0.9457616 0.3108398 -0.49214968 0.34071785 -0.044431668 0.03945991
-0.25538316 -1.1219985 -0.748665 -0.2055185 0.53141415 -0.7022385 -0.2216317 -0.5714133
0.57286197 -0.2386892 0.37341726 -0.24901046 -0.09476536 -0.579849 0.19792503 -1.0421723
0.033091042 -0.3566318 0.41723666 -0.28139374 0.35528058 -0.6161812 -0.500325 0.732182
-0.11599483 -0.12876996 0.3744021 0.29391643 0.78012586 0.025413873 -0.078868076 -0.041905608
0.418533 -0.9192942 0.14071524 0.39666548 0.60318345 0.5738867 -0.2664303 0.73894536
-0.3592071 0.52189904 0.7111162 -0.23138756 -0.22353159 -0.42101952 0.20829563 0.14222637
-0.38778827 -0.5767056 -0.33199093 -0.37559202 -0.078318365 0.033233494 0.3897482 0.1835656
-0.43775803 -0.22567618 -0.5889557 0.4456253 0.581358 -0.15757631 -0.064171284 -0.8092506

_orig_mod.rnn.weight_hh_l1 f4 [384, 128]
00000000: 935a ac3c c417 583f d93b 0fbf c1fa 5a3e
00000010: 2d62 9f3e cfe0 2f3f cf47 2b3f fc39 14bf
00000020: a0d9 84be 4a23 2bbe a611 61bf f14f 8fbe
00000030: 8630 20be 7648 333f 7274 3cbf 3171 f03e
00000040: a320 2e3f 592c b33e 96da 1dbf 5e0b 083f
00000050: 91f1 d6be caf7 07bf b65a c1bf d18b ba3f
00000060: f266 48bd 6c39 7f3e ceb4 d63e 0bd3 9a3f
00000070: 6b03 eabd a7e5 a8bd 2caa 053f 028e 05bd
00000080: 0d38 283e 4989 27bf bfeb 1e3e 0c42 843e
00000090: 948a 3cbf b5e8 4fbf d356 71bf 2021 c73d
000000a0: 2dd0 8fbf a704 70bf 8330 803e 8c7c b23e
000000b0: 6a61 20bf 3d2d 36bd d051 61bf b2f7 1d3f
000000c0: c43d 4abe 404b 85be 7f31 003e b6ba 573e
000000d0: 6dc6 85be de80 a93e 2660 9bbe 2147 2cbf
000000e0: baf3 113e cf86 093f 6961 9f3f 2a6f f33d
000000f0: 357d 7b3d abc0 8c3f fbe4 123f b3e3 7a3d
00000100: 04b3 ffbe 0359 82bc 41a2 6e3f b668 f23d
00000110: f900 0abf 5c2d efbd 901d 3d3e d6f0 8cbe
00000120: c5c5 c03f 9299 9f3e 7fc6 5d3e a1fe 083f
00000130: 3a86 dcbe 5299 9bbe 8756 35be cd8a 873e
00000140: 6c86 d63e 9f53 193f 53d7 cd3e 30b7 05bf
00000150: f058 45bd daf9 8c3d 7cac a23e 2049 b4be
00000160: dcb0 4abf 8f3a 4c3f 8d8e fb3e 5c94 3abf
00000170: 2214 6abe c15a 7d3f b8e5 393f 6804 a13e
00000180: e9ef 9f3e 55c8 353f a60e 0d3f 5f49 97be
00000190: 8ddd fe3e ad71 0b3e 9e51 5c3d c3d9 cebe
000001a0: 0ec9 07bf 4b8d 84bf d8f1 33bf 339a 3e3f
000001b0: 3f58 823e b1c7 f03e 2e01 6abe cb5a cf3e
000001c0: 473c f33e 4ab2 49be fd48 8f3d 8fa9 35bf
000001d0: 2f22 4f3f c416 67be beca cebe d0e9 823b
000001e0: e735 22be 1276 b43e 8bfc 9bbe 1ff8 113f
000001f0: 6649 41bf 9ac4 fdbe d63b 183f 1ed6 8b3c
00000200: 92b0 553f 0e68 9bbf 5728 9ebf e8ad d4bd
00000210: ddd4 afbd adea 84bf 294b 2c3e 6bdd 383f
00000220: 3b6a 01bf 1bc8 8cbe b043 70be 6869 d13d
00000230: 0dc0 76bb 79fb 25be e1c6 0bbe a3cb ccbe
00000240: 7ac3 e3be a374 c0bb ad51 8bbe 5623 843e
00000250: a830 e43e e765 f7be de7a debe 5556 81be
00000260: 4e4b 663f cb8b 5c3e e193 15bf 06a9 253f
00000270: 8338 233e bd9e 27be c742 6f3f a87b 8bbf
00000280: d46f 6f3e 2385 573c f7d3 e1be 6196 9f3d
00000290: e4cf a5bf 04f0 523e e967 133d 7ceb 91be
000002a0: 21b3 b4bd 92a5 8d3e ed4d 8dbe 23df 2fbf
000002b0: 527b e3bb 3bc4 d03e fb6f 3a3f af28 6c3e
000002c0: f922 d83e 0a58 aabe c26d 403f a46b 3cbf
000002d0: a633 123f 34d0 14bf 49db 28bf 41eb 2abe
000002e0: aac9 42be ba0c 0f3f ebae 863e 3307 3e3e
000002f0: d8e5 093f b34e b4be 20c3 0a3f c535 29bf
00000300: 9712 b4be 5981 66be e98e 80be debe 99bf
00000310: 21e8 24be e97b c3bd 0ea0 3cbe 3c47 223f
00000320: 9a37 a6bf e928 f23c ff1d 5c3e d20d 0abf
00000330: f12d 06be bff4 7e3e 50a3 e7be ace7 da3e
00000340: d364 c63e d6fd 39bf 36fa 69bd 470d a4be
00000350: d6ca 443f 78ff c2be a84d 193e f38b d93c
00000360: 3598 8ebd 90b7 963e 8b0d 25bf aced 1cbf
00000370: c494 edbe 5117 503e c782 85bd 0187 b33e
00000380: 95e5 45bd fea5 91be 7c4e 96be 7594 60be
00000390: 3fa8 8c3e d5c0 8c3e eac9 683e 480f 6abe
000003a0: ba0a 53bf 1dbf 303f 1ab7 753e 609b 563e
000003b0: 27ef bd3e 5854 603c 326d 83bf 0691 813e
000003c0: 1a96 45bf 651c 103f ed90 21bf db10 3ebf
000003d0: 11f8 1fbd 42f8 833e 2437 ef3e 31a4 6dbe
000003e0: d0e1 2e3e f32e cabe 9ad1 3fbd 1d9e 89be
000003f0: 76b3 08be a371 713d aeb6 1d3e 6039 9ebe
0.021039283 0.84411263 -0.55950695 0.21384718 0.3112959 0.68702406 0.66906446 -0.5790098
-0.25947285 -0.1671268 -0.87917554 -0.27990678 -0.1564351 0.7003244 -0.7361518 0.46961358
0.6801855 0.34994772 -0.6166166 0.53142345 -0.41981176 -0.5311247 -1.5105808 1.4573919
-0.0489263 0.24924248 0.41934818 1.2095655 -0.11426433 -0.08246928 0.52212787 -0.032606132
0.16427632 -0.65443856 0.15519617 0.2583164 -0.73648953 -0.8121446 -0.9427311 0.09723115
-1.1235405 -0.937571 0.25037012 0.34860647 -0.6264864 -0.044476736 -0.8801546 0.6170608
-0.19750124 -0.26033974 0.12518881 0.21067318 -0.2612795 0.3310613 -0.30346793 -0.67296034
0.1425313 0.53721327 1.2451602 0.11886437 0.061398704 1.0996298 0.57380646 0.061252307
-0.49941266 -0.015911585 0.9321633 0.11836378 -0.53907734 -0.116785735 0.18468308 -0.27527493
1.5060354 0.31171852 0.21657752 0.5351353 -0.43071157 -0.30390412 -0.17708789 0.26473084
0.4189943 0.5989322 0.40203342 -0.52232647 -0.04818052 0.06883593 0.3177222 -0.3521204
-0.79176116 0.79776853 0.49132195 -0.7288263 -0.22859243 0.98966604 0.7261615 0.31448674
0.31237724 0.7100881 0.55100477 -0.29548165 0.49778405 0.13617583 0.053788774 -0.40400514
-0.5304116 -1.0355619 -0.702909 0.7445404 0.2545795 0.47027352 -0.22852013 0.40498957
0.47506925 -0.19696918 0.06996343 -0.7096185 0.80911535 -0.22567278 -0.40389055 0.003995158
-0.15840875 0.3524633 -0.30466112 0.5701923 -0.7550262 -0.49564058 0.594663 0.017069872
0.8347255 -1.214113 -1.2356061 -0.103847325 -0.08585522 -1.0384117 0.16825546 0.72212857
-0.5055272 -0.27496418 -0.2346332 0.10225183 -0.0037651092 -0.1620921 -0.13650085 -0.39999112
-0.44485074 -0.005873279 -0.2721075 0.2580821 0.44568372 -0.48319933 -0.43453115 -0.2526118
0.89958656 0.21537702 -0.5842877 0.64711034 0.15939526 -0.16369148 0.9346127 -1.0897112
0.23382503 0.013154301 -0.4410703 0.077923544 -1.2954068 0.20599371 0.03598777 -0.28499973
-0.088232286 0.27665383 -0.27598515 -0.68699855 -0.006942191 0.40774712 0.7282712 0.23062395
0.42214182 -0.33270293 0.7516748 -0.73601747 0.5711006 -0.5813019 -0.659596 -0.16691305
-0.19022241 0.55878794 0.26305327 0.18557434 0.5386634 -0.35216293 0.5420399 -0.6609767
-0.35170433 -0.2251028 -0.25109032 -1.2011373 -0.16104175 -0.09545118 -0.18420431 0.63389945
-1.2985718 0.029560523 0.21495818 -0.5392734 -0.13103463 0.2489805 -0.45241785 0.42754877
0.38748798 -0.7265295 -0.057123385 -0.3204138 0.76872003 -0.38085532 0.1497103 0.02655599
-0.06962625 0.29436922 -0.6447379 -0.6130016 -0.46402562 0.20321395 -0.065190844 0.35063937
-0.04831465 -0.28446954 -0.29356754 -0.21931632 0.27472112 0.2749087 0.22733274 -0.22857392
-0.8243824 0.69041616 0.23995629 0.20957708 0.3709652 0.013691984 -1.0267699 0.25305957
-0.7718216 0.56293327 -0.63111764 -0.7424447 -0.039054934 0.25775343 0.46721756 -0.23207165
0.17078328 -0.39488944 -0.04683075 -0.26878443 -0.13349709 0.058946263 0.15401718 -0.3090315

_orig_mod.rnn.bias_ih_l1 f4 [384]
00000000: 9263 013f e740 763e 2af3 6dbd ef79 563f
00000010: 7317 3d3f 3645 d63d 1aee 08bd d84a 663e
00000020: 03ef 853e 9111 f43e db1e 9e3d b36b 92be
00000030: e809 27be 3d67 663e e1e9 a63f 173b 0e3e
00000040: 7caa bb3e 7953 75be ad22 ebba d973 533f
00000050: 2d4c d03e 1537 1e3f 9681 953e e06f bd3c
00000060: 89d7 5f3e 102a a13e da0d 963e 2419 e03d
00000070: 92ed 283f 72dd 723f 81da 16bf d76f 123e
00000080: 3244 8e3e 4623 853e 6507 893e f242 6f3f
00000090: 7e56 8b3e 9573 87be 8220 983f 73d6 1dbe
000000a0: b64d 9c3f 24c1 c73e 331c c9be fff8 883e
000000b0: 1cb5 91be cf53 d8be 1ab9 03bf a491 ac3e
000000c0: 40a1 203e 735b b13e c59a 57bc cc0e 9cbc
000000d0: 0244 1e3f 1e93 323e 0cc9 0a3f dfa6 073f
000000e0: 23c3 3cbd df3e 8c3d 093d d93e 6cdd 8bbd
000000f0: 323f 883c fbf6 503b 7c14 c63e f78e 563d
00000100: d046 003e c840 3d3f b545 263f 2d52 c33e
00000110: 03f6 df3f e0fa 633f de05 913f 7145 173f
00000120: 3d02 5d3d 7775 a13f 6800 363f c908 c93e
00000130: 994a 9b3e 45ea cd3d 49b9 18be ec0e 8fbe
00000140: 800b a1bd 2543 b93e 7107 6c3f a4f6 153f
00000150: 4c47 e23e 4d45 143f 200c e83e 06da 5f3f
00000160: 2997 e83c 636c 523f 08ef 113f 45f9 ea3f
00000170: d6da 4a3d a2c8 bcbd 1ed5 25be 55d1 1f3f
00000180: 7b7f 2ebe 2e72 19bf 51f9 5b3e 8d48 303e
00000190: 1e69 803e 82ef 55bf a1d5 57be bccc 77be
000001a0: 22f2 943e 454a f83d c66f 813e e772 a03f
000001b0: 4ec4 b53e 469b 08be 96b8 2f3f b7cd 8e3f
000001c0: 0fba 573c 2f8e 9a3d 3caf f0be 5c9a 8b3e
000001d0: d97e 32be dc19 943d 6333 ef3e fb0d 7bbf
000001e0: 1313 093d f64b 4f3f 6c84 7e3e 33bf 243f
000001f0: de3c 9c3e 38c2 973f f41a c83f de73 46be
00000200: bd17 943d 50f5 ac3f be2e 453f d6a6 2c3d
00000210: c607 713e 1356 0e3e 5637 393e 12c1 3e3f
00000220: 28c4 bebd e632 7f3f ccd1 7a3f 4c45 b63f
00000230: 4dd9 4d3c 86cd 893e 449d d5bf 243a 8bbe
00000240: 5926 eabe 80fa 053f d3d4 e8be 3008 153f
00000250: 413c 18be 28dc 90bd 88c4 71be 2fcf 2d3f
00000260: 4bf5 a0be 873c 433f 6b85 d3be e2c5 a63f
00000270: 0cd6 9a3e a9b0 aabf 1701 f03e a8df 0a40
00000280: 486b 313e 4bb1 823f ca13 3e3f 52eb fdbf
00000290: 416a e2bd 5330 9cbe f9b2 82bf 2567 133f
000002a0: 0055 92bf 8087 06bf f0e4 383f 7141 f2be
000002b0: 7895 6c3f 1634 513f f341 89be 53ea 28be
000002c0: 65ec 7fbe c9f5 7dbe b033 6d3f ce1b 013f
000002d0: aa69 9dbd 837b e13e 10d6 383e 644e 663f
000002e0: 04fe 743f b7f2 073e d077 86bf d1e0 653f
000002f0: 6550 323f 0ff7 203f eee6 eabe a593 9a3f
00000300: c374 1a3f b237 93be f679 c53d 44b0 913f
00000310: f4c4 96bf 4081 c6bf f074 c43e be0f 08bf
00000320: 6042 803e dbd2 a8bf a46d 75be 3120 8bbe
00000330: 1a17 5abe c6ad 3b3f 2a6f 963f c22c babe
00000340: 74b7 a63e b538 aebe af3a d6bf afdc 98bf
00000350: 3bcf 243f 3477 463f 8a75 743f b2e8 ccbf
00000360: 8459 8bbe ebba e7bf dd6c 033f bf52 d1bf
00000370: 5dd5 5a3e 1d32 b03e dff2 563e c9be af3e
00000380: fbb4 fcba f8ee b53d 8c80 3c3e ddd4 173f
00000390: 735d b63e 53ff 0e3f dda9 0f3f aa53 043d
000003a0: 852e f13e f03b 3a3f 963a 153f 56fe e0bf
000003b0: 8b5e 5ebf 4abe 3b3f 129a 053f 5546 4a3f
000003c0: ef20 1d3f 7c11 d5bd 296b 263d 5ddb 2b3f
000003d0: 7fb8 353f 3e77 4b3f 9940 593f 996d 323e
000003e0: e260 233f 1896 953e b51d 3e3f 2469 683f
000003f0: c442 92bf 751f 43bf 7162 02c0 dd27 003f
0.5054256 0.24048196 -0.058093227 0.83779806 0.73863906 0.1046242 -0.033430196 0.22489488
0.26158914 0.47669652 0.07720729 -0.28597793 -0.16312373 0.2250032 1.3040124 0.13889728
0.36653507 -0.23957624 -0.0017939411 0.82598644 0.40683118 0.618028 0.2920043 0.023124635
0.21859564 0.31477404 0.29307443 0.10942295 0.65987504 0.9486915 -0.5892716 0.14300476
0.27786404 0.26003474 0.26763454 0.93461525 0.27214426 -0.2645537 1.1884921 -0.15413837
1.2211215 0.39014542 -0.39279327 0.2675247 -0.28458488 -0.4225144 -0.5145432 0.33704865
0.15686512 0.34640083 -0.0131594585 -0.019050024 0.6182252 0.17438933 0.54213023 0.52989
-0.046084534 0.06847929 0.4242938 -0.06829342 0.016631696 0.0031885493 0.38687503 0.052382436
0.12527013 0.73926973 0.64950114 0.38148633 1.7496952 0.8905468 1.1329916 0.59090334
0.053957213 1.2613972 0.7109437 0.39264515 0.3033035 0.10054449 -0.1491443 -0.27941072
-0.078635216 0.3618404 0.92198855 0.5857947 0.4419502 0.57918245 0.4532175 0.8744205
0.028392391 0.82196635 0.5700536 1.8357321 0.049525104 -0.09217955 -0.16194579 0.6242879
-0.17040817 -0.5993985 0.21481825 0.17215176 0.25080198 -0.83568585 -0.21077587 -0.24199194
0.29090983 0.12123541 0.2528059 1.2535065 0.3550133 -0.13340482 0.6864103 1.1156529
0.013166918 0.075466506 -0.47008693 0.27266204 -0.17431201 0.07231495 0.46718892 -0.9806821
0.033465456 0.8097528 0.24855202 0.64354247 0.30515188 1.1856146 1.5633225 -0.19380137
0.0723109 1.3512363 0.7702445 0.042151295 0.23538122 0.13900022 0.18087515 0.7451335
-0.093147576 0.9968704 0.97976375 1.4239898 0.012564016 0.26914614 -1.6688619 -0.27192795
-0.45732382 0.5233536 -0.45474872 0.5821562 -0.14866735 -0.070732415 -0.23610127 0.6789426
-0.31437144 0.7626423 -0.41312727 1.3029139 0.3024143 -1.3335162 0.4687583 2.169901
0.17326081 1.0210356 0.74248946 -1.9837439 -0.110554226 -0.30505618 -1.0210868 0.5757926
-1.143219 -0.52550507 0.7222433 -0.47315553 0.9241557 0.817201 -0.26808128 -0.16495638
-0.24992521 -0.24800791 0.92656994 0.5043305 -0.076861694 0.44039544 0.18050408 0.89963365
0.957001 0.13276182 -1.0505314 0.8979617 0.6965392 0.6287698 -0.4587931 1.2076308
0.60334414 -0.2875343 0.09642403 1.1381917 -1.1778855 -1.5508194 0.38370466 -0.5314902
0.2505064 -1.3189348 -0.23967606 -0.27172998 -0.21297875 0.7331203 1.1752675 -0.36362273
0.3256184 -0.3402764 -1.6736659 -1.1942347 0.6437871 0.7752564 0.9549185 -1.6008513
-0.27216733 -1.8103918 0.5133799 -1.6353377 0.21370454 0.34413233 0.20991085 0.34325245
-0.0019280011 0.0888347 0.18408412 0.5930918 0.3561817 0.55858344 0.56118566 0.03230635
0.47105804 0.7274771 0.5829252 -1.7577617 -0.8686301 0.73337233 0.5218822 0.7901357
0.6137838 -0.104037255 0.04062954 0.67131597 0.70984644 0.79478824 0.84864193 0.1742462
0.63819706 0.29216075 0.7426408 0.9078543 -1.1426625 -0.76219875 -2.0372584 0.50060827

_orig_mod.rnn.bias_hh_l1 f4 [384]
00000000: 6f60 f53e 5eed 2f3e 39b0 fbbc 4190 6b3f
00000010: 663c 3b3f b3bc 963d a107 163d 0a24 833e
00000020: cade d53e 1bda 003f 51bf 13bd 0787 3cbe
00000030: 1c8b 95bd d2ff 743e 98d5 a63f 4d83 073e
00000040: b48c 983e f14a 66be 4b15 c63d 8cf9 3d3f
00000050: 3025 c73e afaa 103f ae58 9e3e bf20 79bd
00000060: 4f51 7b3e 5081 3e3e 6e31 bf3e 2158 bc3d
00000070: 3a03 2d3f fb61 583f 5aa6 1fbf 2d98 223e
00000080: 72b7 273e 4ad3 773e 7748 ab3e 4b08 7b3f
00000090: ddea 973e d351 a3be e95c 9e3f 391f 1cbe
000000a0: 50e9 a13f 4ddb ee3e 6513 abbe 50d5 b73e
000000b0: 6dc9 40be f9af 07bf f754 debe 0509 943e
000000c0: 623e 093e ed1e cf3e 0ec6 09be 3337 7e39
000000d0: 0c57 323f e27d 4b3e 374d 0b3f 5fec 163f
000000e0: a050 8dbd 1f7b 093e 772e ed3e eaec 45be
000000f0: f99b 343e fba2 23ba 3375 e43e 2d86 c13d
00000100: 9fd9 923e cc61 473f f007 353f 0695 e13e
00000110: 69ab d43f f061 643f d290 993f 425b 1c3f
00000120: 44a8 343e 3b0f 983f 758e 283f edd1 c73e
00000130: 49c4 3a3e 8c99 ce3d 9c89 40bd 17e6 78be
00000140: 69c9 25be e62e 953e e8b6 793f 7b3d 1c3f
00000150: 1b95 c43e 0826 1e3f 744d aa3e a2d1 503f
00000160: 4b66 6bbd 7089 3e3f 74d0 1d3f 23b3 eb3f
00000170: d809 0ebd d864 c8bd 5b46 0dbe 603f 0c3f
00000180: 5072 17be 431d 27bf e397 853e 4345 543e
00000190: b24b 883e cbe4 32bf 9434 95be 3575 5dbe
000001a0: bc64 dd3e 84dc 2b3e e195 c53e 3f19 ab3f
000001b0: 576b dd3e 1108 a23c 917d 1e3f 8c14 953f
000001c0: 5e28 903d afe2 1b3e 3564 babe 14a2 763e
000001d0: 07a3 a1bd eaf8 9a3c dce5 e83e 2b6e 89bf
000001e0: 3a7d a8bd 4d0d 493f 314d 653e c672 143f
000001f0: 1e8a a83e 0a6b 9b3f 05a9 da3f 0687 63be
00000200: 15e4 27bd ed52 b63f d355 583f bde7 59bd
00000210: b36e ad3e 8e5e f13d b473 143e 4279 353f
00000220: 3832 553c 6f26 683f 58f6 5f3f bc4b b73f
00000230: 4a55 38bd 204e 993e fb3f cdbf 396f 55be
00000240: fc74 c3be 1e2d b23e 0107 fdbe f171 073f
00000250: 082f 1ebe 257f 3bbe 700c 22be 8a5b 263f
00000260: fa76 b8be 798f 443f a9d0 b1be 7606 ab3f
00000270: c36c c83e 142c b5bf a068 c73e 32c9 0640
00000280: d7e5 8d3e c418 883f 58a0 443f b406 f2bf
00000290: aef3 43be 4562 9dbe d144 7dbf 7c30 373f
000002a0: 48c6 91bf 0520 1abf 492f 303f 6f9d 06bf
000002b0: 1619 7f3f 21e0 743f ab9b 9bbe 06b4 39be
000002c0: ac89 80be d41a a3bd 7987 503f d6d8 023f
000002d0: 9fd7 1e3d 34bb 0e3f 705f 643e 4cde 803f
000002e0: 0bba 843f 15ce c23d 5bf4 72bf 5bda 4d3f
000002f0: 334b 3d3f 26eb 1f3f 69be d4be db69 9c3f
00000300: f28f 0e3f 4171 6abe 3a53 71bc 2056 903f
00000310: f5c8 8fbf a0e4 cebf a1e1 b33e ae50 c4be
00000320: 1dc0 bb3e 0e85 afbf 41bc 95be 4e16 8fbe
00000330: 4d9a 44be 067c 413f 83d7 9a3f 55b7 b6be
00000340: db29 b43e 7c9b abbe b322 d4bf 2ce2 a7bf
00000350: b2fa 353f a149 233f 5022 833f abbf cebf
00000360: 09f4 d2be d080 eebf b4b9 fe3e c250 e1bf
00000370: e9e6 a03e 1f51 9e3e 607d 053e a1b2 bd3e
00000380: 1e0f 033d 0073 053e 03a8 cd3c d03e 1a3f
00000390: 1063 943e f7f7 0a3f 5088 0c3f 91ae 7c3b
000003a0: d388 153f a800 413f 3e02 133f 2999 d6bf
000003b0: 193e 6dbf 9a3c 463f 046b 203f 78c4 353f
000003c0: ec73 253f d79b 393d 3646 bd3d 557e 203f
000003d0: ac1f 1e3f 59db 393f d3de 603f 1c1d 003e
000003e0: b48f 2b3f 1236 ce3e 3d09 493f 15c5 673f
000003f0: 1ed1 94bf e88c 64bf a39c 01c0 2a84 0a3f
0.47925135 0.17180392 -0.030723678 0.9201699 0.73139036 0.0736021 0.03662837 0.25613433
0.41771537 0.503328 -0.036071125 -0.18410884 -0.07301924 0.23925713 1.3033934 0.13233681
0.29794848 -0.22489525 0.0967203 0.74208903 0.3889556 0.5651044 0.30927032 -0.060822245
0.24542736 0.18604016 0.373424 0.09196497 0.6758305 0.84524506 -0.6236321 0.15878363
0.16378573 0.24201694 0.33453724 0.9805953 0.29671374 -0.31898364 1.2372104 -0.15246285
1.2649326 0.46651688 -0.33413234 0.35904932 -0.18826838 -0.5300289 -0.43424198 0.2891313
0.13402703 0.40453282 -0.13454458 0.00024243891 0.69664073 0.19872239 0.54414696 0.58954424
-0.069001436 0.13425873 0.46324512 -0.19328657 0.17637624 -0.00062422425 0.44620666 0.0944942
0.28681657 0.778836 0.70715237 0.44059008 1.661481 0.8921194 1.1997321 0.6107675
0.17642313 1.1879648 0.6584237 0.39027348 0.1823894 0.100878805 -0.047006235 -0.24306522
-0.16190113 0.29137343 0.9754472 0.6103131 0.38395008 0.6177678 0.33262217 0.81569874
-0.0574706 0.74428463 0.616462 1.8414043 -0.034677356 -0.097848594 -0.1379637 0.547842
-0.147897 -0.65279025 0.26092443 0.20729546 0.2662025 -0.6988036 -0.29141676 -0.21626742
0.43240917 0.16783339 0.3859091 1.336708 0.43245956 0.019779237 0.6191035 1.1646895
0.070389494 0.15223192 -0.36404577 0.24085265 -0.07892423 0.01891752 0.4548787 -1.0736746
-0.0822701 0.7853592 0.22392727 0.5798763 0.32917875 1.2142041 1.7082831 -0.22219476
-0.040989 1.4244057 0.8450596 -0.05319952 0.3387352 0.11785613 0.14497262 0.7088815
0.013012461 0.90683645 0.87485266 1.4319987 -0.045003213 0.29942417 -1.603515 -0.2084321
-0.3817519 0.34800047 -0.49419406 0.52908236 -0.15447628 -0.1831022 -0.15825057 0.6498343
-0.36028272 0.7678142 -0.34729508 1.3361347 0.3914548 -1.4154077 0.3894701 2.10603
0.27714416 1.0632558 0.76807165 -1.8908296 -0.19135925 -0.30739036 -0.9893313 0.71558356
-1.1388636 -0.6020511 0.6882215 -0.52583975 0.99647653 0.95654494 -0.30392203 -0.1813508
-0.25105035 -0.079641014 0.81456715 0.51112115 0.03877985 0.557544 0.22302032 1.006784
1.0369276 0.09511963 -0.94904107 0.8041131 0.7394287 0.62468183 -0.4155152 1.2219805
0.55688393 -0.22894765 -0.014729315 1.1276283 -1.1233202 -1.6163521 0.3513308 -0.38342804
0.36670008 -1.371248 -0.2924519 -0.27946705 -0.19199486 0.7557987 1.2097019 -0.35686746
0.35188183 -0.33517063 -1.6573089 -1.3115897 0.71085656 0.63784224 1.0244846 -1.6152242
-0.4120181 -1.863306 0.49751055 -1.760277 0.3142617 0.30921265 0.13036108 0.37050346
0.03199684 0.1303215 0.025104528 0.60252094 0.2898183 0.54284614 0.54895496 0.0038556198
0.584119 0.75391626 0.57425296 -1.6765491 -0.9267288 0.7743622 0.6266329 0.7100291
0.6463001 0.045314636 0.09241907 0.6269277 0.6176708 0.7260032 0.8784 0.12511104
0.6701615 0.40275627 0.7852972 0.905351 -1.1626318 -0.89277506 -2.0251853 0.54107916
