4.2_Analysis/Train_Models/model_3/GRU_ArcFaceLoss_final.pth (torch, 774518 bytes, 10 tensors)

_orig_mod.rnn.weight_ih_l0 f4 [384, 93]
00000000: 8143 503f bdbf c7bc a293 7a3e 2cdf 3e3d
00000010: c5a5 d23e 24c9 a9be 42d4 64bf d092 23bf
00000020: 3f26 ecbe f056 073d 87a1 96be b31b 95be
00000030: ce1f 153e 87e6 08bf 9013 d93d 3dc4 c73d
00000040: 47dd bfbe 2220 8f3c 3223 6dbe 3454 66bf
00000050: 21f5 81be 12e2 4dbf a991 3a3c 8f60 693e
00000060: 9c00 2d3f 4b89 003f 6dfe bfbe ec60 243d
00000070: cfa5 423e 20ec 01be a1ed 14bf a29e 983d
00000080: 2062 0fbe efbc 9f3e 94d5 103f b34e dabc
00000090: a45c 673f 373e 083f cf08 f83c d397 7f3e
000000a0: 48c2 433e 17c0 c13e 7030 90be 33d7 6c3e
000000b0: df11 7ebe 0316 b1be eb96 1c3f 7428 683f
000000c0: ca32 333f 5bc6 0c3f 5b2d 073e 456e 03bf
000000d0: 67d1 1c3f 3ea4 86be d7b9 f6bd 9508 d93c
000000e0: 6766 87bd ab36 193f b264 423c 8585 4cbc
000000f0: 3fe7 b73d 135d 973f b725 053f e2c2 503e
00000100: adbd 973e c4c1 18be 8502 bf3e 9d3e f73e
00000110: 262e e63e 7663 2f3d e48c b2be 81de 613f
00000120: da9e 00be a5f8 c53e 0b40 ed3e 041b 7d3e
00000130: af7e 223f b7c0 a73d 0e9e 6c3d 8d6d 3dbe
00000140: 604d 023f 9883 03bc e611 c93e 2e91 c03e
00000150: 4026 0c3e 0c9e 813e 52b2 ba3d 19a6 b63e
00000160: 84fe c8bc 68db afbd b4e8 85be ca5c aabc
00000170: 4327 193e 57fc 21bf 3f48 88be 7581 e13e
00000180: 3cf6 3bbf 6914 c7be 452b 82be 60a5 8e3c
00000190: 6fe2 a4be f5af 91bb 07db ae3d 2f54 c43e
000001a0: 0cd5 c63a e93f 793e ff0c 54be 8d89 a1be
000001b0: 12e4 a3be 6613 fdbe 5a03 31bf cab7 c1be
000001c0: 5b9b 13bf 0795 07bf 14fa 50be e05d 28be
000001d0: 17c8 c23e f348 67be 7938 163e 80bb 79bd
000001e0: eeb1 003d 8496 cebd 22e1 853d 6a53 cbbe
000001f0: 9019 303d c04c f4be ba60 04bf 1e09 ed3e
00000200: 9410 523f 5931 11bb 6110 ddbe 3c90 40bf
00000210: 7c27 16bf a1e3 3fbd ba0e f23d 886f 403e
00000220: 6ebb 79bd 5880 96be 7ab7 b2ba cd85 163f
00000230: b608 4ebe eba1 ed3e 4bf1 143e 026b b53e
00000240: c597 d4be 50ff aebd fd1b 91bc 413b 4bbe
00000250: ab19 fc3e 2e0f 9abc de3f 8f3e 309a 723f
00000260: 8622 f43e b3f8 023f 376f 0e3f 568f e23e
00000270: 1ce8 e03d dfff f43e d18f 113d 369d d73d
00000280: 314b 503d 40d4 fbbc b596 073e c927 223f
00000290: e018 20be 4dc3 2b3e a8c4 443f 9732 11bf
000002a0: b7f7 5dbf 3cad 02be e76d 693d 665f 443e
000002b0: af44 c9ba cc45 9dbe 7a55 623e d7f8 19be
000002c0: 0bcf ba3c b159 c63e 5565 1fbf faaf 5f3e
000002d0: 071b 7abc e9cd b8be 62fe 8fbe fccc 16bf
000002e0: 62af a43d e421 87bd 7330 f4bd 6276 b53b
000002f0: 7019 18be a2fd 78be 48f1 eb3d c221 103f
00000300: 7491 123f cd6b 93be d773 a63e d0be 853c
00000310: b72a 753e 8032 b83e c868 c03c 76df a33e
00000320: ccb5 a2be b80c a8be c5ef f6be af8f a23e
00000330: 3af8 033f ef29 7dbd 243b 85be 248c 0bbe
00000340: 5586 2ebe 8b7b 8a3e b777 85be ba7c c8be
00000350: ed60 7fbd 6daf bebd 7a99 03bf 730b 87be
00000360: ed9e 6dbe 2011 5a3e e692 01bf 3dac 5bbc
00000370: bd0e 093f 8346 b2bb 40d7 a53c 86bf 9cbe
00000380: 9d6a fc3d a5b6 483e c6cb fe3e 2cca 413e
00000390: 2889 2a3e b15f af3e 490f da3e a77f d3be
000003a0: f3e5 15be 2ffe d7bd 0c79 ffbe 3a19 8d3e
000003b0: be54 a1bd b620 81be 3ea9 153f 1cdb ea3e
000003c0: 281a 803e ca7a ae3d 823d 113e 96bd 153e
000003d0: 281d 4b3e 3673 22be f15b 19be 7b7f 9fbd
000003e0: 2ecd ce3e e321 b33e 58f7 073f c2f9 823e
000003f0: e87f 4b3f b07d 033e 565c 423f 15c6 66bd
0.81353 -0.02438342 0.2447038 0.046599552 0.41142097 -0.3316127 -0.8938638 -0.63895893
-0.4612293 0.033041894 -0.2942011 -0.29122695 0.14562914 -0.53476757 0.105994344 0.09754226
-0.3747351 0.017471377 -0.23157957 -0.89972234 -0.2538233 -0.8042308 0.011387267 0.2279074
0.67579055 0.5020949 -0.374988 0.040131494 0.19008563 -0.12687731 -0.5817509 0.07452132
-0.14002275 0.31198832 0.56575894 -0.026648855 0.90375733 0.5321993 0.030277638 0.2496026
0.19117081 0.37841865 -0.28161955 0.23128967 -0.24811505 -0.34587106 0.6116778 0.90686727
0.6999937 0.54990166 0.13200895 -0.5134013 0.6125702 -0.26297182 -0.12047165 0.02649335
-0.066113286 0.5984904 0.011864828 -0.012483005 0.089796536 1.1825279 0.52010673 0.20386842
0.296369 -0.14917666 0.3730661 0.48289958 0.44957083 0.042819463 -0.34873116 0.8823014
-0.12560597 0.38666263 0.46337923 0.24717337 0.63474554 0.08191054 0.05776792 -0.18498822
0.50899315 -0.00802698 0.39271468 0.37610763 0.13686466 0.25315893 0.09116043 0.35673597
-0.024535425 -0.0858677 -0.261541 -0.020796198 0.14956383 -0.63275665 -0.2661762 0.4404408
-0.734226 -0.3888276 -0.25423637 0.017412841 -0.32204005 -0.0044460245 0.0853787 0.38345477
0.0015169694 0.24340786 -0.20708083 -0.31550255 -0.3200994 -0.49428862 -0.6914574 -0.37835532
-0.5765893 -0.5296177 -0.20407897 -0.1644206 0.3804328 -0.22586422 0.1466998 -0.06096983
0.031419687 -0.10087302 0.06537081 -0.39712077 0.04299313 -0.47714806 -0.51710093 0.46296018
0.82056546 -0.0022154658 -0.4317656 -0.75220084 -0.58654 -0.046847943 0.11819215 0.18792546
-0.060969763 -0.29394794 -0.0013635003 0.58797914 -0.2012051 0.46412596 0.14545171 0.35433203
-0.4152204 -0.08544791 -0.017713541 -0.19846822 0.49238333 -0.018806066 0.27978414 0.9476652
0.4768259 0.51160735 0.5563845 0.44249982 0.10981771 0.47851464 0.035537545 0.105280325
0.050852958 -0.030740857 0.13241084 0.6334196 -0.15634489 0.1677372 0.76862574 -0.5671782
-0.8670611 -0.12761396 0.056989577 0.19177017 -0.0015355552 -0.30717313 0.22102919 -0.15036331
0.022803804 0.38740304 -0.62263995 0.21844473 -0.015265233 -0.36094597 -0.28123766 -0.5890653
0.08041264 -0.06598261 -0.119233035 0.005537794 -0.14853454 -0.24315503 0.1152063 0.5630151
0.57253194 -0.28793183 0.32510254 0.016326338 0.23942076 0.35976028 0.023487464 0.32006425
-0.31779325 -0.32822204 -0.48229805 0.31750247 0.5155064 -0.06180757 -0.26021683 -0.13627678
-0.17043431 0.2704738 -0.26067898 -0.3915766 -0.062348295 -0.093108036 -0.5140606 -0.26375923
-0.23205157 0.21295595 -0.50614774 -0.013407764 0.53538114 -0.0054405346 0.02024424 -0.3061487
0.12325022 0.19600923 0.49764842 0.18924779 0.16653883 0.34252694 0.42589787 -0.41308329
-0.146385 -0.105465285 -0.4989704 0.2755831 -0.078774914 -0.2522027 0.5846137 0.45870292
0.25019956 0.08519514 0.1418362 0.14623103 0.19835341 -0.15864262 -0.14976479 -0.07787987
0.40390915 0.3498679 0.5311179 0.25581175 0.79492044 0.12840915 0.75922143 -0.05634125

_orig_mod.rnn.weight_hh_l0 f4 [384, 128]
00000000: 9b84 9ebe e004 ddbe 874e 3d3e 0748 24bf
00000010: 6a20 e7be 1632 cebd 3bf1 863e 8847 d6be
00000020: 1a83 483d 2d14 833e bbf1 1cbf 5d2d 0d3e
00000030: 06fb f13c 25e3 9abe 5ee7 06be e659 21be
00000040: 5b1d 00bf 7a7f 063e 6a12 5f3f ab6d 85be
00000050: c54f 233c 4813 043f c1d4 9bbe e3b4 05bf
00000060: acdf 963d 83ed 4c3f ffc4 abbe 736b cd3d
00000070: ef87 803e d5b9 b1be a2bc 373e 1660 b03e
00000080: 40bc 55bf a13c ad3c 88bf c03d 5fb7 8e3e
00000090: 0aab 87be 964e 40be e668 13be f805 dfbe
000000a0: a16d e5bc 9392 353c 559f 013f f5f1 c13c
000000b0: 90bc 75bd 1527 1e3f c179 173f d7ab 04bd
000000c0: 4939 24be 1510 c23c 3ce3 333e 9294 9b3e
000000d0: 2338 13bf 3d62 08be 621a 773e c317 323f
000000e0: 1d71 47bf 6c68 a63e 8cbe de3d d4c0 a63d
000000f0: ff90 83be 7a07 08be 9213 ac3e b932 f13e
00000100: 76f7 d5be 358d 43be 3fde 7e3e 1c49 10be
00000110: 58ae 59bd ca85 d3be 4ae3 f53d cad6 52be
00000120: 50a2 89be cae1 07bf a093 2c3e b018 f83e
00000130: aa24 4fbd 2d8a 3abf a8b9 4fbe f1cb 6dbe
00000140: 73a2 1cbc a9dc ee3e af4d a7bd 124c fdbe
00000150: 24b9 8e3e 4e7a a3be e93c 13be eedf 8c3e
00000160: b16e 903e b27d 3ebf c7f9 c43e 4d5b 5fbf
00000170: 2a64 a93e 649b bebd 4f3b 5cbe 6194 243e
00000180: 56bf d53d b648 9f3c 9676 cb3e 346c c3be
00000190: b7f1 5ebc e8f7 ff3d b745 4c3d cfd2 34bf
000001a0: ef1a 11bd c673 da3e 59e8 1c3e b834 213f
000001b0: 3708 f3bd 1c3c 96be a168 213e 37b3 263e
000001c0: 9849 58be e8a4 cc3d 6109 1a3f e7c9 403c
000001d0: 4c7f 823e 4ea6 003f d8c6 8abe 2988 2a3d
000001e0: 656c c7be ca8c 50bf 132e 1abe d534 67bf
000001f0: 6360 9e3d 0e69 c93e 2d6d 313d 7b5c 86bd
00000200: da0e 09be d395 79be e8fc cf3e 8830 b83e
00000210: 593d 43be 3c89 6dbe 0e7e 413e f5c5 06bc
00000220: b5a3 063f b868 b9bd 6162 fdbd 47ab b63e
00000230: f480 0ebf a82b fabc 1a48 b83e 2748 31be
00000240: 7b02 603e bdee 943e 6f48 96be b247 17bf
00000250: 45c1 a5be c6f2 ce3e 9dcc d8be 9c0d b23d
00000260: 8f28 5b3e 039a 46be ddef 93be df84 89be
00000270: 3c07 6cbc 0fbb 47be 66d6 cfbe a0ef fa3d
00000280: 6667 acbe ab7f de3c cce8 263e d581 17bf
00000290: 4da5 323e a72b 2f3e ff87 38bf b4f2 543e
000002a0: eea3 1b3f ac20 89bd b4c1 9b3c 69cc c53d
000002b0: ac6a 903e 2601 153f 8934 b13e c38d c3be
000002c0: 805e b03e 19e6 4abe 74f7 d13e b66b a5be
000002d0: d135 0fbf 2343 b63e 39d9 9dbe 2c37 893f
000002e0: ba74 13be 6788 a33e 559e 303e f940 613e
000002f0: c806 2abe 0e40 46be c029 a53e d61b 8e3e
00000300: 1a27 983e ff3b 81be ce36 e53e b66a 853d
00000310: 0e6e a03e 305a 3a3c dea3 943e a2df 40bf
00000320: 1a8b 053d 3a52 903e c537 b5be 5dea 40bd
00000330: c476 95be 8524 793e c026 8b3e e689 df3e
00000340: e7f9 4b3f e499 203f 6d1e c3be 1754 763f
00000350: 6fdf 363e 7069 d5be 54ff 8cbe 56a0 babe
00000360: fafd efbe 3a7c 08bf 3587 393e ee26 e03d
00000370: b34f 073e 2bfd d23d 0dc0 263f 4d2a 2cbe
00000380: ae26 833e 6d91 63be c5bc dc3e 4934 1ebf
00000390: 2528 1cbe ee5c 85bc ac42 153f 4d0f 253e
000003a0: ef30 00bf ec85 00bf 8a28 8d3e ee5e 853b
000003b0: 42e3 8a3e 62e5 a03e 720c b0be 230f b83c
000003c0: 9cb6 bd3e 1a28 6d3e 0514 1a3e 7c4d c53a
000003d0: 57bc c8be 73bd d3bd 49ff 80be a2ab 1fbe
000003e0: 476e ba3d 0215 2abe 24e2 823e 4393 40be
000003f0: baed f93d b03c 90be ed51 e73e cd01 193f
-0.30960545 -0.43167782 0.18486987 -0.64172405 -0.45141917 -0.10068147 0.2635592 -0.4185145
0.048953153 0.2560133 -0.6130635 0.13786836 0.029538643 -0.30251423 -0.13174197 -0.1575695
-0.5004479 0.13134566 0.8713747 -0.26060233 0.009967749 0.5159192 -0.30435756 -0.52229136
0.07366881 0.80049914 -0.33548734 0.1003026 0.2510371 -0.3471209 0.17943051 0.34448308
-0.8349037 0.021147074 0.09411532 0.27874276 -0.2649768 -0.18779978 -0.14395484 -0.4355924
-0.028006377 0.011082309 0.50633746 0.023674944 -0.05999428 0.61778384 0.59170157 -0.03239044
-0.16037478 0.02368931 0.17567152 0.30386788 -0.5750753 -0.13318725 0.24131158 0.6956751
-0.7790697 0.32501543 0.10876188 0.08142248 -0.2569656 -0.13284102 0.3360868 0.4710901
-0.4179036 -0.19096835 0.24889468 -0.14090389 -0.053144783 -0.4131301 0.120062426 -0.20589748
-0.26881647 -0.530789 0.1685319 0.48456335 -0.050572075 -0.7286709 -0.20285666 -0.23222329
-0.009560215 0.46652725 -0.08169114 -0.494721 0.27875626 -0.3192925 -0.14378704 0.27514595
0.2820945 -0.74410546 0.38471815 -0.8724869 0.33084232 -0.09306982 -0.21507 0.16072227
0.10436885 0.019443851 0.3973891 -0.3816849 -0.013607434 0.12498456 0.049871173 -0.7063417
-0.035426077 0.42666453 0.15323009 0.6297107 -0.11866801 -0.29342735 0.15762569 0.16279303
-0.21121824 0.09992391 0.6017056 0.011766887 0.25487745 0.5025376 -0.2710483 0.04163376
-0.38949886 -0.8146483 -0.15056638 -0.9031499 0.07733228 0.39337963 0.04331701 -0.06560608
-0.13384572 -0.2437356 0.4062264 0.35974526 -0.19066371 -0.23196882 0.18895742 -0.008225908
0.5259355 -0.09053177 -0.1237228 0.3567755 -0.55665517 -0.030538395 0.3599251 -0.1731268
0.21875946 0.29088393 -0.29352137 -0.59093773 -0.32374015 0.40419596 -0.42343608 0.08694002
0.2140219 -0.19394688 -0.2889394 -0.26859185 -0.014406022 -0.19504951 -0.4059326 0.12252736
-0.33672637 0.027160486 0.16299742 -0.5918248 0.1744587 0.17106496 -0.72082514 0.20795709
0.6079701 -0.06695685 0.019013263 0.09658129 0.28206384 0.5820488 0.34610394 -0.38194093
0.34447098 -0.19814338 0.41009104 -0.3230874 -0.5594149 0.35598096 -0.3082979 1.0719962
-0.14399996 0.31940004 0.17247899 0.21997441 -0.1660415 -0.19360372 0.32258415 0.27755612
0.29717332 -0.25241086 0.44768375 0.06514494 0.31333965 0.011374041 0.2903127 -0.75341237
0.03260336 0.28187734 -0.3539411 -0.047098506 -0.29192173 0.24330337 0.27178 0.43659896
0.79678196 0.6273482 -0.3810915 0.9622206 0.1785867 -0.41682005 -0.2753855 -0.36450452
-0.46873456 -0.53314555 0.18117984 0.10944925 0.13213997 0.10302194 0.65136796 -0.16813011
0.25615448 -0.22223444 0.4311277 -0.6179853 -0.15249689 -0.016279664 0.5830486 0.16119118
-0.50074667 -0.5020435 0.2756999 0.0040701544 0.2712651 0.31425005 -0.34384495 0.022468155
0.37053382 0.23159829 0.150467 0.0015052999 -0.39206192 -0.10338869 -0.25194767 -0.15592816
0.09103065 -0.16609576 0.25563157 -0.18806176 0.12203546 -0.281713 0.45179692 0.5976837

_orig_mod.rnn.bias_ih_l0 f4 [384]
00000000: 4a26 b1bd 553b e13e 5855 babe c17b 6d3d
00000010: 7aa0 38bf 3b6b 253f e79c 833e 737a 003f
00000020: 9021 8b3e 5f13 d3be 4045 cdbe 4052 ba3d
00000030: 038e 1b3f 8268 e8bc 11a2 653e 06c1 5bbe
00000040: cc94 b0be e7ad be3e 45c5 23be ad45 2c3d
00000050: 61f7 1ebd 313d 6a3f 93de 8ebd 0160 7b3c
00000060: d28b 00bf 4af0 0c3f 24a5 c73e bfc4 84bd
00000070: 47f7 263f a60d 2dbe 3a14 993c 2742 4f3e
00000080: 3644 983e 2b3b 433f eddc 8ebe 3950 6cbd
00000090: f847 5d3f 113f 5b3e ca46 30bc 04d4 2c3f
000000a0: c208 3a3f fd54 f73d 54cb 413d 3eb5 6c3f
000000b0: 026e bc3d ce60 1ebe 53a3 86be e714 473e
000000c0: 69ba 993c 21a2 983e 934d f3be ef07 0bbe
000000d0: 6eea 493f 67cc df3e bb8d 2b3f 9bed 963e
000000e0: b7d1 443e 32c8 0cbd 10f9 f03e ccb6 2fbe
000000f0: edef ad3e 1408 783e 3aa6 dc3e d0c0 303e
00000100: 43b7 1b3e 24dd c43e db27 153e 4fe0 3f3e
00000110: 4e91 9abe 22d5 3dbe 990e 10be 7a14 57be
00000120: d311 9d3e c800 24bd 2e5c 6d3e 025a 673f
00000130: 08bc 9f3f c0a0 a03c 6371 193f 3063 043f
00000140: 7e04 a33e 29be 043e 5390 75be a2e0 d9be
00000150: 7665 20be 4aaa b43e 180e fe3d f526 823e
00000160: 7ec9 843e 913e 9b3e c22d ec3d 16f7 f3bd
00000170: c34e cf3e c81c 6cbe c866 263f 15e8 52be
00000180: 296e dd3e 8aeb 1b3f 1d9e 2a3e 00fb 3a3e
00000190: 87aa abbc c80c 123f 01d2 a1bd 5456 bfbe
000001a0: 6a67 0d3e 6317 dfbb e381 1c3c 84ac 303e
000001b0: bf4a 123d 9abe 973d 05c7 a6be fb08 04bd
000001c0: 8d94 50bc 1a57 96bd 8220 dcbe 2576 493f
000001d0: 5714 0f3f a704 bebd 2df9 12be 0d5d 2a3e
000001e0: 3829 f13e 1161 bdbe bf7e c73d e8a1 203e
000001f0: 20d7 a93e bb47 843b b112 05bf 99a3 053f
00000200: e467 b33f 7b79 d23d ea74 683f 6f17 a53f
00000210: fd3a d33c 4fa7 8c3f da74 903f 270c d23f
00000220: 68e2 893f 555d 823e 69ac 9e3e 1774 693e
00000230: 718f a83f 4dd0 133f 8ff4 983f bca5 863f
00000240: 4046 b5be f4a9 693f 4a7b 03be 2e9c 4c3f
00000250: e574 b73f 7564 5ebe 6e53 28bf 63c4 ddbc
00000260: bb45 e53f 13ee 2f3f e286 f83e 5c21 a93f
00000270: 6704 46be d2b7 0c3f de35 913f 406e 613f
00000280: c515 683d 1a6a 963f bb0f 743f 15b7 853f
00000290: dda0 5d3f 0c23 e1be 6c30 bb3f d927 d9bd
000002a0: e40f 7f3c a87b 193f 4476 fe3e 57e3 923f
000002b0: ab1f 69be ddda 8d3f 7c6a b83e 8dca 153f
000002c0: e01f e93e 4d0d 0abe 62b6 133f 79c3 7d3f
000002d0: 8961 e8be 784c 643f 28be 473f c274 913f
000002e0: 5709 773f f397 bfbe e3d8 923f 193d d13f
000002f0: 8dd5 3c3f ccfc 9d3f 27b3 003f 378a 18bd
00000300: 34fe 383f 451b c3be 38dc 9a3e 0bc6 953f
00000310: 4609 a43f 7aea c53e 623f 643f 8d2d ed3e
00000320: 49f3 6e3f 0c01 bc3f 73bc c63f d126 593f
00000330: ddca 80bf e3c1 be3f 206a 803f 33d8 41be
00000340: 1bb8 4e3e 84f4 18bc 4d93 4a3f 0eed b83f
00000350: feb5 973f ae1d a0bd 8ed2 413f 3371 3b3e
00000360: ec8e f83e 483d b53f 4947 783f adc3 163f
00000370: 74a8 483f 82ac ce3f 96d4 c03d 3a90 8f3f
00000380: 71cb 0b3f 6790 bc3f 09c0 ad3f 6701 a73f
00000390: ffa5 703f 6e0d 063f b349 413f f7b8 8b3f
000003a0: e151 a23f 1edf 7b3f 1356 833f 9fe0 f63e
000003b0: d756 883f 0099 b63f aa00 dd3e 7646 eabc
000003c0: e0e3 6f3f f38b a93f bf37 8e3e db4e 6b3e
000003d0: 9694 fd3e 18e7 533c 023b 9c3f e9ae 633e
000003e0: 28b1 143e 3f25 e43e 8fec 0b3f 3843 bfbd
000003f0: 0fef 943e 1aab d53e 99ad 893f 3240 0c3f
-0.08649881 0.4399058 -0.36393237 0.05797935 -0.7211987 0.64616746 0.25705644 0.5018684
0.27174044 -0.41225716 -0.40091896 0.09097719 0.6076357 -0.028370146 0.22425105 -0.21460351
-0.34488523 0.37242052 -0.15993221 0.042058636 -0.038810138 0.9149962 -0.069760464 0.015342713
-0.5021335 0.5505415 0.3899318 -0.06482839 0.65221065 -0.16899738 0.018686403 0.20240079
0.2973954 0.7626216 -0.27902928 -0.057693694 0.8643794 0.21410777 -0.010759065 0.6751101
0.72669613 0.12076757 0.04731305 0.92464054 0.0920067 -0.15466616 -0.26296481 0.19441567
0.018765645 0.29811195 -0.47520122 -0.13577245 0.78873336 0.43710634 0.6701314 0.29478154
0.19220625 -0.03437061 0.4706502 -0.17159575 0.3397211 0.24221832 0.4309557 0.17261052
0.15206628 0.38449967 0.14565985 0.1873791 -0.30188984 -0.18538335 -0.14068069 -0.21003905
0.3067766 -0.040039808 0.23179695 0.90371716 1.2479258 0.019607902 0.5993864 0.5171385
0.31839365 0.12963165 -0.23980837 -0.42554194 -0.15663704 0.3528617 0.12405032 0.25420347
0.25934976 0.30321172 0.11532165 -0.11912362 0.40489778 -0.23057854 0.6500058 -0.20596345
0.43248108 0.6090628 0.16661878 0.18259811 -0.020955337 0.5705075 -0.07901383 -0.3737055
0.1380898 -0.006808208 0.009552452 0.1725331 0.035715815 0.07409401 -0.32573715 -0.032235127
-0.01273073 -0.07340832 -0.42993551 0.786959 0.5589041 -0.09278231 -0.14352866 0.16637059
0.4710176 -0.36988118 0.09740972 0.15686762 0.3317194 0.0040368713 -0.51981646 0.52202755
1.401608 0.10277077 0.90803397 1.2897776 0.025784964 1.0988559 1.128566 1.6409959
1.0772219 0.25461832 0.30990914 0.22798191 1.3168775 0.57739717 1.1949633 1.0519328
-0.3540516 0.9127495 -0.1284 0.7992581 1.4332548 -0.21718009 -0.65752304 -0.027071184
1.7911905 0.6872265 0.48540407 1.3213305 -0.19337617 0.5496799 1.1344564 0.88058853
0.056661386 1.175113 0.953365 1.0446497 0.8657358 -0.4397205 1.4624152 -0.106033035
0.015567753 0.5995431 0.49699605 1.1475629 -0.22765987 1.1082417 0.3601874 0.5851219
0.4553213 -0.13481636 0.5770017 0.9912639 -0.45386913 0.8917918 0.7802453 1.1363757
0.96498626 -0.37420616 1.1472439 1.634677 0.7376335 1.2342772 0.50273365 -0.037241187
0.72262883 -0.38106743 0.3024614 1.1701063 1.281533 0.38655454 0.89159214 0.46323815
0.93339974 1.468782 1.552626 0.84824854 -1.0061909 1.490292 1.0032387 -0.1893013
0.20187418 -0.009335641 0.79131013 1.4447343 1.1852415 -0.07818161 0.75711906 0.18304901
0.4854654 1.4159327 0.9698377 0.5889233 0.7838204 1.6146395 0.094155475 1.121589
0.546073 1.4731568 1.357423 1.3047303 0.9400329 0.5236424 0.7550308 1.0915822
1.2681237 0.98387325 1.0260643 0.48218247 1.0651501 1.4265442 0.4316457 -0.028598052
0.93707085 1.3245834 0.27776906 0.229793 0.49527425 0.012933515 1.2205508 0.22234692
0.14520705 0.44559667 0.54657835 -0.09338993 0.29088637 0.41732103 1.0756103 0.54785454

_orig_mod.rnn.bias_hh_l0 f4 [384]
00000000: 7d2b 96bd cb50 193f 1844 a5be b995 813d
00000010: a54c 4ebf db8f 2b3f f30e b33e 9954 073f
00000020: 1cc6 fd3d 9039 bbbe f0a4 d3be 7858 5f3e
00000030: 7abc 0c3f 5747 d33d a3a3 403e 839e 39be
00000040: 6fc2 a1be 4af5 ce3e 197f d0bd 4bd6 e83c
00000050: e8c5 33be 9695 6b3f 0cf7 c3bd c898 a33c
00000060: c73c 02bf dbce cc3e 3e9f b73e ed80 42be
00000070: 9d18 213f b2e1 3dbe 90f0 783d 3828 f53d
00000080: e142 a33e 7625 3e3f 1249 08be 1a95 f6bd
00000090: 6e3a 623f 371d 5f3e 30cc de3d 87c3 313f
000000a0: e75f 383f e211 223e ca7e 033b e065 6c3f
000000b0: 1b87 303d 7508 43bc 71f0 a6be 55e8 153e
000000c0: 0378 e63b 2d8f 953e 688a bbbe ff03 91bd
000000d0: db26 333f 6e13 e83e 45b8 203f 0d74 603e
000000e0: ff20 423e 8f92 3cbe a9ba e13e 58f7 58be
000000f0: 5163 9a3e 0075 523e bd4b c13e fcd1 633d
00000100: 1680 023e 3bd3 7b3e 4104 023e 392e be3d
00000110: 1d96 9dbe 5aee 99bd 0ad7 59bd 86b3 3cbe
00000120: 8625 c93e 0917 f4bd 7fd0 b73e 5347 4f3f
00000130: 55d9 973f de0e d13d 0f29 0e3f cbe6 023f
00000140: 503f c53e fe02 0f3e ec04 5fbe 4d1c b8be
00000150: d563 2cbe a85f ab3e c9ff f43d ff34 b93e
00000160: 0a97 393e 6fb0 bb3e 7231 913d 653a 1ebd
00000170: 953c f13e 9539 97be 3795 403f a35d 9fbe
00000180: b6a7 c63e 5f0a 2d3f 3b7b 483e 6767 913e
00000190: 3a9c 12bd bdab 053f cbdc 32be 193d ffbe
000001a0: b00e fb3d 003a 9a3b 32bd e13c 389e af3e
000001b0: 2569 fabd 1b29 dd3d 9e97 8abe 0a01 90bc
000001c0: 24eb b63c 8835 a6bd 22b9 a5be 016b 453f
000001d0: 10ee 173f 6ee9 26bd 3e91 a8bd 2597 853e
000001e0: 514f c23e d782 ccbe 732b 093e 4d70 173e
000001f0: ad86 6d3e af67 cabd 0e4f 05bf 0acb f43e
00000200: 0f32 b33f cc3a 9e3c e4f9 653f 0e9f 9b3f
00000210: 96d3 a53d c2fb 9e3f 4680 863f ba7e d23f
00000220: 93e5 883f 5d4e 5e3e 3e78 b33e c235 c43e
00000230: f046 a53f 838f 203f fe1c 8f3f 7c81 8c3f
00000240: d9fb 9cbe 7d36 5d3f 2036 b0bd 70fd 2d3f
00000250: a164 b53f e7c9 09be dd08 20bf 0e16 06bd
00000260: 7157 f53f a1cc 233f 00f5 c13e 1be3 9d3f
00000270: 5f44 67be 67c1 0f3f 3081 863f 30bd 453f
00000280: affc 20bd 08cd 973f cf3a 523f 8db0 943f
00000290: e6da 633f 9783 c8be 85ed b83f 15a7 ecbd
000002a0: 2fa2 2abd d698 083f 40c8 203f 4e74 983f
000002b0: 54e3 83be a435 963f 1cd8 ba3e 0a77 023f
000002c0: 7f00 f33e eb7d 20be 5889 1c3f 5873 7f3f
000002d0: 3278 dabe f17e 483f 8005 4a3f 3d81 993f
000002e0: a775 663f 7957 adbe c088 913f 4d8f d63f
000002f0: c8b5 403f bd2a 9e3f 89e2 f93e 138d 0abe
00000300: a207 3f3f e0fd 81be 4e05 803e cafb 923f
00000310: 4fd7 a23f 1589 a33e 9d18 683f 23b9 ff3e
00000320: cd1a 693f 7f66 b63f 6c0c b23f a3b9 383f
00000330: 570b 78bf 2c18 bf3f 8a1f 853f 1951 4cbe
00000340: fab6 853e d630 5ebd a097 503f 623f ac3f
00000350: b727 913f a27f 1abe 1ec4 583f 109f a03d
00000360: 6dc0 fe3e adc5 a83f db74 633f 7ae8 123f
00000370: 303a 403f ebb7 cf3f e945 00bc 39a4 943f
00000380: c341 163f 9723 cb3f 64b6 b53f 27f8 a23f
00000390: 3f02 6f3f b351 103f 73dc 2a3f 72e5 833f
000003a0: 71bb a53f 0000 633f 7371 8b3f 7ed9 013f
000003b0: 8721 883f eac7 ab3f 91bc ef3e acf7 99bd
000003c0: dc14 6b3f 27b7 b23f 55a9 783e 33aa 763e
000003d0: 3e9d 023f 4821 9f3d d722 903f 0530 9c3e
000003e0: bc94 833e e82f a33e 06df 1b3f 132d 05be
000003f0: 2759 5e3e a5b2 d33e 646f 993f e113 0f3f
-0.073325135 0.59888905 -0.32278514 0.063273855 -0.805857 0.6701638 0.34972343 0.5286346
0.12391302 -0.36567354 -0.41336775 0.21811092 0.5497509 0.10316341 0.18812422 -0.18126874
-0.31593654 0.40421516 -0.10180492 0.028422495 -0.17555964 0.92025125 -0.09568605 0.019970313
-0.5087399 0.40001568 0.3586368 -0.18994494 0.6292818 -0.18543127 0.060776293 0.11970562
0.31886962 0.7427591 -0.13309124 -0.120401576 0.88370407 0.21788488 0.108787894 0.69438976
0.72021335 0.15827134 0.0020064586 0.9234295 0.043097597 -0.011903872 -0.32605317 0.14639409
0.0070333495 0.29210797 -0.36629033 -0.0708084 0.69981164 0.45327324 0.62781173 0.2191927
0.189579 -0.18415283 0.44087723 -0.21188104 0.30153897 0.20552444 0.37753096 0.05562018
0.12744173 0.24592297 0.12696935 0.0928616 -0.3077859 -0.07516165 -0.053183593 -0.18427858
0.3928644 -0.11918456 0.35901257 0.8096821 1.18632 0.10207914 0.555314 0.5113341
0.38524866 0.13965985 -0.21779221 -0.35959092 -0.16834958 0.33471417 0.1196285 0.36173245
0.18124023 0.36658046 0.07089509 -0.038629908 0.47116533 -0.2953612 0.75227684 -0.31126127
0.38799828 0.6759395 0.19578259 0.28399202 -0.03579352 0.52215177 -0.17467038 -0.498513
0.12258661 0.004706621 0.027556036 0.343004 -0.12227086 0.10798856 -0.270688 -0.01757862
0.02232892 -0.08115679 -0.32367808 0.771164 0.5934763 -0.04074996 -0.08230828 0.26091877
0.3795114 -0.39943573 0.13395481 0.14788933 0.23195906 -0.09883057 -0.5207375 0.47811157
1.3999652 0.019315146 0.8983443 1.2157915 0.080969974 1.242058 1.0507896 1.6444924
1.069506 0.2170958 0.35052675 0.38322264 1.2912273 0.6271898 1.1180723 1.0977015
-0.30660895 0.8641127 -0.086040735 0.6796484 1.4171335 -0.13455926 -0.62513524 -0.032735877
1.916731 0.63984114 0.37882233 1.2334932 -0.22584675 0.56154484 1.0508175 0.772418
-0.039303478 1.1859446 0.82120985 1.1616379 0.8900589 -0.39162895 1.4447485 -0.11555306
-0.041658577 0.5335821 0.6280556 1.1910493 -0.25759375 1.173512 0.36493003 0.5096289
0.47461316 -0.15673034 0.6114707 0.99785376 -0.42669827 0.783187 0.7891464 1.1992565
0.90023273 -0.338558 1.1369858 1.6762482 0.75277376 1.2356793 0.48805645 -0.13530378
0.7462102 -0.25389004 0.25004047 1.148309 1.2721957 0.31940523 0.90662557 0.49945936
0.9105652 1.4250029 1.3910041 0.7215826 -0.96892303 1.4929252 1.040025 -0.19952811
0.26116163 -0.054245792 0.8148136 1.3456843 1.1340245 -0.1508775 0.8467425 0.07842839
0.49756184 1.3185326 0.8885018 0.5738598 0.7508879 1.6228002 -0.007829168 1.1612617
0.58694094 1.5870236 1.4196286 1.273198 0.933628 0.56374663 0.6674263 1.0304396
1.2947828 0.88671875 1.0893997 0.5072249 1.0635232 1.3420384 0.46823552 -0.07517943
0.91828704 1.3962144 0.24283345 0.24088363 0.5102118 0.0777002 1.1260632 0.30505386
0.25699413 0.31872487 0.6088718 -0.13005476 0.21713696 0.41347232 1.1987119 0.5588971

_orig_mod.rnn.weight_ih_l1 f4 [384, 128]
00000000: e519 9b3e 99a5 9f3e 7ce6 7cbe 8119 2f3e
00000010: 2455 b8be 6469 bdbd 8b64 543e ba9c 833e
00000020: 6c05 b53e 472b c13c 535d c3bd 0d24 16be
00000030: 1473 18bc 845b 443d d866 2b3e 6bb6 c93e
00000040: 6ccc 123f 46a0 8ebd a897 523e 269c babc
00000050: f94f bc3d 1a06 703e 817d 7fbe 41d4 7d3e
00000060: d8ab 2bbf 2267 17bf 58d9 c9be ad81 53bd
00000070: 32b2 25bd b5c3 82be 84b1 87be 4f2b 35bd
00000080: ef82 64be 963b 123f 5feb 303e 8374 993d
00000090: 0e1b 2cbe da82 35be 8a64 943e 8614 38bb
000000a0: 6bcb adbe f7b3 213e 754c 39bc e7d0 74be
000000b0: b308 81bf 0c01 ab3e f0e6 dfbe 4028 633f
000000c0: ce83 28bf cab2 a23d 5168 2dbe b363 bdbe
000000d0: 00e0 bfbe f862 0abe 382a 76be 2ed4 763e
000000e0: f372 b7be 8c71 edbd 36ed 8dbe 82ea 62be
000000f0: bf8f 263e 6f82 d9bb 1d9b d0bc 9747 54be
00000100: 4360 d9be 2345 943b 640d 3f3f acf3 943d
00000110: 1cb2 973e 4859 d83e 4439 19be 59f9 8e3e
00000120: dc27 3c3f 7286 043f e768 453e aeff 393f
00000130: 2b27 73be a0ac fdbe 70eb e43e f919 443e
00000140: 5af5 133f 1873 843e 069a 21bf 4d99 b83e
00000150: 7abd 223f d6a1 a73e 19de e8be 7a48 2fbf
00000160: 5223 7abf cf15 913e da66 8c3e 42a1 b93d
00000170: 8253 46be 5e74 0abe a996 b43e 4f95 18bf
00000180: fe3b ebbe 3170 d93d 6ef3 20bf f546 75bf
00000190: ac9c dbbe 5965 153d 312f 053f b0c4 d2be
000001a0: a0ba 86be ec15 df3d ab05 41bd f2a5 b53e
000001b0: e040 083f e49f 1f3e 9bcf 193f 8887 e33e
000001c0: 7ef8 b13e 3545 d4be 8052 693d 19bc 4ebe
000001d0: cd47 853d b0a3 d83e 8bcf 5c3e 60c5 d5be
000001e0: 8faa 783e a508 983e eb0f 333c 34e4 65bf
000001f0: e814 153e dfea 5d3d 435a c93e 57fc 2bbe
00000200: 20c4 e8be 7e8e e1be 6ee4 90bd 3362 f1be
00000210: 6a37 5a3d 1d26 a8bd 40b1 093d d811 c4be
00000220: e6c9 e7bd 8c59 62bd 6de9 91be 8db0 6abe
00000230: 9ca9 1f3f c4fd 3c3e d112 703e 44ff af3d
00000240: 1cda 013f d297 823f e15c e23e fdf1 e0be
00000250: c0ed d43d 1c1b b93e f961 41bf cc05 173b
00000260: 9436 213e 214d 86bd 9c3b 093f a3b7 acbe
00000270: 27fa 87be 040f a6be 7cfc 363e 535f c4bd
00000280: c510 463e 41d4 bb3e daf1 90bf e2a0 eebd
00000290: 38ff 2a3f 655c e5be f5c6 6c3c f8aa a5bd
000002a0: da04 40bd 161f d43e b35b a43e 6c43 3a3f
000002b0: d215 153e 523c 44be 9ae9 6abe 4a6f 66bd
000002c0: c337 72be fcfa 08bf 49d6 8a3e 1437 bd3e
000002d0: 9de5 c43d 7172 8d3e 6c9b e1be 19eb f93d
000002e0: cce1 5fbc 87b5 223e a646 33bf c2b9 19bd
000002f0: 01d8 b03e c610 c1be 6241 623d 77f5 063f
00000300: 87ab 75be cf65 b9bd 6f5e b7be a40b dcbd
00000310: 0154 02bd a7d2 9cbe c9b2 a0bd 3aa5 d93e
00000320: 88c9 b43e f86d a53e 33dc 1b3f 5d41 9cbe
00000330: 3089 c23e 191e d5be 559e 56be 267c 5c3d
00000340: 3e90 3c3f 3d1a 483f 788f f83e e78b 78bf
00000350: 07a2 eebe 8067 bc3c 21e0 cf3b 1c1a 91be
00000360: add8 3dbe 636b 513e 7168 3fbf 5944 8b3f
00000370: b781 03bf edb3 933e 464c 40be 7d5a 07bf
00000380: 991c 69be e01b 273f 8cb5 d4be 4dd8 643e
00000390: 6fcb 90bd f682 733d bfc7 143d 2c2c b33d
000003a0: ee88 90bf f89b 2e3f f982 893e 18c3 e13e
000003b0: 14e9 ebbb 4bb2 0bbf 9b07 313d 6493 3f3f
000003c0: 40a7 4cbe b263 ec3c 1902 89bf 6ada 14bf
000003d0: d459 db3e 6534 d23e db51 82bd 59d2 81be
000003e0: ddc4 a1bd 6327 a6be 3a97 d8be 037b 3ebf
000003f0: c3c3 7a3e 31f3 7bbd bd82 15bd 1a1b 36bf
0.30293193 0.31181028 -0.24697298 0.17099573 -0.36002457 -0.09248617 0.20741479 0.2570551
0.353557 0.023580207 -0.095392846 -0.1466219 -0.0093047805 0.04793884 0.1673845 0.39396986
0.57343173 -0.069641635 0.20565665 -0.022779536 0.09194941 0.23439828 -0.2495022 0.24788
-0.6705909 -0.59141743 -0.39423633 -0.05163734 -0.040453143 -0.25539938 -0.2650262 -0.044230755
-0.22315572 0.5712217 0.17277287 0.07492926 -0.16807196 -0.17725697 0.28982955 -0.0028088405
-0.33944258 0.15791307 -0.011309733 -0.23907815 -1.008078 0.33399236 -0.4373088 0.8873329
-0.6582612 0.079442576 -0.16934325 -0.36990127 -0.37475586 -0.13514316 -0.24039543 0.24104378
-0.35829887 -0.11593923 -0.2772004 -0.2215977 0.16265772 -0.0066378633 -0.025464589 -0.20730434
-0.42456254 0.0045248433 0.7462981 0.07273039 0.29628074 0.42255616 -0.14963251 0.27924612
0.7349832 0.5176765 0.19278298 0.7265576 -0.2374541 -0.49545765 0.44710875 0.19150533
0.5779625 0.2586906 -0.63125646 0.3605446 0.6357037 0.3274066 -0.45481947 -0.68469965
-0.97710145 0.2833695 0.2742222 0.090639606 -0.19367793 -0.13520953 0.35271195 -0.59602827
-0.45944208 0.10617102 -0.62871444 -0.95811397 -0.4289297 0.036473606 0.52025133 -0.41165686
-0.2631426 0.10892853 -0.047124546 0.3547817 0.5322399 0.15588337 0.60082406 0.4443934
0.34759897 -0.4145905 0.056963444 -0.20188941 0.065078355 0.42312384 0.21563546 -0.41752148
0.24283813 0.29694095 0.010929088 -0.89801335 0.14558756 0.05417907 0.39326677 -0.16795479
-0.45462132 -0.44054025 -0.070748195 -0.47145233 0.053275503 -0.082103945 0.033616304 -0.38294864
-0.11317806 -0.05526118 -0.28498402 -0.22918911 0.6236818 0.18456179 0.23444678 0.0859361
0.50723433 1.0202582 0.44211486 -0.43934622 0.1039691 0.36153495 -0.7554012 0.0023044227
0.15743476 -0.0655768 0.5360658 -0.33733854 -0.2655804 -0.3243333 0.17869753 -0.09588494
0.19342335 0.36685374 -1.1323807 -0.1165178 0.6679568 -0.44797054 0.014451732 -0.0808925
-0.046879627 0.41429967 0.3210121 0.7275913 0.14559105 -0.19163635 -0.22940674 -0.056258477
-0.23654084 -0.5350797 0.27116612 0.36956084 0.09614108 0.27626374 -0.4406389 0.122030444
-0.013664674 0.1588956 -0.70029676 -0.037530668 0.34539798 -0.3770811 0.055238135 0.527183
-0.23991214 -0.090526216 -0.35814235 -0.10744408 -0.031818394 -0.30629465 -0.078466006 0.4250887
0.35310006 0.32310462 0.6088287 -0.30518618 0.3799529 -0.41624525 -0.20958836 0.053829335
0.73657596 0.78165036 0.48546958 -0.97088474 -0.46607992 0.022998571 0.006343857 -0.28340232
-0.18539687 0.20451121 -0.7476874 1.0880233 -0.51369804 0.2884821 -0.18779096 -0.5287245
-0.22764815 0.6527691 -0.4154476 0.22348137 -0.07070052 0.059451066 0.036323305 0.087486595
-1.1291788 0.6820674 0.26857737 0.44094157 -0.007199416 -0.5456893 0.043220144 0.74834275
-0.19985676 0.028856132 -1.0703765 -0.58145773 0.4284197 0.410556 -0.06363269 -0.25355795
-0.07898877 -0.32451925 -0.42302877 -0.7440645 0.2448874 -0.061511222 -0.036501635 -0.71135104

_orig_mod.rnn.weight_hh_l1 f4 [384, 128]
00000000: 802f cc3f a0d2 4f3f c634 01be a091 773e
00000010: 3857 9c3e 4b74 ca3d e157 d73d f0d1 0fbc
00000020: cac1 34bf 7abc a4bd 7e20 b13e f82e 9bbe
00000030: 0182 13bf 625f 0a3e 246d c5bd a928 f6be
00000040: de01 7c3f 8835 7a3e 5c2a 823f 4544 2abf
00000050: eadf 8bbe 3016 1b3f 2168 d0bc 5b2d 95be
00000060: 56af fabf ffe3 0dbf 2e0c 883e d030 fcbd
00000070: feb9 cebe aec6 4dbe 6a2c 523f 1c66 88bf
00000080: a96e 9a3f 71e6 29bf 9f7f d9be 4108 ef3d
00000090: e0c4 5abf c089 cf3e 2f26 093f 7821 833e
000000a0: 431c 113f 3cd9 0cbf 4b00 8dbd 83db a33f
000000b0: d74a 2bbd ee1b 303f d732 ea3d 3bfb 82bf
000000c0: 0b21 abbc bad1 5f3f b548 d33e 2c18 613e
000000d0: b8f5 8e3d a434 353e 4b1f 923d 66d5 023f
000000e0: 9c53 32bd e61e 25bf 8596 8c3d a321 58be
000000f0: a223 473f d0b4 bfbe 44ba 5dbf f8b7 c53d
00000100: b9ac 723e 6af3 f5be e986 623d 4840 a53e
00000110: 2035 793c 92d2 443e 125e 5c3f e8ef 1a3e
00000120: 74ee 0a3f d9e7 3f3f 68ed 1abe 9c76 5c3e
00000130: 2e80 a1bf 5811 163f c903 063f 75ba 2abf
00000140: 57af 073e 80f6 5e3f 8f66 66be 7bd3 0bbf
00000150: dabd 223f 8ee9 6c3e d0aa d3be ff9e 84bf
00000160: ba78 4a3d 0df8 fe3e 3bc8 2dbe be85 fa3d
00000170: 45dd a4be 2501 90be 4d49 26bf e808 553d
00000180: 2ecf 743f 803d 3dbf b906 95be f2c0 01bd
00000190: 7dc0 883e 6d2b d13e 58b7 dabe 7f5b 7bbf
000001a0: 260d 923e 4a88 c93d fd16 03bf 000d ab3d
000001b0: 278a fdbe cfd1 9bbe ec9f c5be 5328 a2bf
000001c0: 8c78 38be 2aa2 72be dc0e 96bf 0b8f ccbe
000001d0: 8412 41be ba6f a4bd b99e 863f cd36 003f
000001e0: 3817 0e3f bb24 02bc 9546 88bf a96f 92be
000001f0: b2d8 893f 30e4 d0bf a821 9fbf 2622 9ebd
00000200: b8d9 c93d 97bc 85bf 9a7b 893e b584 153f
00000210: eb5a 843d f2b8 c93e 29a9 c7be e0ef d73d
00000220: 625b 88be f125 c03e 3626 e33d 7e87 7ebe
00000230: 1c99 223f 2bb9 62bf 8fba ffbd e86d db3e
00000240: e37b 04bf 3b3a 41bf 832f 073f 66a0 0bbf
00000250: 25b6 49be 46ab dd3e 48c5 4a3c 0804 673e
00000260: cffd e0bd 2963 64bf ba02 18bf 034b f83f
00000270: 17fd fbbe 196f b9be 125d 853e d63a 1bbe
00000280: e457 e4bf d518 36bf b58c 753e 7d29 14bf
00000290: 1ac7 923c d9fb 76be e2f5 dabe 79fe 69bd
000002a0: 1f19 95be 71cf 97bf d0c3 ad3e e5bd c73f
000002b0: 0989 09bf 7b59 69be 57c8 013e c888 60bf
000002c0: a4f1 a6be 1d94 893e 4129 eb3e 0d85 d53d
000002d0: 5b68 4cbe 0c6b 98bd 7042 ffbe 9703 29bf
000002e0: 5b9a 04bf b2b9 cbbc 4eb8 28bf f372 64bd
000002f0: c37e 1fbf 8fb1 783e 027f 87be 70c1 30bf
00000300: 93df 8bbd 0532 0a3e 5835 e6bd c3aa 6b3f
00000310: 3271 823f a515 45bf ff14 aabe 9482 ef3d
00000320: 320a 983e 34b3 6c3d 391b 13bf 5e20 54bf
00000330: 5e81 8f3f 1645 d43e 8b62 3bbe 2129 093e
00000340: 0227 013e c51b d7be ab12 723e 8f50 393f
00000350: c279 52bf b596 54be cd62 12be a532 943d
00000360: f9d5 58bb cf82 903e 9431 f33d bcd9 6abe
00000370: f6ee 3c3d 1891 a13d ee14 20bf d95e 053f
00000380: dc95 f5bd eacc 513d afe9 393e 4816 8a3e
00000390: 0d2f 37be dd70 3ebf 8568 0abf f300 7dbd
000003a0: 49c5 d2be c900 33bf d74e b13e d21f d63e
000003b0: a0ca a3bb 672e a2bf 82a5 db3e 4118 45bf
000003c0: 59d9 2ebd 744b 30be 1a26 233f 8992 a1be
000003d0: 4d3c 8bb8 4390 773f 307f 27bf 2a7e 093f
000003e0: 4f87 2dbe f438 acbe 7556 073f 779d 01bf
000003f0: 213e 3dbe 417f 0f3f a047 8ebf e1ff 223d
1.5951996 0.81180763 -0.12617788 0.24176645 0.30535293 0.098854624 0.105148084 -0.00877808
-0.706082 -0.080437616 0.34595102 -0.30309272 -0.57620245 0.13512948 -0.096399575 -0.48077896
0.9844035 0.24434483 1.0169177 -0.6651042 -0.2731927 0.6058073 -0.025440278 -0.29136166
-1.9584758 -0.5542602 0.26571792 -0.12313998 -0.40376276 -0.20095322 0.8209902 -1.0656161
1.2065021 -0.6636725 -0.4248018 0.11671496 -0.8545666 0.40534782 0.5357389 0.25611472
0.5668375 -0.55018973 -0.068848215 1.2801365 -0.04181942 0.6879262 0.11435478 -1.023292
-0.02088978 0.8742939 0.4126641 0.21981877 0.06980461 0.17695862 0.07134875 0.5110687
-0.043536767 -0.6450027 0.06864647 -0.21106581 0.77788746 -0.37442636 -0.86612344 0.0965423
0.23698701 -0.48037273 0.05530444 0.32275605 0.01521042 0.19220951 0.8608104 0.1513058
0.542701 0.74963146 -0.15129626 0.21529621 -1.2617242 0.58620214 0.52349526 -0.6669076
0.1325048 0.8709488 -0.2250006 -0.5461957 0.6357094 0.23135969 -0.41341257 -1.0361022
0.04943154 0.49798623 -0.16970913 0.122325405 -0.32200065 -0.28125873 -0.649556 0.052010447
0.9562863 -0.73921967 -0.2910669 -0.031678148 0.26709357 0.40853444 -0.42718005 -0.98186487
0.28525656 0.09840448 -0.5120695 0.08352089 -0.49519464 -0.3043351 -0.38598573 -1.2668556
-0.18014735 -0.23694673 -1.1723285 -0.39952883 -0.1885472 -0.08029123 1.0517188 0.5008362
0.5550418 -0.007943328 -1.064654 -0.28600815 1.0769255 -1.6319637 -1.2432146 -0.07721357
0.0985598 -1.0448178 0.26852113 0.5840562 0.06462654 0.39398915 -0.38996246 0.105437994
-0.2663222 0.37528947 0.110912725 -0.24856374 0.63514876 -0.88563794 -0.12486755 0.4285729
-0.51751536 -0.7547948 0.5280687 -0.54541624 -0.19698389 0.43294734 0.012376137 0.22560132
-0.1098591 -0.89213806 -0.5937916 1.9397892 -0.4921653 -0.36217573 0.2604757 -0.15159163
-1.7839322 -0.7113164 0.23979457 -0.57875806 0.017917205 -0.2411951 -0.4276572 -0.05712745
-0.29120728 -1.1860181 0.33938456 1.5604826 -0.53724724 -0.2278804 0.1267408 -0.8770871
-0.32606232 0.26870814 0.45929912 0.10425768 -0.19961683 -0.074422926 -0.49855375 -0.660211
-0.5179803 -0.02486882 -0.65906227 -0.055773687 -0.623028 0.24286483 -0.26464087 -0.6904516
-0.06829753 0.13495643 -0.11240643 0.92057437 1.0190794 -0.7698615 -0.33219144 0.11694828
0.29695278 0.05778809 -0.57463413 -0.8286189 1.1211355 0.41458958 -0.1829931 0.13394596
0.12612537 -0.42013374 0.23639934 0.7238855 -0.8221704 -0.20760615 -0.14295502 0.07236222
-0.0033086522 0.282248 0.11874691 -0.22934622 0.04612633 0.078890026 -0.62531936 0.5209785
-0.11991474 0.051220812 0.1815555 0.26970124 -0.17889042 -0.74390966 -0.54065734 -0.061768483
-0.41166142 -0.69923073 0.34630463 0.41821152 -0.00499852 -1.2670411 0.4289971 -0.76990134
-0.042687748 -0.17216283 0.63730013 -0.3155711 -6.6392684e-05 0.967045 -0.6542845 0.53708136
-0.16946147 -0.33637202 0.528663 -0.506309 -0.18480732 0.5605355 -1.1115608 0.039794806

_orig_mod.rnn.bias_ih_l1 f4 [384]
00000000: 86ae a93d 5d6e 153f f97e ac3e b67d a23e
00000010: db01 0e3f 03d8 b53e 0cb1 453f 4f0e 153f
00000020: 77b5 f9bd 5a70 113f ce07 023e 53f0 593e
00000030: 0a09 d03e 60bf 2dbe 9867 923e ce98 32be
00000040: 2212 e73e fd75 8f3e 04d5 843d 8243 03be
00000050: 2652 e73e 4ba3 f3be 075f ad3e 08ab 123e
00000060: 64a9 073f 9ec7 673e 71ea 653e a621 46be
00000070: cea6 1f3f c893 8f3e 6e68 bc3d 72ef 6c3e
00000080: 6e0b 00be cf5e 1dbe 3ff0 953e ac4a 053f
00000090: fb5b 1dbe 8ec4 8bbe 360c a23e 74f3 5a3f
000000a0: 711b 973e 56bc 8ebc f51c 2fbe 09bd b93e
000000b0: 1d7c 19bf 966e cb3d d2ea c53b 5d6c c23e
000000c0: a9be 3b3f f4de 27bd 1d6d 86be d87d ce3e
000000d0: 1f53 883f 0777 133f c8f2 393e 106b 533c
000000e0: 9aae 8c3e 54c2 f83e 5a21 9c3e 9980 d8be
000000f0: a1c9 943e 69f7 96be 1dde babe f6b0 033e
00000100: f51f 8a3e a481 8d3d 0e4f 623f e463 2e3e
00000110: 8541 933d f8e1 7e3d 5b89 183f cbd4 04be
00000120: 42fb db3d 51f7 3abd 59f7 8a3e 3f3b 5b3f
00000130: 96b3 71be 43ce 563e 7fba 053d a9be 213f
00000140: c6be 9c3e 6b20 ddbd f64d 293e 9eac 1dbe
00000150: b9a4 953d ce26 72be 78d0 303f e700 8b3e
00000160: 94ce 183f 9da5 4c3f e03d 693f e234 3d3e
00000170: 0f7c 163e aa93 d83e 5cb9 823e d350 843f
00000180: 107a c0be 25cb 893e 02e9 93bd d912 c53f
00000190: cf42 cb3f ad90 43bd 976f 7cbe 57c7 df3e
000001a0: 2a0f 2bbe 2d12 0b3e c966 ec3d 1d26 1e3f
000001b0: 1f32 c13c cee5 c7be 3b07 7b3e eb5d 863d
000001c0: 2252 8dbe 9619 2a3f 8810 ec3d 5f7a 473f
000001d0: 5081 363e 6954 1f3f 10d3 6ebd 216e 073e
000001e0: a863 a33e 46f9 f43e ff39 5bbe f9ff 1ebe
000001f0: f344 003f a5c5 a23c b59e 163f 48f4 3f3f
00000200: 97af 2d3f b8a5 c23e 944a a6be 123d f4be
00000210: 3a11 0c3d 13b0 df3e d0dd 8dbf 27eb 90bd
00000220: 72f8 4f3f 111d 9e3b 6a67 9abe 1cdb cdbd
00000230: 8da5 c93e 04e2 19be 5d8e 21bf 2cd5 1c3f
00000240: 926e 503e 1f5c d7bc 74ac 403f 028f 80bd
00000250: 7f47 a13e a653 563e bb91 363e ba71 093f
00000260: 552f 00bf 6bb3 013f 26fd 473e b9ea 7a3f
00000270: 1a57 88bf a76a fcbe fa2e 42bf ab01 163f
00000280: c54a c93e ce54 453f 455e 8dbe 0728 bcbe
00000290: 286e 8ebe 5c70 213f a15a 473f f1bb 25c0
000002a0: 6132 153f 3fd9 423f ba1b 57be 35ac 373f
000002b0: 478d 943f e30c 29bd 86a4 573f bce1 0c3e
000002c0: 396a 39bf 4137 c7be 7f02 2a3f 2c40 823f
000002d0: 6e46 babf 1ee5 08bf 47b5 013f 1813 df3e
000002e0: 4f61 503d 4d13 233f 388b c03e 5164 043f
000002f0: 9121 d03c b2ed d9be 0900 7e3f 9443 313f
00000300: 7559 ee3e d252 243e 759d 1ebf 8b28 613e
00000310: 7447 003d 49d7 623f df11 1a3e 3b44 2fbf
00000320: 21c8 d3be 9d92 113f d137 193f 248b 31bf
00000330: ad4f 203f 9b11 903f b1bd d7ba dee9 c13e
00000340: 985c 9cbe 7770 213f 3621 c53e 1424 033f
00000350: c75f 793f 486f cabe 514c 2abf a01f 413f
00000360: 38ec e53d 8ad2 54bf e7df acbf 8f35 933e
00000370: 5cc7 99bd e851 24bf 5852 873e 1a92 b4bf
00000380: b8c6 153f d84b debe 4a5c d23e 1683 d8bf
00000390: ed3a bfbf b556 2fbf b828 103f 3a49 4abf
000003a0: 7fec 0b3f e196 a6be 6d2b 773f 9b29 bb3d
000003b0: 64e4 083f 6f27 d43e fd7d 02be d3bf 8a3f
000003c0: 48a7 e13e 3d0c 5e3f 83fc b73e a1b8 873d
000003d0: 8d82 7b3e 0699 34bf 325e 8d3f c3f0 b53e
000003e0: 6921 433f 093a 42bf aadd 1f3f b6b0 b33d
000003f0: e56a 193f 72ce 603f fd6e 593f 741f 343f
0.08285241 0.58371526 0.33690622 0.31736535 0.5547158 0.35516366 0.7722328 0.5822496
-0.12192815 0.5681206 0.1269829 0.21283083 0.40631896 -0.16967535 0.2859466 -0.17441103
0.45131022 0.28019705 0.06485942 -0.12818721 0.45179862 -0.4758552 0.33861563 0.14323056
0.52992845 0.22634742 0.22452714 -0.19348773 0.623639 0.28042436 0.09199606 0.23138216
-0.1250436 -0.15368198 0.29284856 0.52067065 -0.15367119 -0.27298397 0.3164994 0.8552773
0.29513124 -0.01742379 -0.1710089 0.36277035 -0.59955007 0.09933202 0.0060399557 0.379733
0.733378 -0.04098411 -0.26255122 0.40330386 1.0650367 0.57603496 0.1815902 0.012903944
0.2747696 0.4858576 0.30494195 -0.42285612 0.2906008 -0.29485634 -0.36497584 0.12860474
0.26977506 0.069094926 0.8840188 0.17030293 0.07190231 0.06222722 0.5958459 -0.12971799
0.10741283 -0.045646016 0.27141836 0.8563728 -0.23603663 0.2097712 0.03264856 0.6318155
0.306143 -0.10797199 0.16533646 -0.1539788 0.07306809 -0.23647615 0.690681 0.27149126
0.59690213 0.79940206 0.9111004 0.18477204 0.14695762 0.4230016 0.25532043 1.0337166
-0.37593126 0.269128 -0.07222177 1.5396377 1.5879763 -0.047745395 -0.24651943 0.43706772
-0.16705003 0.13581152 0.11543042 0.61776906 0.02358347 -0.39042515 0.24514477 0.06560882
-0.27601725 0.6644529 0.115265906 0.779211 0.17822766 0.62238175 -0.058306754 0.13225605
0.3191197 0.4784643 -0.21408843 -0.15527333 0.5010521 0.019869635 0.5883592 0.7498212
0.67846054 0.38017058 -0.32478774 -0.47702843 0.034196116 0.4368902 -1.1083317 -0.07076102
0.8123847 0.0048252423 -0.30157024 -0.100515574 0.39384118 -0.15027624 -0.63107854 0.61262774
0.20354679 -0.026289044 0.7526314 -0.062772766 0.3149986 0.20930347 0.1782903 0.5368916
-0.5007222 0.50664395 0.19530162 0.9801441 -1.0651581 -0.4930012 -0.7585293 0.58596295
0.39314857 0.77082527 -0.27610984 -0.36749288 -0.27818418 0.6306207 0.77872664 -2.589596
0.5828 0.7611274 -0.2100667 0.7174714 1.1605614 -0.041272055 0.8423542 0.13757986
-0.7242771 -0.38909343 0.6641006 1.0175834 -1.4552743 -0.53474605 0.5066723 0.43569255
0.05087405 0.63701326 0.37606215 0.5171557 0.02540663 -0.4256416 0.99218804 0.6924374
0.46552625 0.16047218 -0.6195901 0.21988122 0.031318143 0.8860975 0.1504588 -0.68463486
-0.41363624 0.5686434 0.59850794 -0.69352937 0.62621576 1.1255373 -0.0016459731 0.3787374
-0.30539393 0.6306223 0.385019 0.51226926 0.9741177 -0.39538026 -0.665227 0.7543888
0.11226696 -0.8313376 -1.350583 0.287518 -0.07508728 -0.6418748 0.2643001 -1.4107087
0.58506346 -0.4341724 0.41086036 -1.6915004 -1.4939858 -0.6849168 0.5631213 -0.79017985
0.5465774 -0.32536986 0.9655064 0.09138795 0.53473496 0.41436335 -0.12743373 1.083979
0.44072938 0.86737424 0.3593484 0.06627012 0.2456152 -0.70545995 1.1044371 0.3553525
0.76222855 -0.75869805 0.6244761 0.08773939 0.59928733 0.8781501 0.8493498 0.70360494

_orig_mod.rnn.bias_hh_l1 f4 [384]
00000000: 3685 e13d 99d3 193f f240 bd3e e8cf b33e
00000010: 7c05 343f 9266 b83e 4165 543f 5b38 143f
00000020: 7615 1ebd 85c8 113f 015e 683e a18b 833e
00000030: 7c36 cf3e fd83 a7bd 3ecc ba3e b4f2 a7be
00000040: 826d cd3e 11de bd3e 52d6 b83d bf29 53be
00000050: 051a 043f 50b3 f1be be51 8c3e ed88 c13d
00000060: e585 2a3f b3c8 e73d 611d 883e f684 b6be
00000070: 341d 173f 1da3 653e 2d35 173e 3623 3a3e
00000080: 9614 b1bd 2b37 3cbe c2b6 923e ee2f 233f
00000090: 05e1 24be b44b 87be 7de2 a23e c897 3c3f
000000a0: 5244 e23e eda9 01be e101 3abe fe98 663e
000000b0: f66d 13bf 2d65 423e 8ab0 0cbd b4e6 9e3e
000000c0: c531 3b3f 3088 a4bd 28e7 7fbe aa39 c83e
000000d0: 5c1d 973f 1bf8 2f3f 5826 283e 7eb4 9ebd
000000e0: 33b4 3b3e bc56 0f3f 943e c03e e117 a5be
000000f0: 7b55 963e 4cb1 bebe 8683 bdbe b35f 833d
00000100: 630b 613e e395 683d 0295 633f 6bb4 4e3e
00000110: 89d3 5f3d e27e ac3d fb00 103f c13a 26be
00000120: 8837 91bc edee 06be 4b61 423e e75a 5a3f
00000130: a6bd 7dbe cab4 0b3e 45d2 043d ce56 1f3f
00000140: 8293 8a3e 4490 57bd 5d24 f63d 68be 06be
00000150: 61a1 e73d 21ca 30be 8c6e 353f b004 c63e
00000160: bf4c 073f 4b29 433f 9e57 723f 2237 403e
00000170: 255f fa3d 1951 d93e 453e 873e 5cc0 8e3f
00000180: 6c16 8dbe 630e 003e a517 91bd a54a c43f
00000190: d0c6 bb3f b2fe a5bd f914 8cbe e6c4 d33e
000001a0: b275 a3be 2973 7f3d 3260 953c 6a48 1f3f
000001b0: 2fb0 733d 42ef f2be b80b 2d3e 85ce 9a3d
000001c0: 2b51 14be 6bfb 3d3f d74d 3d3e b1c9 573f
000001d0: 29e7 283e 2f9d 083f 34c9 043b 84d6 b7bc
000001e0: 3df7 bb3e fb6c 043f d762 38be e043 a8bd
000001f0: 1db4 ce3e 44d3 ea3d f197 003f 1f79 2e3f
00000200: 5fb8 2f3f 497e ec3e 8d6a 8fbe 75a0 0ebf
00000210: 8534 f93b abfc 043f 336b 84bf 7c0f 71bd
00000220: e1a6 5d3f c6d8 113d c3fe 81be eaa3 05bd
00000230: 50ea fb3e d549 26be 6297 1bbf 8fd7 f73e
00000240: e77e 2a3d c377 d5bc 0552 373f abc0 94bd
00000250: 084f 943e 6446 fa3d 3961 553e 6e5e 1b3f
00000260: 9c23 21bf 3605 0c3f 2416 333e 75ad 5c3f
00000270: 8853 8dbf 3867 dabe d73b 2bbf 3c99 0c3f
00000280: c44a 043f 1c0b 5e3f dcde 92be bbb5 dbbe
00000290: 683b 95be acff 213f 3eb8 583f 74f3 28c0
000002a0: 4a27 213f 921c 3f3f d763 dcbd 9f5c 313f
000002b0: e665 933f 8fc3 3cbc 4df1 483f 6e63 f93d
000002c0: 0486 2dbf 79d5 93be 7019 2e3f db30 923f
000002d0: d180 b0bf 440d 06bf abe2 c93e 2f71 ea3e
000002e0: db88 173d a176 273f 5ffd c23e 70e2 0b3f
000002f0: d1b2 e33c 4e74 d0be bc1a 7b3f 1675 263f
00000300: c1be ff3e 0794 973d 89af 30bf 0756 8b3e
00000310: abb8 8fbc 08ef 663f db8d 163e a58f 3abf
00000320: c14d 9cbe 7bf0 203f 7677 193f 6448 15bf
00000330: 7dad 2f3f 2bf5 7e3f 750f 3abd 059c e43e
00000340: d088 96be f928 233f 7a01 e23e 6a6f 083f
00000350: 87c8 723f 7f2d f7be 4ef0 16bf 7160 433f
00000360: 8ac8 723e 3d0c 4dbf c6fb b5bf 97b0 963e
00000370: f90a b5bd bc82 25bf 8bc4 6e3e eb15 c0bf
00000380: 241e 1c3f 4fd0 dcbe c052 aa3e 9d1e ddbf
00000390: b5bd b9bf 2884 1bbf 66ab 143f 40d7 32bf
000003a0: 34ad fe3e 5f2e 81be 08f4 603f afb4 533e
000003b0: db95 073f c1ba c43e 8255 4fbe 20db 803f
000003c0: f28f b53e c6bb 563f e90d a63e 0cb1 303e
000003d0: 20af 103e 9132 2fbf fcaa 913f b325 ad3e
000003e0: c9c4 493f 1c25 33bf 7cdf 193f f553 45bc
000003f0: 7f89 0d3f cf1e 7c3f 8206 533f 7f26 393f
0.11011736 0.600885 0.36963612 0.35119557 0.7032087 0.36015755 0.82967 0.5789849
-0.038594685 0.56946594 0.2269211 0.25692466 0.40471256 -0.08179472 0.3648395 -0.32802355
0.4012261 0.37083486 0.09025253 -0.20621394 0.516022 -0.47207117 0.27406114 0.09449945
0.66610557 0.11317577 0.26584914 -0.35648316 0.59028935 0.22425504 0.14766379 0.18177494
-0.086465046 -0.1838042 0.28655058 0.6374501 -0.16101463 -0.26424944 0.31813422 0.736691
0.4419275 -0.12662478 -0.18164779 0.225193 -0.5758966 0.18983908 -0.03434805 0.31035388
0.7312282 -0.08033788 -0.24990523 0.39106494 1.1805835 0.68737954 0.16420877 -0.0774927
0.1833046 0.5599172 0.37547743 -0.3224478 0.2936209 -0.37244642 -0.37014407 0.064147376
0.21977 0.056783568 0.8889924 0.20186011 0.054645095 0.084226385 0.56251496 -0.1623335
-0.017726675 -0.1317708 0.18982427 0.85294956 -0.24779376 0.13643184 0.03242709 0.6224183
0.27065665 -0.052627817 0.120186545 -0.13158572 0.113100775 -0.17264606 0.70871806 0.3867545
0.5285148 0.76234883 0.94664943 0.18771031 0.12225179 0.42444685 0.26414695 1.1152453
-0.2755617 0.12505488 -0.07084588 1.533528 1.4670048 -0.0810522 -0.2735975 0.4136116
-0.31925732 0.062365685 0.018234346 0.6221987 0.059494194 -0.47448164 0.16899002 0.07558922
-0.14484088 0.7421176 0.18486725 0.8429213 0.1649443 0.53364843 0.0020261528 -0.022441156
0.36712065 0.5172879 -0.18006454 -0.08216071 0.4037179 0.11466077 0.50231844 0.68153566
0.686407 0.46190098 -0.2801098 -0.5571359 0.007605138 0.5194804 -1.0345215 -0.058852658
0.8658276 0.035607122 -0.2538968 -0.032627024 0.49202204 -0.16239102 -0.60777867 0.48406646
0.04162493 -0.026058083 0.71609527 -0.07263311 0.28966546 0.12220457 0.20837869 0.60690963
-0.6294496 0.5469545 0.17488915 0.86202174 -1.1041117 -0.42656875 -0.66888183 0.5492132
0.51676583 0.867357 -0.28685653 -0.42912087 -0.29146886 0.6328075 0.8465613 -2.6398592
0.62950575 0.7465297 -0.107612304 0.69281954 1.1515472 -0.011521234 0.78493196 0.12177168
-0.67782617 -0.28873804 0.68007565 1.142116 -1.3789312 -0.5236399 0.39430746 0.45789477
0.03699575 0.6541539 0.38083932 0.5464239 0.027795227 -0.40713733 0.9808767 0.6502241
0.4995022 0.07401281 -0.69017845 0.2721407 -0.017544111 0.9020848 0.14702551 -0.72875434
-0.30528072 0.62866944 0.5994791 -0.58313584 0.686241 0.99592847 -0.045424897 0.44650283
-0.29401255 0.63734394 0.44141752 0.53295004 0.9483723 -0.48276898 -0.58960426 0.7631903
0.23709312 -0.800968 -1.421746 0.29431602 -0.088399835 -0.6465261 0.23317163 -1.5006689
0.6098349 -0.43127677 0.33266258 -1.7274967 -1.4511019 -0.6074853 0.58074033 -0.69859695
0.49741518 -0.2523069 0.8787236 0.20674394 0.52963036 0.38423732 -0.20247462 1.0066872
0.35461384 0.8388027 0.32432488 0.17255038 0.14129305 -0.68436533 1.1380305 0.33817825
0.78815895 -0.699785 0.60106635 -0.012043943 0.5528793 0.9848451 0.82431805 0.72324365
