4.2_Analysis/Train_Models/model_3/GRU_SoftTripleLoss_final.pth (torch, 774603 bytes, 10 tensors)

_orig_mod.rnn.weight_ih_l0 f4 [384, 93]
000000 43 9a 89 3e 76 10 d8 bb b2 7d 38 3c 50 bf 86 3d
       0.26875505 -0.006593759 0.011260437 0.06579459
000010 b9 93 07 3e cb e0 19 3f 68 dd b1 3e 36 85 23 3e
       0.13239945 0.6010863 0.34739232 0.15968785
000020 4b ce ce bd 3c be 2b 3d 50 ea 0b bd 3e 0f 0c 3c
       -0.10097941 0.04192947 -0.034159005 0.008548556
000030 ff 58 0e be 59 a8 14 3e 03 98 59 3e a6 44 14 3d
       -0.13901137 0.14517345 0.21249394 0.03619828
000040 c5 82 ec 3d 59 6d be 3e 51 6f 09 3f 13 ff c4 3c
       0.1154838 0.371928 0.5368548 0.02404741
000050 b0 33 5e bd 48 4b 4b 3e ed 7b cd be 80 4d 56 be
       -0.05424851 0.19852936 -0.4013361 -0.20928001
000060 78 64 b3 be 3e 0b cf bd cc 9d ea 3d 9e ea ce 3d
       -0.3503759 -0.10109566 0.114558786 0.101033434
000070 44 45 97 3e 59 f7 c2 3e a2 4d ce 3d fc 95 a8 3c
       0.29545033 0.38079336 0.10073401 0.02057933
000080 d1 2c 31 bc c5 5c 99 3c f3 16 a9 bd 79 92 b0 be
       -0.010813908 0.018720994 -0.0825633 -0.3448675
000090 4a 33 a6 37 a4 f6 5f 3d 62 0b d7 3e e3 8d 26 3e
       1.9812625e-05 0.054678574 0.42000872 0.16265063
0000a0 bb ab b2 3e b4 ae a8 be 42 4f ed bd cb da a5 be
       0.34896645 -0.32945788 -0.11587383 -0.32393488
0000b0 18 a9 3c be 90 c6 12 3e 1b ae 16 3f fb f0 84 be
       -0.18423879 0.14333558 0.58859414 -0.25965104
0000c0 f0 7a 8e 3d 67 94 ce be db 10 fe bb da 2a 44 3d
       0.06957042 -0.40347597 -0.007753474 0.04789243
0000d0 e7 73 30 bf 8b 06 4f be 57 33 51 bd e1 4f 47 3e
       -0.6892685 -0.2021734 -0.051074352 0.19464065
0000e0 8e c4 24 3d 87 2d 50 be 85 84 ca 3c c1 53 6c 3d
       0.04022651 -0.20329867 0.024721393 0.05769706
0000f0 5e 30 51 3e 84 8a c9 3c 40 ef b5 bd 5e 97 3a be
       0.20428607 0.024602182 -0.08883524 -0.18221804
000100 f5 2d 8e bd 84 1a 08 bf 93 54 34 3d d2 e0 b7 bd
       -0.06942359 -0.5316546 0.04402597 -0.08978428
000110 83 a0 89 bd 48 85 bf 3c 6c a8 24 3e a3 7b 9f 3e
       -0.06720068 0.023378983 0.16079873 0.31149015
000120 85 95 56 bd 3f 5c c9 3e 96 24 f7 be f5 09 74 3e
       -0.052388687 0.3932819 -0.482701 0.23831923
000130 c3 d2 05 bf bc f2 d7 bc a1 80 f0 3d 42 32 7a 3e
       -0.5227472 -0.026360862 0.11743284 0.24433234
000140 a6 f2 67 3e d7 58 4f be 41 cc a2 be cd 4f 1d 3e
       0.22651157 -0.20248733 -0.31796458 0.15362473
000150 1a af 98 be e9 d0 b4 3e 73 34 0b 3e c0 c3 dc bd
       -0.29821092 0.35315636 0.13594227 -0.10779524
000160 9f 81 5e 3d 7f 13 b9 3e 00 ab 05 3f e9 1e 06 3f
       0.054322835 0.36147687 0.5221405 0.52390915
000170 bc d9 03 3e ad bd 91 3e 33 e7 5d 3d 5c 7c 7c be
       0.12876028 0.28465024 0.054175567 -0.24656814
000180 d2 43 8c 3d b1 c4 82 bd ab 01 5e be 23 7d 75 be
       0.06848873 -0.06385172 -0.21680324 -0.23973517
000190 96 03 de 3e 45 ec c0 3e 77 8e 6f be 64 4e 28 be
       0.4336211 0.3768026 -0.2339419 -0.16436154
0001a0 4a fe d3 3e 49 01 9d 3d fb 5b 1c be 39 2d a0 3d
       0.41404945 0.07666261 -0.15269463 0.078211255
0001b0 a3 e8 04 3f e9 2d 8e 3e 6a a0 b1 3c 2a 7f 90 3e
       0.51917475 0.27769402 0.021682937 0.28222018
0001c0 87 e1 17 be 6e 55 ef 3e a5 c7 9c be 9a 25 9d bd
       -0.14832126 0.46744865 -0.30621067 -0.076731876
0001d0 e7 8b 8d bd dc c1 6e be 6b 4b 85 be 52 1b 14 be
       -0.0691145 -0.23316139 -0.26034102 -0.14463547
0001e0 e6 86 c0 be e0 cf 23 3f e4 ef e1 3d 88 c6 e9 3e
       -0.3760292 0.6398907 0.11032084 0.4565928
0001f0 ac c3 ef 3e 25 11 27 be b6 c0 df bd 54 5c 18 bf
       0.46828973 -0.16315134 -0.109254286 -0.5951588
000200 96 31 ae 3e 62 89 13 bf 0b b6 b9 be a9 24 78 3d
       0.34022206 -0.57631505 -0.362717 0.060581837
000210 ed 0a f0 bc e3 b4 d2 3e d1 63 e3 3d 5a 74 76 bd
       -0.029302085 0.4115363 0.11103023 -0.060169555
000220 b8 9d 29 3d 79 ac 66 3d 9e 96 f3 3d 71 8a 47 be
       0.041410178 0.056316826 0.11893962 -0.19486405
000230 d7 df d9 3e 58 50 b3 bc c6 d9 a8 bc 83 05 20 bd
       0.4255359 -0.021888897 -0.020611655 -0.039067756
000240 ab 9c c7 bd 79 f3 c3 3e ce 4e 32 3e a1 c5 0c 3e
       -0.09746679 0.38271692 0.17412874 0.13747264
000250 fd 0b 83 bd 69 c3 67 be 48 43 90 3b 6d e6 89 3d
       -0.06398771 -0.22633137 0.004402552 0.06733403
000260 e0 aa 39 3e 82 d5 9d be 0e 77 d2 bd 04 4e c9 be
       0.1813159 -0.30826956 -0.10276614 -0.39317334
000270 44 69 89 be cc 16 00 bf 2d ca b2 bd 65 74 f8 3d
       -0.26838124 -0.50034785 -0.08729968 0.121315755
000280 2e fc 05 3e fd be 88 bc 01 e5 5f 3e 28 0f f5 3e
       0.1308448 -0.016692633 0.21864702 0.47863126
000290 7c 6c 02 bf 6b 05 21 3e a0 65 04 3f 1e f8 11 3f
       -0.50946784 0.15724723 0.5171757 0.5701922
0002a0 f2 f3 9c be 97 e7 10 3f 11 83 07 3f d7 7f 6f 3c
       -0.30654866 0.5660338 0.52934366 0.014617882
0002b0 57 01 6f 3e 50 a7 1e 3d 39 ab 13 3e 1c 4f 52 3f
       0.23340355 0.03873378 0.14420785 0.8215196
0002c0 7f cd 3f 3e 60 14 c6 be cd f2 fd bd 88 3c eb 3d
       0.18730734 -0.3868742 -0.12399826 0.11486155
0002d0 29 56 21 bc 37 06 8d 3e ed 2c 21 3e c8 4e ce bd
       -0.009847202 0.27543804 0.15739794 -0.1007362
0002e0 31 a0 fb 3e 47 1b 9c 3e fc dd cd be fa 70 02 bf
       0.49145654 0.3048956 -0.40208423 -0.5095364
0002f0 f8 bb b7 3d 06 fe 4f be ff 76 1c be f9 29 fa bd
       0.08971399 -0.20311746 -0.15279768 -0.12215037
000300 f4 ad 0b be 62 98 00 3e 69 9a 05 be 42 dd dc be
       -0.13640577 0.1255813 -0.13047184 -0.43137556
000310 9b 9c e4 3c c8 a8 56 3b d7 7c bf be 32 f1 5d 3c
       0.027906707 0.003275441 -0.37399933 0.013546275
000320 2d 9a 49 3d 7a d0 cd bc 68 8c 46 3c 40 ac de bd
       0.0492193 -0.025123823 0.012118436 -0.10872698
000330 3e 18 3a 3e 36 3d 01 be bb 02 1f be a2 c2 2b 3e
       0.1817331 -0.12621006 -0.15528385 0.16773465
000340 65 09 b6 bc ed d1 0a 3e 44 fe d5 bd a5 3b 06 bf
       -0.022221277 0.13556643 -0.10448888 -0.5243476
000350 60 71 79 3e be 98 fe 3d 67 3c 30 bd ef b7 d6 bd
       0.24359655 0.12431477 -0.043026354 -0.10484301
000360 82 82 d2 be 06 08 85 be 42 17 78 be 79 e9 7b be
       -0.41115195 -0.25982684 -0.24227622 -0.24600782
000370 4d c0 2d bd 6f b1 53 3d 75 f4 31 3e c6 98 90 3d
       -0.04241972 0.051682886 0.17378409 0.07060389
000380 ff 8c e4 3c bc 9f 8e 3e 3c 46 8d be 01 be 06 bf
       0.027899263 0.27856243 -0.27592647 -0.5263367
000390 1b b8 1d bf 36 51 c7 be b7 2d da be 2a 99 ab 3d
       -0.6160905 -0.38929147 -0.42613003 0.08378823
0003a0 8d 48 b7 3e 3b 94 57 3e 22 d2 19 3f 20 f6 87 be
       0.3579754 0.21052639 0.6008626 -0.26554966
0003b0 3f de 93 3f 7b 37 9a be 6f cd 17 3f ae 8e 3f be
       1.1552199 -0.30120453 0.5929784 -0.18706772
0003c0 f4 28 89 bf e0 aa c9 3d e8 61 29 bf 29 ee 24 be
       -1.0715623 0.09847045 -0.6616502 -0.16106476
0003d0 46 c4 29 bf 0a fa e6 3e 31 8f 15 3f cc e8 8a 3a
       -0.66315114 0.4511264 0.5842162 0.0010597943
0003e0 d3 94 35 bd cd 22 3d bf 1b ad b5 be 21 bf 4d bf
       -0.044331383 -0.73881227 -0.35483631 -0.80369765
0003f0 9f d9 93 bf d4 5f f8 3e c9 97 39 bc 9e e6 ac 3e
       -1.1550788 0.4851061 -0.011327692 0.33769697

_orig_mod.rnn.weight_hh_l0 f4 [384, 128]
000000 78 d6 eb bc d1 58 1c be 32 ac b3 be 74 70 e1 be
       -0.02878879 -0.15268256 -0.35092312 -0.44031107
000010 56 a2 0a 3e 10 5f 3f 3e 39 de 6a 3e 73 42 70 be
       0.13538489 0.18688607 0.22936334 -0.23462848
000020 cf b0 b9 3e 84 01 88 bd 62 19 c9 3c cc 85 8e 3e
       0.36267707 -0.06640914 0.024548236 0.27836454
000030 ab 21 ce be 97 7e c4 bd c9 a3 7e bd 63 4c 44 be
       -0.40260062 -0.095944576 -0.062167916 -0.19169764
000040 c1 b8 4c be c4 1d 39 be 1f 86 7c 3e 63 07 f5 3d
       -0.19992353 -0.18077761 0.24660538 0.119642995
000050 1e 04 ad 3e 68 54 5b be 0b 9d df bc cc d5 f2 bd
       0.33792204 -0.21418917 -0.027296564 -0.11857185
000060 ec 3c 6a be dd c1 92 be d2 7f 5b bf 55 de 22 3f
       -0.22874802 -0.2866353 -0.85741913 0.636205
000070 88 dd cf bd 6d 63 e0 3e 1f 4a aa 3c 19 f9 6a 3e
       -0.101496756 0.43825856 0.020787297 0.22946586
000080 65 52 10 3f 8c 2d 1e bd 3b a2 21 bd 74 83 1b bd
       0.56375724 -0.038617656 -0.039461356 -0.03796716
000090 f5 11 ec 3d 8f 7b 1a 3d be 74 bd be 76 f8 91 3e
       0.115268625 0.03771549 -0.3700313 0.28509873
0000a0 00 57 a5 3e e7 08 69 3b 5f 41 ba 3d b7 d8 68 be
       0.32292938 0.0035558285 0.090945 -0.2273892
0000b0 97 fc c3 3e 19 00 3c 3e 7e 9a a0 3e 03 4a cc 3e
       0.38278648 0.18359412 0.31367868 0.39900216
0000c0 f5 40 57 3d 45 dc 02 3f 1f b5 b0 3e fc 79 3b bf
       0.052552182 0.51117355 0.34513184 -0.7323301
0000d0 4c d6 d7 3e 7c b3 b1 3e 16 7b 29 be 96 b2 8e bd
       0.42155683 0.34707248 -0.1655086 -0.06967656
0000e0 11 c2 ca bd e3 df 9d be 9c 1b 8f 3e 31 66 04 3f
       -0.099002965 -0.30834875 0.27950752 0.5171843
0000f0 40 d3 7e be 53 33 1e bd 5d a6 e7 bd 0f b1 e0 3d
       -0.24885273 -0.038623165 -0.11311028 0.10971271
000100 01 11 ab 3c 81 8e 2a 3e a6 c0 36 3e 45 2a 90 bd
       0.020882132 0.16655923 0.17846927 -0.07039312
000110 8a b1 7d 3e 7a b2 b0 bc ca 46 bc 3b 35 a6 68 bd
       0.24774757 -0.02156948 0.0057457434 -0.056799132
000120 0d bb 65 bd cd 1c 0f bf 03 0b c9 be 2b 13 56 3b
       -0.05608659 -0.5590332 -0.39266214 0.0032665234
000130 43 64 7d 3d 9b ce 9b 3e 3d d6 aa 3d e3 8b c2 3e
       0.061863195 0.30431065 0.08341644 0.3799735
000140 e6 89 5c be 65 f5 aa 3e ea 31 15 3f 94 2e 0e bf
       -0.21536979 0.33390346 0.5827929 -0.5553982
000150 dc 68 fa 3d 4f 9a c7 3e e2 7d 22 be 4f 82 cd 3e
       0.122270316 0.38984916 -0.15868333 0.4013848
000160 85 25 a4 3d 9b 21 ae be ff 21 6c bd 91 ee 67 3e
       0.08014969 -0.34010014 -0.05764961 0.226496
000170 80 fe 48 3f 7d 10 9e be c0 41 8e 3e 87 6d 9e 3e
       0.78513336 -0.30871955 0.27784538 0.30942938
000180 d6 a2 fc 3d 72 ea 89 3e 66 4d 58 3f 6d 85 3b 3d
       0.12335746 0.2693668 0.844931 0.04578154
000190 f9 9e 9f 3d 2e b5 d7 3e b9 08 41 be 81 1f 01 3e
       0.077939935 0.42130417 -0.18850984 0.12609674
0001a0 c2 0b b6 3e 82 4f 14 bd d2 7e 22 be 54 01 b2 be
       0.35555845 -0.036208637 -0.1586869 -0.34766638
0001b0 dc 54 38 3e c4 2b 70 bd 53 b1 67 be a2 e1 79 3e
       0.18001121 -0.05863549 -0.22626238 0.24402478
0001c0 e3 b5 e3 be 90 33 55 3f e3 b5 c4 be 87 25 18 bf
       -0.44474706 0.83281803 -0.3842002 -0.5943226
0001d0 2c 60 a9 be 3d bb a3 3e 4f 34 0b 3d 13 db 9f be
       -0.33081186 0.3197879 0.033985432 -0.31221828
0001e0 ba 5e 88 3e 9b 7f 5e bf e3 07 f7 bb 3c 53 6c 3e
       0.2663477 -0.8691346 -0.007538782 0.23078626
0001f0 1a ab 18 3e 39 ab a6 3e 16 0d 03 be 97 ef b5 3e
       0.1490902 0.32552508 -0.1279796 0.35534355
000200 43 b2 1b 3e 64 b5 cb bd d9 1f a0 3d 44 17 87 3e
       0.1520472 -0.09946707 0.078185745 0.26384938
000210 11 c3 f4 be d2 46 ae 3d f0 db 34 3d fe 5b 60 3c
       -0.47805074 0.08509602 0.04415506 0.013693808
000220 97 3d ff 3d f1 6e ae bc 8c 53 45 be ba 02 5c 3f
       0.12462919 -0.021293135 -0.19270152 0.8594166
000230 2e 4c d5 be 30 09 77 bd cf 0f 9b 3e 85 16 1c 3d
       -0.41659683 -0.060311496 0.30285498 0.038107414
000240 34 ff 60 be 1e 81 d1 3d c0 64 0c 3e 65 dd 36 3d
       -0.21972352 0.10229705 0.13710308 0.044644732
000250 c0 ea d8 bc 8f 36 07 3e 5f fe bb 3d 3b 05 c5 be
       -0.026479125 0.13204406 0.09179377 -0.38480553
000260 02 7a ea be 2b c8 ff 3e 50 9f e9 be 0d c9 6c 3d
       -0.4579621 0.49957404 -0.45629358 0.057808924
000270 d0 b4 05 bf 57 33 e8 be 24 dd 3c 3e 60 b1 00 3e
       -0.5222902 -0.4535167 0.18443733 0.12567663
000280 81 10 d0 3c ff 98 dd 3e 1e b7 76 3e 26 54 71 3f
       0.025398495 0.4328079 0.24093291 0.94269025
000290 15 66 e6 3d 90 c2 24 3c 73 d7 14 3f 10 82 c3 be
       0.11249939 0.010056153 0.5814125 -0.38185167
0002a0 60 01 a7 3c 39 87 5f be f1 bc fa 3e 80 9c a4 be
       0.020386398 -0.21828927 0.48972276 -0.3215065
0002b0 35 f6 b0 3e db 37 c5 be ab dc 64 be f0 77 16 be
       0.3456284 -0.38519177 -0.22349803 -0.1469419
0002c0 6c eb 05 3e ef ee e0 3e 32 c5 51 be d3 a9 bc 3e
       0.13078088 0.43932292 -0.2048538 0.36848316
0002d0 12 e2 04 3f ed 2e ff 3c 73 d1 9d 3e 9f 77 1d bf
       0.51907456 0.031150306 0.3082386 -0.6151065
0002e0 d4 52 66 be cc 14 22 3d 80 cf 43 3e 11 93 a7 3e
       -0.22492534 0.039570615 0.19122124 0.3272939
0002f0 cd 07 d0 3e c1 50 d5 be b5 fa 9e 3d af 21 7b bc
       0.40630952 -0.41663173 0.07762662 -0.015327855
000300 f9 d8 b1 3e ad 26 98 be ee a9 3c be 53 11 c0 be
       0.3473585 -0.29717007 -0.18424198 -0.37513217
000310 20 af ce 3c ad 3f 7f be 4b 5b cc 3e a9 00 01 bf
       0.02522999 -0.24926634 0.399134 -0.5039163
000320 ca 1a bb 3c 80 24 01 bf 23 e5 31 3f f5 70 86 be
       0.022839922 -0.5044632 0.6949026 -0.26258054
000330 fd 54 3d 3e b4 d4 17 3f b3 7d a5 be 8a 19 b4 bd
       0.18489452 0.59308934 -0.32322463 -0.08793934
000340 c2 f4 a2 3e e0 2d 0b 3e 79 1a 48 3f 5e 93 3c be
       0.3182736 0.13591719 0.78165394 -0.18415591
000350 e2 2f 8d 3e 54 a1 7f 3e 0d a4 44 bf 42 5c db 3c
       0.27575594 0.24963886 -0.7681282 0.02677739
000360 fe c1 bc 3e c9 7a 4b 3f 55 d7 02 bf 81 4b 19 be
       0.36866754 0.7948423 -0.5110982 -0.14970209
000370 da b5 17 be 82 5f d3 be 54 75 6a 3e 22 38 89 bd
       -0.14815465 -0.41283804 0.2289632 -0.067001596
000380 b5 7f bf 3d ff dc 7d 3d e3 68 67 3d 9f 58 10 bf
       0.0935053 0.061978336 0.056496512 -0.56385225
000390 e7 65 f6 bd e1 24 59 3e 09 e7 f9 3d 2e fa 00 3e
       -0.12031155 0.21205474 0.122022696 0.12595436
0003a0 96 77 36 3e b5 53 23 bd b5 df d9 3e c3 09 20 be
       0.17819056 -0.03987475 0.42553487 -0.15628724
0003b0 8c 7d 8b be 7b a4 64 3e e9 fb be 3c 7c b2 1c bf
       -0.27244222 0.2232837 0.02331348 -0.61209846
0003c0 ef e2 d9 3d 41 98 cf 3e 71 da b2 3e 57 50 25 3e
       0.10638987 0.40545848 0.34932283 0.16143928
0003d0 09 3c d1 3e 75 20 9b 3e c5 80 eb bd 5f 4a f1 3e
       0.40866116 0.302982 -0.1149917 0.47127053
0003e0 2f b8 c4 3d 07 0f ec be e0 e1 6f 3e d2 e3 26 3f
       0.09605443 -0.46105215 0.23426008 0.65191376
0003f0 46 ac 54 be 38 f4 e2 3e 62 55 a8 3e a1 10 f4 3e
       -0.20768842 0.4432695 0.32877642 0.47668937

_orig_mod.rnn.bias_ih_l0 f4 [384]
000000 8f e9 2b 3f 8e 42 16 3d 2b 27 71 be ee 8a 1b bd
       0.6715326 0.036684565 -0.23550098 -0.03797429
000010 8b 4f 72 bc c1 d6 19 be d8 6e b8 3e c0 ff 3a 3e
       -0.014789472 -0.15023328 0.36022067 0.18261623
000020 19 b7 37 3e 16 cd ef 3d 8b ac e9 3d 7f 21 45 3f
       0.1794094 0.11709039 0.11409863 0.77004236
000030 62 4e b2 3e c3 54 2b 3e 5e a3 c4 3e 7d 5d 46 3e
       0.34825426 0.16731553 0.3840589 0.193716
000040 d8 68 7f 3e da 96 82 bd 48 49 dd bd 94 e4 30 bc
       0.24942338 -0.06376429 -0.10804993 -0.010796685
000050 c4 94 40 3e be 1f 5f 3e 65 43 0b 3e 00 b7 b2 3d
       0.1880675 0.21789452 0.13599928 0.08726311
000060 5f 85 15 3d 43 40 f5 3e be 3f a6 bc 47 23 1b 3f
       0.036504146 0.4790059 -0.020294067 0.60600704
000070 e1 83 ee 3c 82 cf 83 bd bd 5a 0d 3f 7f 98 9c 3d
       0.02911562 -0.06436063 0.5521658 0.07646274
000080 e9 b2 63 bc 8c 0a 27 3f 28 1d 98 be 3f ab a4 3e
       -0.013897636 0.6525047 -0.29709744 0.321619
000090 3d 9e 50 bc b0 33 0f 3d c9 92 99 3e e8 0d 17 3f
       -0.012733039 0.034961402 0.299948 0.59005594
0000a0 48 a8 04 bd ff 6b 55 3f 37 3f 65 bd 73 26 f2 3d
       -0.032387048 0.83367914 -0.05596849 0.1182374
0000b0 96 c9 8b 3e 0f 3a ee 3c 76 b1 1f 3e e3 74 ca 3e
       0.27302235 0.029080419 0.1559504 0.39542302
0000c0 26 eb 14 3e 66 03 cf 3e ee 81 02 3f 0b 0e 2e bd
       0.14542827 0.4043228 0.50979507 -0.04249386
0000d0 8f a1 a4 3e b2 16 ad 3e 79 bf 41 3e 46 cc 2d 3e
       0.3215451 0.33806378 0.18920697 0.16972455
0000e0 59 44 00 3f 4d 6b ff 3e d3 b6 00 3f 71 26 42 3f
       0.5010429 0.49886551 0.5027897 0.75839907
0000f0 2a d8 bb 3e 10 76 a1 3e 72 b8 3f 3f 20 f1 ee 3e
       0.36688358 0.31535387 0.74890816 0.4666834
000100 2d 60 a8 3e 7f d0 9c 3e dd b3 11 3f 66 04 3b 3f
       0.32885876 0.3062782 0.56915075 0.73053586
000110 9b 96 96 3e 8b 4b 02 be b1 15 9a be 4b 36 87 3e
       0.29411778 -0.1272413 -0.30094674 0.2640861
000120 69 a4 5c be 39 a6 6b be a7 c8 92 3e f5 16 aa 3e
       -0.21547092 -0.23012628 0.2866871 0.3322064
000130 9b ec 09 bc 3e 9b 9d 3e b0 a5 18 3f 83 8c b5 be
       -0.008418228 0.30782503 0.5962782 -0.35458764
000140 52 83 f2 3e b6 9b f9 3d cb 93 99 bd 82 d1 e8 3d
       0.47365814 0.12187903 -0.074988924 0.113680854
000150 3b 7d 10 3f cb 22 ca 3e 81 82 fe 3e d9 59 03 3e
       0.56441087 0.3947967 0.49708942 0.12827243
000160 bb e4 59 3f f4 f9 d4 3e 6c 3c fe 3d c6 b6 c1 3e
       0.8511464 0.4159695 0.12413868 0.37834758
000170 08 7a 5e 3e 29 7a 3e 3f f8 0e 94 3d 4e ce 10 3f
       0.21726239 0.7440515 0.072294176 0.56564796
000180 8f ed 00 3f ef d0 a6 3e 75 9b f6 bd 6b 5b 9f 3e
       0.50362486 0.3258128 -0.1204137 0.31124434
000190 a2 da cc 3e a6 47 0d bd 41 49 f5 3e ab dd 96 bd
       0.40010554 -0.034492157 0.4790745 -0.073664986
0001a0 62 18 1d 3f f9 2d e5 bd 13 7b f9 bd b8 83 ad bd
       0.6136533 -0.11190409 -0.12181678 -0.08472389
0001b0 bf ae ba 3e bc df 3a 3f 60 62 0a 3f 1e 6c 7f 3e
       0.36461446 0.7299764 0.5405636 0.24943587
0001c0 d3 59 c5 3e 22 c1 c7 3e 20 6d 43 3e 7c 8e 8b 3e
       0.38545093 0.39014536 0.19084597 0.27257144
0001d0 44 4e b4 3e a8 d7 de 3e f7 5c ae bb f2 d7 44 3e
       0.35215962 0.43523908 -0.005321141 0.19223002
0001e0 9a 05 24 3e 0a 97 00 3f 8b 8a 1e 3f de 18 51 3e
       0.16017762 0.5023047 0.6193015 0.20419642
0001f0 a8 98 c4 3e ba 9a 97 3e a4 8b dd bd 8c 75 8a 3e
       0.38397717 0.29610234 -0.1081765 0.27042806
000200 ba c8 3b 3e 67 d6 b8 3f 4a 3c 60 3f ce 18 8a 3f
       0.1833829 1.444043 0.87591994 1.078882
000210 29 23 95 3f 18 2c 8c 3f c2 27 ab 3e 3b 51 98 3f
       1.1651355 1.0950956 0.3342877 1.189979
000220 e6 8d d1 3e 8b 9c ae 3f 68 4f 62 3f 9e df 3f 3c
       0.40928572 1.3641523 0.88402414 0.011711029
000230 5c 20 d1 3e b8 e3 f6 3e 12 c8 59 3f e3 58 89 3f
       0.40845 0.4822061 0.8507091 1.0730251
000240 ec 65 86 3e 33 b5 44 3e 44 39 13 3f c2 4c 89 3f
       0.26249635 0.19209747 0.57509255 1.072655
000250 9e 56 90 3f be 57 90 be 1c 1c 89 3f dc 1c 5c 3f
       1.1276433 -0.28191942 1.0711703 0.85981536
000260 7b e5 f5 3e 20 a9 94 3e 35 fa 64 3f f8 c7 4e 3e
       0.48026642 0.29035282 0.89444286 0.2019347
000270 c0 5c a5 3f 20 d0 2d 3f be f2 0e 3f 97 27 19 3f
       1.291893 0.678957 0.55839145 0.59826034
000280 91 7b 10 3f 4c 83 51 3f 34 d3 9c 3f e8 fc 47 bd
       0.5643855 0.8184097 1.2251954 -0.048825175
000290 4a 6a 97 3f b3 6d 4f 3f fc c2 95 3f aa be f3 be
       1.1829312 0.8102676 1.170013 -0.47606403
0002a0 9f 64 8a 3f 1d 91 83 3e 8b 61 95 3f 8d a1 2c 3f
       1.0811957 0.2569665 1.1670393 0.67434007
0002b0 03 f2 a3 3f c1 64 8e 3f 27 e2 a2 3e 12 34 bd 3f
       1.2808231 1.1124498 0.31813166 1.4781516
0002c0 ca 8e f5 3e 23 ac 93 3d 96 a4 b4 3f 59 c8 48 3f
       0.47960502 0.07210567 1.4112728 0.78430706
0002d0 38 72 55 3f c8 c0 a1 3e 9c 77 91 3f 8f e7 8d 3e
       0.8337741 0.31592393 1.1364627 0.27715728
0002e0 d6 db 24 3f 9e 0e 37 3f 66 5b 31 3f ee 6b 6d 3e
       0.64397943 0.7150668 0.6928009 0.23185703
0002f0 b3 6f dc 3e 7f f5 b3 3e a4 1c fc 3c 35 f3 41 3f
       0.4305397 0.35148236 0.030775376 0.7576173
000300 20 b1 15 3e 26 18 78 3f cb e3 ab be aa 2b bf be
       0.14618349 0.9691185 -0.3357223 -0.37338
000310 38 40 66 3f 57 6f 7e 3f c0 c5 1c 3f 00 3e 7b 3f
       0.8994174 0.9938864 0.6123924 0.9814148
000320 55 0d f3 be b5 e4 5e 3f 09 1c 3b 3f 04 42 fd 3e
       -0.4747111 0.8706773 0.73089653 0.49464428
000330 82 7a 6f 3f 26 ec 52 3f 2b 6c b2 3c 27 29 72 3f
       0.9354631 0.82391584 0.021780094 0.94594043
000340 2e ef 36 3f 17 99 9c 3f 8b 60 ac 3e db e8 85 3f
       0.7145871 1.2234219 0.33667406 1.0461687
000350 16 c9 16 be 16 42 ba 3d 32 0c 99 3f 4f 44 5c 3e
       -0.14725146 0.09094636 1.1956847 0.21510433
000360 42 a7 f6 3d 90 af 9f 3e 3f 2e 26 3f 20 03 05 3f
       0.12043621 0.3118863 0.64914316 0.51957893
000370 92 42 98 3f f7 e5 fa 3d c9 6f 80 3f 66 ba 0f 3f
       1.1895316 0.122508936 1.0034114 0.56143796
000380 b6 5f 68 3f 05 f4 b6 3e de 11 3f be 36 7b d4 bc
       0.90771043 0.35733047 -0.1865916 -0.025937658
000390 c4 d8 54 3f 4a 09 39 3f 92 55 ef bd f9 40 4c 3f
       0.8314326 0.722798 -0.11686243 0.7978664
0003a0 25 7b e5 3c c9 3a a4 3f eb a7 70 3f f4 e3 8a 3f
       0.028012821 1.283044 0.9400622 1.0850816
0003b0 24 d4 8e 3f 7b de e4 3e 95 44 0f 3f fe 62 65 3f
       1.115849 0.4470099 0.5596402 0.89604175
0003c0 37 85 38 3e a2 b2 0e 3e 8d 9d 0f 3f b4 02 4c 3f
       0.18019567 0.1393533 0.5609978 0.79691625
0003d0 7c 81 54 3f d5 cf 27 3f 07 63 8c 3f 77 97 1d be
       0.8301008 0.655515 1.0967721 -0.1538981
0003e0 38 90 60 3f 4e 9c 18 bd a0 48 c4 3e a6 fe a1 3f
       0.8772006 -0.03725844 0.38336658 1.2655838
0003f0 a0 ac 4e 3f cc d2 bd 3e b3 8d 0a 3f 4b fe 44 3e
       0.80732155 0.37074888 0.54122466 0.1923763

_orig_mod.rnn.bias_hh_l0 f4 [384]
000000 5d 50 48 3f 2b 20 f4 3d 1b 39 95 be 73 0e 7b 3d
       0.78247625 0.11920198 -0.2914513 0.061293077
000010 2a 05 00 3c 86 53 ef bd c5 61 cf 3e 2d b9 10 3e
       0.007813731 -0.11685853 0.4050428 0.14133139
000020 6a 6a 50 3e 4c 15 de 3d 9b d2 bc 3d be fb 45 3f
       0.20353094 0.10843906 0.09219857 0.77337253
000030 e4 af 71 3e 79 40 1b 3e 47 73 c7 3e a6 73 89 3e
       0.23602253 0.15161313 0.38955137 0.26846045
000040 26 80 cc 3d b7 bd 2e be 52 d6 76 3c 43 05 2f 3d
       0.0998538 -0.17064558 0.015065746 0.042729627
000050 38 07 81 3e ff 5c 42 3e c1 67 50 3e 92 dc 45 3e
       0.2520082 0.18980788 0.20352079 0.19322422
000060 9c a6 9b 3d 2d 97 e6 3e d0 66 ae bc a7 24 3c 3f
       0.076001376 0.45037213 -0.02128926 0.7349343
000070 fe 79 69 3d 55 9a b2 bd 87 9b 15 3f b2 19 b7 3d
       0.057001106 -0.08720843 0.5844044 0.08940448
000080 6c f1 d8 bd 48 d6 fa 3e e8 1e 94 be b2 ac 45 3e
       -0.105929226 0.4899161 -0.2892983 0.1930416
000090 03 17 28 3d c8 39 20 3d 02 6c a1 3e 21 5c 09 3f
       0.04103757 0.039117604 0.31527716 0.536562
0000a0 3e 6e 86 bd 75 ae 54 3f 8b 9f 7c 3d c7 a1 2a 3d
       -0.06563996 0.830787 0.06167559 0.04165819
0000b0 7b b7 1b 3e 59 b9 69 3c 84 30 9d 3e 50 c1 c4 3e
       0.15206711 0.014265382 0.30701077 0.38428736
0000c0 93 2b e0 3d 82 47 cf 3e 8c 23 f3 3e 7f 90 ae 3b
       0.10945811 0.40484244 0.47488058 0.005327284
0000d0 69 5f a1 3e fb d1 92 3e 37 9f 47 3e 9f d3 c6 3d
       0.31518105 0.28675827 0.1949433 0.09708332
0000e0 a7 61 fc 3e 16 89 0b 3f 3d 59 ed 3e 85 ec 2a 3f
       0.49293253 0.5450605 0.46357146 0.6676715
0000f0 66 89 9b 3e 16 71 ee 3e 1e 8e 48 3f 7b 5d d6 3e
       0.30378264 0.46570653 0.78341854 0.41868195
000100 41 22 a1 3e 73 a3 a1 3e e9 20 1c 3f fd 44 22 3f
       0.31471446 0.31570014 0.60987717 0.6338652
000110 7b ee b8 3e 58 1f 40 bd 73 dd 86 be d1 0a a7 3e
       0.36119446 -0.04690489 -0.26340827 0.3262544
000120 11 07 a7 be ab 05 09 be ff ec a4 3e a5 c7 68 3e
       -0.3262258 -0.13381068 0.32212064 0.22732408
000130 ae f4 66 3d 8e 24 1e 3e 1a 10 28 3f ce bc 94 be
       0.05638569 0.15443632 0.6564957 -0.29050297
000140 ae b3 c6 3e 81 e1 12 3e 91 42 1d be 70 a8 f0 3d
       0.3880896 0.14343835 -0.15357424 0.11750877
000150 67 c1 0e 3f 51 be 07 3f 5c 7e f3 3e a1 e2 70 3e
       0.5576386 0.53024775 0.47557342 0.23523952
000160 72 8f 6f 3f c2 67 d5 3e 07 dc ec 3d fb 7e d2 3e
       0.93578255 0.41680723 0.115654044 0.41112503
000170 23 a7 78 3e 1f f6 2d 3f db 1d 74 3d 31 7f 0a 3f
       0.24282508 0.67953676 0.059598785 0.5410033
000180 93 2b 06 3f af b4 4d 3e c4 ef a4 bd 71 62 9c 3e
       0.5241024 0.20088457 -0.08053544 0.30543855
000190 f5 40 b9 3e 47 cb e5 bd ae ff d5 3e 12 e4 13 be
       0.3618237 -0.11220413 0.4179663 -0.1444247
0001a0 17 3c 21 3f 85 e5 23 be 68 e0 05 bd c9 ee c7 bd
       0.62982315 -0.16005524 -0.032684714 -0.097623415
0001b0 50 fe cc 3e f8 54 1c 3f 2b d9 05 3f 46 32 d1 3d
       0.40037775 0.6106715 0.522845 0.10214667
0001c0 b9 94 94 3e de fc c5 3e 70 b5 8a 3d c6 45 93 3e
       0.29019716 0.38669485 0.06772888 0.2876417
0001d0 57 3a 86 3e 98 cb e5 3e 14 28 dd 3d 8a c5 8d 3e
       0.26216385 0.44881892 0.1079866 0.27689773
0001e0 45 b8 f2 3d 79 b6 e6 3e eb 7e 21 3f 45 db 8b 3e
       0.11851553 0.4506109 0.63084286 0.27315727
0001f0 94 4c 9d 3e c5 f2 78 3e 23 ca 80 be 85 58 47 3e
       0.30722487 0.24311359 -0.25154218 0.19467361
000200 d1 b9 2d 3e 75 7d bb 3f 6d 4c 79 3f d4 98 9b 3f
       0.16965415 1.4647661 0.9738224 1.2156014
000210 a0 62 97 3f c5 dc 8d 3f 2d 75 61 3e fa 71 9b 3f
       1.1826973 1.1082999 0.22017355 1.2144158
000220 6f d7 e0 3e 89 0b 9d 3f dc 77 74 3f 4b bd 23 bd
       0.43914363 1.2269145 0.9549539 -0.039975446
000230 27 6d ed 3e a2 14 e3 3e 3a 4e 60 3f 40 40 7f 3f
       0.4637234 0.4435168 0.87619364 0.9970741
000240 87 90 a4 3e 70 81 4b 3e 18 c1 29 3f 5f 6b 85 3f
       0.32141516 0.19873595 0.6631026 1.0423392
000250 2a 0c 92 3f d9 10 86 be fa cb 91 3f 48 48 71 3f
       1.1409962 -0.2618473 1.1390374 0.9425092
000260 2d 9e 06 3f 6f a6 ab 3e c8 8c 71 3f b1 fc 17 3e
       0.5258511 0.33525416 0.9435544 0.14842488
000270 4c 2b b1 3f 91 0c 2f 3f 8d 58 16 3f fb 00 2a 3f
       1.3841338 0.6837855 0.5872887 0.66407746
000280 3d 41 09 3f f9 a9 68 3f 10 43 a2 3f 45 11 29 bd
       0.5361517 0.9088436 1.2676716 -0.041276235
000290 89 8b 95 3f cc 96 62 3f 2e 95 8b 3f 40 89 0b bf
       1.1683208 0.8851135 1.0904901 -0.545063
0002a0 7a 61 8a 3f c7 4e 74 3e c2 62 93 3f 5c 97 1b 3f
       1.0810997 0.23858176 1.1514513 0.6077783
0002b0 84 9a a4 3f 33 93 96 3f 96 cb d8 3e d3 34 ba 3f
       1.2859654 1.1763672 0.42342824 1.4547371
0002c0 76 30 0a 3f 02 e7 2c bd 73 87 ac 3f 2a ab 4d 3f
       0.53980196 -0.042212494 1.3478836 0.803393
0002d0 ad 3b 56 3f d0 62 75 3e 9f f7 94 3f 9c 4b b3 3e
       0.8368481 0.23963475 1.1638068 0.35018623
0002e0 7f 61 09 3f 88 31 1f 3f f5 0b 22 3f 3a 19 79 3e
       0.5366439 0.62184954 0.63299495 0.2432603
0002f0 e0 0e ba 3e d2 cc 8c 3e 9c a8 d8 bc 83 c6 39 3f
       0.36339474 0.27500015 -0.026447587 0.7256853
000300 25 24 ff 3d b6 93 59 3f 6e 18 ba be e2 24 c6 be
       0.12458066 0.84991014 -0.36346763 -0.38700014
000310 1a 2f 63 3f 4a ac 79 3f 64 ce 32 3f 9d cd 80 3f
       0.88743746 0.9752852 0.6984618 1.0062748
000320 8c 2f f4 be 85 18 60 3f 27 6e 3c 3f 77 33 00 3f
       -0.47692525 0.87537414 0.7360558 0.5007853
000330 dc 89 83 3f a2 20 49 3f 54 8a e6 bc 4a 1f 73 3f
       1.0276446 0.7856542 -0.028142132 0.9496962
000340 62 81 20 3f 25 d2 89 3f cd 9d 83 3e e8 5e 84 3f
       0.6269742 1.0767256 0.2570633 1.0341463
000350 70 54 d9 bd b6 ad ac 3d a8 3d 94 3f 07 c8 51 3e
       -0.10611808 0.0843157 1.1581316 0.2048646
000360 2a 36 19 3e a6 53 8b 3e 79 be 31 3f 4b 6e f3 3e
       0.14962068 0.27212256 0.69431263 0.47545084
000370 a7 96 99 3f 0f 96 6b 3e 67 8b 71 3f 76 2c 06 3f
       1.19991 0.23006462 0.94353336 0.5241159
000380 6e a3 65 3f 26 ca bb 3e ca 17 4d be ed 7d 4a bd
       0.897025 0.36677665 -0.20028606 -0.0494365
000390 1b 98 53 3f f8 ec 4d 3f e1 58 c7 bc 5e 18 4f 3f
       0.8265397 0.8043971 -0.024334373 0.80896556
0003a0 18 08 1a 3e a3 00 a2 3f 1b e6 73 3f 5f 8d 80 3f
       0.1504215 1.2656444 0.9527299 1.0043143
0003b0 25 3c 8f 3f e2 8b e3 3e 1e 8e 35 3f 5b 14 84 3f
       1.119023 0.4444266 0.7091998 1.0318712
0003c0 06 16 2e 3e 2a 50 27 3e 93 d1 dc 3e c5 2b 6d 3f
       0.17000589 0.16339174 0.43128642 0.9264491
0003d0 c9 f2 56 3f 64 89 12 3f f3 85 7c 3f 09 01 92 be
       0.8396421 0.5724089 0.9864189 -0.28516415
0003e0 0d ce 56 3f f5 0e ca 3b 83 a7 d7 3e c1 bf a3 3f
       0.8390816 0.006166334 0.4211999 1.2792894
0003f0 b0 4b 49 3f b0 0f 82 3e 71 4d 14 3f bf 37 06 3e
       0.78631115 0.25402594 0.57930666 0.13107203

_orig_mod.rnn.weight_ih_l1 f4 [384, 128]
000000 90 2e f2 bd aa 26 b3 bc 2e c1 8e 3e b8 77 71 be
       -0.11825287 -0.021869022 0.2788176 -0.23580825
000010 b0 a5 cd 3b 47 77 fa bc 54 6e 85 3d ab c1 66 be
       0.006275855 -0.030574454 0.06515184 -0.22534816
000020 c7 89 33 3e 70 89 9c be a7 18 35 3e b7 18 24 3e
       0.17533027 -0.30573606 0.17685185 0.16025053
000030 24 bb 46 3e b2 57 33 3e b9 f6 08 3e 5a 5c 56 3e
       0.19407326 0.17513922 0.13375367 0.20933667
000040 be d5 00 3e 0b d7 3e be 2a c7 0c bf 30 2a 63 3e
       0.12581536 -0.1863672 -0.549914 0.22184062
000050 5e f4 1e be 2d 02 99 be 29 33 df bc b6 39 54 3e
       -0.15522906 -0.29884472 -0.027246075 0.2072514
000060 ce 48 a9 be bd 69 31 be 93 b0 2a be c1 68 1f 3e
       -0.33063358 -0.17325492 -0.1666892 0.15567304
000070 79 00 71 bd e6 65 dc 3e e9 37 47 bd 21 fd 29 be
       -0.05883834 0.43046492 -0.048637304 -0.16600467
000080 80 27 c3 be 1b 17 38 3d 21 d1 aa be 2d 99 e4 be
       -0.38116074 0.04494391 -0.33362678 -0.44648114
000090 3c 1a cc be 1d 7b 79 3e 15 7a 16 bf 5b 5f b7 3e
       -0.39863765 0.2436337 -0.5878003 0.35814938
0000a0 a5 e9 a0 3e 7f 15 5a 3e e9 df f0 bd 89 f7 04 be
       0.31428257 0.21297263 -0.117614575 -0.12985052
0000b0 dd 30 9b be 39 36 83 be 7a d0 9d 3d 9d c7 aa bc
       -0.30310717 -0.25627306 0.077057794 -0.020847136
0000c0 9b 62 97 3e 7b c2 88 bd 74 13 5f 3d d3 d6 97 bd
       0.29567418 -0.06677719 0.05446191 -0.07414021
0000d0 67 ca b1 be 0d 37 62 3e 1d b6 8e bd 65 5f 33 3e
       -0.34724733 0.22091313 -0.06968329 0.17516859
0000e0 65 85 ea 3d 70 c9 10 be cf 29 9b 3e aa f5 a4 3b
       0.11451224 -0.14139342 0.30305335 0.0050341683
0000f0 af 7d 4b be 35 5d 7a bd 15 80 4c be 7c f9 3a 3e
       -0.19872163 -0.061124045 -0.19970734 0.18259233
000100 7c ed 66 be eb 87 c8 bd bc 4c b0 3e 79 e8 32 be
       -0.2255153 -0.09791549 0.34433544 -0.17471494
000110 db d9 98 3d 29 b3 7a bc 2c 1b 0d 3e 66 82 32 3e
       0.07463428 -0.015301504 0.13779896 0.17432556
000120 d8 3e 0b be 17 fe 81 3e e8 df 69 be e0 36 03 3d
       -0.13598192 0.25389168 -0.2283932 0.032034755
000130 48 09 cf 3d 1c 07 1f be 52 0b 47 3e 72 41 01 bc
       0.10109192 -0.15530056 0.19437912 -0.007889139
000140 9a 3c b9 3d a8 c3 aa 3d 8a a9 7c be 62 f1 f1 bd
       0.09044762 0.083381 -0.24674049 -0.11813618
000150 f7 a1 1f be f5 e5 5b bd be e1 ce be c8 fc 6b be
       -0.15589128 -0.0536861 -0.40406603 -0.23045647
000160 80 7d a6 be 9b fc f8 bd 01 54 a7 3d e6 98 23 3e
       -0.32517624 -0.12157556 0.08170319 0.15976295
000170 56 2c 14 bf f3 39 87 be 99 35 b2 be a2 20 1d be
       -0.5788015 -0.264114 -0.34806517 -0.1534448
000180 16 2b c5 3e 3f e2 be 3d 0b e3 0d 3e cd 56 13 be
       0.38509434 0.09320497 0.13856141 -0.1438858
000190 12 49 4b 3e ac b2 6a 3c 31 15 c8 be ed 9c 93 be
       0.19852093 0.014324825 -0.39078668 -0.28830662
0001a0 1b 90 66 3e d0 a2 a8 3e 41 fa 0f bc f4 41 cc bd
       0.2251591 0.32936716 -0.0087876925 -0.09973517
0001b0 eb 98 d1 3e fc 18 ec bb 09 12 03 bf 65 4a d8 be
       0.4093698 -0.007205127 -0.51199394 -0.4224426
0001c0 01 17 e9 be 01 2a a1 be 48 ba 59 3e 07 44 6e be
       -0.45525363 -0.3147736 0.21262467 -0.23268138
0001d0 e2 24 05 be fb a2 b3 be 74 c2 0c be c5 03 b2 3d
       -0.13002351 -0.35085282 -0.13746053 0.08692125
0001e0 c7 2d 3e be 9d 71 7b bd 13 ae b5 3e e7 24 b5 bd
       -0.1857215 -0.061387647 0.3548437 -0.08844929
0001f0 0e 8b 51 be 9f 52 a0 be a6 e4 dd 3d 20 79 47 3d
       -0.20463201 -0.31313035 0.10834627 0.0486995
000200 60 3a 91 be c4 fc 97 bd 27 4e 10 3e 0c 4e 93 3d
       -0.2836485 -0.07421258 0.14092313 0.07192621
000210 b8 76 e2 be 73 50 53 3e 35 90 9c 3e d3 42 f8 be
       -0.442312 0.20636158 0.3057877 -0.48488483
000220 e5 c8 18 3e 07 ff fd bd 91 a8 f9 be 49 1b bf 3e
       0.14920385 -0.12402158 -0.48761418 0.37325504
000230 14 6f bd 3b 63 92 9e 3b 4d c9 23 bd e7 5a c3 be
       0.005781064 0.004839228 -0.039986897 -0.3815529
000240 fd d5 b8 3e 6a 8b 05 be d8 8c 8f be e8 8c 06 be
       0.3610076 -0.13041463 -0.28037143 -0.13139689
000250 50 a5 fd 3d f7 10 00 3f 6b f8 26 3e 41 83 96 be
       0.123850465 0.50025886 0.16305701 -0.29397014
000260 4b 5e a1 be 41 9d 01 3f 2a a3 76 be 49 c8 78 bd
       -0.31517252 0.50630575 -0.2408568 -0.06073788
000270 e6 14 06 3e bd 5b 73 be 46 51 07 3e b8 8a cc 3e
       0.1309391 -0.23765464 0.13214597 0.39949584
000280 af 91 3a be 78 5b a3 be 74 ae 92 be 42 67 54 be
       -0.18219636 -0.31905723 -0.28648722 -0.20742515
000290 43 b4 c1 3d a8 94 00 3e be 87 42 bf c0 e0 ad bd
       0.0945821 0.12556708 -0.75988376 -0.08490133
0002a0 11 cb d6 bd 35 d8 1b 3d 4a c9 02 3e ba eb 0f 3f
       -0.104879506 0.038047988 0.12772098 0.56219065
0002b0 35 5b c0 3e a7 b7 a2 3e b1 7f a4 3e ac d2 79 be
       0.37569585 0.3178074 0.3212867 -0.24396771
0002c0 b0 d1 4a 3d 6b ed 3b be cd 3d 55 be d8 c6 a9 be
       0.04951638 -0.18352287 -0.20824356 -0.33159518
0002d0 a6 eb 4f be de 08 e7 bc 53 86 df 3d ef ab aa be
       -0.20304736 -0.02820247 0.10914292 -0.333343
0002e0 25 a2 ac 3c 36 1a eb 3d e4 10 a2 bd 80 8e 0e 3e
       0.02107341 0.11479609 -0.07913378 0.13921547
0002f0 e4 70 c4 3e e2 9e 85 be 37 dc b0 be 3f 50 bd be
       0.3836738 -0.2609778 -0.3454301 -0.36975285
000300 81 fd 98 3e ea 62 1e 3e 8f 57 ab 3e a3 71 fc be
       0.29880908 0.1546742 0.3346524 -0.49305448
000310 3c a9 26 3e bb 97 b1 3e 3b e6 cc be f5 83 1b 3c
       0.16275495 0.34686074 -0.40019402 0.00949191
000320 90 ca 99 3e ae 12 06 3c 9c 86 db bd 4f c1 23 bb
       0.30037355 0.0081831645 -0.10719034 -0.0024987047
000330 0b ad f9 3e d7 ba a2 be 57 ab d5 3e 2d c6 bf 3d
       0.48764834 -0.31783172 0.41732284 0.09363971
000340 2b cc 97 be 17 ee 28 3d 83 73 85 3d 5f fe 05 3d
       -0.29647955 0.041242685 0.06516173 0.03271329
000350 a4 dd 6f 3e 16 3d 34 3d 01 e6 90 3e 81 87 04 be
       0.23424393 0.04400357 0.2830048 -0.12942316
000360 04 ff db 3e 79 c6 35 3b 37 7e d6 be f0 fb 02 3f
       0.42968 0.0027736707 -0.4189317 0.51165676
000370 a7 35 c2 bd eb 64 bd 3d 17 2c 92 3e 35 10 63 be
       -0.094828896 0.09247764 0.28549263 -0.22174151
000380 56 3e 93 3e 38 b6 70 bd e2 04 57 3e 1b 78 19 be
       0.28758496 -0.058767527 0.20997956 -0.14987223
000390 a7 ac 05 bd 23 44 42 3e 2f b5 1e bd 91 47 16 3e
       -0.032635357 0.18971305 -0.03874701 0.14675738
0003a0 d0 51 ca 3d 55 63 60 3c c3 cf d3 bc 12 b6 2b be
       0.09878886 0.013695558 -0.025855904 -0.16768673
0003b0 37 b3 ce 3d a6 1f 29 3f 3b 68 d5 3d c6 cf 54 3e
       0.10092776 0.66063917 0.10420271 0.20782384
0003c0 73 42 80 be 7d dd 9e bc 60 e5 17 be 9f f4 2b bc
       -0.25050697 -0.019392723 -0.14833593 -0.010495334
0003d0 47 af 52 3e d4 0e 2d 3d 59 5c 14 3e 1f 42 1b bb
       0.20574676 0.04225047 0.14488353 -0.0023690534
0003e0 ab 1e 12 3e 8d f9 9f 3e ff cf 15 3e c4 22 c7 3d
       0.14269511 0.3124508 0.14630125 0.09723428
0003f0 1e 4a da bd a8 35 cf be df 71 cc 3d e0 dd 64 be
       -0.10658668 -0.40470624 0.09982657 -0.22350264

_orig_mod.rnn.weight_hh_l1 f4 [384, 128]
000000 64 69 a4 bf 9c 25 14 bf 2d 7c d2 3d eb 8d b0 3d
       -1.2844663 -0.5786989 0.10277591 0.08620819
000010 27 ca 2a be 77 a3 7a 3f 54 aa fc be 68 51 b1 3e
       -0.16678677 0.9790568 -0.493487 0.3463242
000020 71 b0 73 be 98 ad 97 bd cd fd 4f be 5a 7e d0 3e
       -0.23797776 -0.07406157 -0.20311661 0.407214
000030 10 dc 03 3d 9f 04 ee be 60 a2 f0 bf c9 3e f1 3d
       0.03219229 -0.464879 -1.8799553 0.117795534
000040 69 84 49 be 54 15 67 3d a7 43 9c 3f f0 4f 30 be
       -0.19679417 0.056416824 1.2208146 -0.17217994
000050 c0 22 7f 3e f5 ca 67 3c 64 22 a4 3e 53 00 25 be
       0.249156 0.01414751 0.32057488 -0.16113405
000060 e0 20 a8 3d 8a 00 da bd 5f 92 87 3e 76 83 93 bf
       0.082093954 -0.10644634 0.2647886 -1.1524494
000070 73 55 24 3e b2 57 44 bd 87 a8 53 3e 31 65 4d bc
       0.16048221 -0.047935195 0.20669757 -0.012536333
000080 da 82 23 3f b6 6d 84 bf fa 8b 9a 3e 79 e7 da bd
       0.6387154 -1.0345981 0.3018492 -0.10688681
000090 2d b7 5a bf 7f 4b 9e 3e 44 d7 e7 3e 18 ad a0 3e
       -0.85435754 0.30916974 0.45281422 0.3138206
0000a0 b2 db b0 3e 5c 51 d0 bd 02 b8 f4 3e 2b 97 2a 3f
       0.34542614 -0.10171768 0.47796637 0.66636914
0000b0 ce 77 a1 3d 1e c5 00 3d 27 78 8d be c9 e1 01 3f
       0.07884179 0.031437986 -0.2763073 0.50735146
0000c0 1f ee 21 3e 9e 32 c4 3d 52 8a c0 3d 07 6a 77 3e
       0.15813492 0.09579967 0.094013825 0.2416154
0000d0 17 7b f7 3e a6 14 05 3e 6f 5f 65 3c 1b e5 e6 be
       0.48336098 0.12996158 0.013999804 -0.4509667
0000e0 36 bd 33 3f 79 13 78 3f 24 5d ab 3e 03 06 0c 3e
       0.7021059 0.9690471 0.33469498 0.13674168
0000f0 28 42 ba bd df cb 48 3f 7b 4d 0f be f6 64 81 be
       -0.090946496 0.7843608 -0.139944 -0.2527234
000100 c1 78 37 bf 1b b7 dd be 7a 75 ac be 2b 4c eb bd
       -0.7166863 -0.4330376 -0.33683378 -0.11489137
000110 9b 46 da bd 83 62 a0 be 78 00 88 be dd 27 37 3f
       -0.10657998 -0.31325158 -0.26562858 0.715452
000120 e6 99 a4 bd 11 7f c6 3d d8 f7 b2 3e 15 0f b1 be
       -0.08037166 0.09692205 0.34954715 -0.3458182
000130 b0 5a 19 3e b5 42 d5 3e 18 53 41 be 08 aa 96 be
       0.14976001 0.41652456 -0.18879354 -0.294266
000140 f8 6b e5 3e 68 2e f3 be 49 5f 4e 3e 80 5c 64 3d
       0.44808936 -0.47496343 0.20153536 0.055752277
000150 6f f5 91 3e 84 75 d0 3e 46 48 83 be 16 f1 e5 3d
       0.28507563 0.40714657 -0.25641078 0.11227624
000160 7a 42 bc 3e 6d ca 03 bf 77 8e df 3d 4d 8c 0b be
       0.36769468 -0.5148075 0.10915845 -0.13627739
000170 92 c1 08 bf d8 dc f1 3e aa ec da 3d 60 68 09 bd
       -0.53420365 0.47238803 0.10689671 -0.033546805
000180 78 65 83 3e 80 ff 6b bf 14 ed 47 3e 97 8d 93 3c
       0.25663352 -0.9218674 0.19524032 0.018011851
000190 1c 4e 98 3e 04 f8 f3 3e 86 4a 12 3e c4 4a c8 3e
       0.29747093 0.47650158 0.14286241 0.39119542
0001a0 72 9b 8d bc 2b 34 4c bf 25 e3 ff 3e 0e 33 1d bf
       -0.017286036 -0.797671 0.49977985 -0.6140603
0001b0 ad 3a db 3d f7 fd 1f be b4 6c f1 be 62 2e ac bc
       0.10704551 -0.15624224 -0.47153246 -0.02101821
0001c0 b0 94 b2 3f ae b5 3b bd 78 1b a5 3f 5b 2a a5 be
       1.3951626 -0.04582756 1.2899008 -0.32258877
0001d0 4e 84 1a be 55 d1 39 3f cd 92 94 be fb b8 2c bd
       -0.15089533 0.7258504 -0.2901825 -0.0421686
0001e0 62 4b 05 bf 48 4b 41 3d a6 dd 15 3f 22 dc e8 3e
       -0.5206815 0.047190934 0.58541334 0.45480448
0001f0 0f 41 75 be 5f ec 3c 3e f5 4f 36 3f cd bf 82 3e
       -0.23950599 0.18449543 0.71215755 0.25536957
000200 74 8d 2a 3c 1f 80 b7 bf 2d dd f7 bb d2 3e 2d 3f
       0.010409702 -1.4335974 -0.007564208 0.6767398
000210 01 3e 07 be 95 0a e7 3d af b6 90 3e 4b 4e 8d 3e
       -0.13207246 0.11281315 0.28264377 0.27598795
000220 f7 f1 fc be 00 ae a0 be e2 16 bf be d6 2c c9 be
       -0.49403355 -0.3138275 -0.37322146 -0.3929202
000230 85 9c a1 be 0f 4a a0 be 7e a0 b4 3e 0a 22 11 3f
       -0.31564727 -0.31306502 0.35278696 0.56692564
000240 5c 93 0c 3e c7 df b0 3d 0f 49 57 3f 6f a4 53 be
       0.13728088 0.08636432 0.84095854 -0.20668195
000250 17 6e c3 3e 54 ab 90 be cb 0f 3a 3f 9a 45 48 be
       0.3816993 -0.28255713 0.7268035 -0.19557801
000260 90 35 16 3e 04 f8 7f 3e 7c bb d8 be 87 65 37 bd
       0.1466887 0.24996954 -0.4233054 -0.04477456
000270 eb 46 b9 be 0f 4a 20 be 1b 12 41 3e b2 f0 cf 3d
       -0.3618692 -0.15653251 0.18854563 0.10153331
000280 6d 59 d2 3e de 5e 77 bd ee df e3 bd 75 e7 46 bd
       0.4108385 -0.060393207 -0.111266956 -0.04856058
000290 6c de 8a bf 1f d8 1a be c0 5d b0 be 68 2a 2d bd
       -1.0849128 -0.15121506 -0.34446526 -0.04227677
0002a0 bb 35 09 3f a9 3d 86 3d bf 43 09 bf 56 39 80 3f
       0.5359761 0.065547295 -0.53619 1.0017498
0002b0 ed 1d 1b 3e 7c 40 05 3f b1 e3 2a bf 85 66 29 3e
       0.15148135 0.5205152 -0.6675368 0.16543014
0002c0 c6 1a f4 3e 59 e5 94 be c2 4f d1 3e be ab 2d 3e
       0.47676677 -0.29081228 0.40881163 0.16960046
0002d0 f5 2f ad bd 8a 31 c4 3e 0c fa 28 bf 1b 50 b4 3d
       -0.08456413 0.38319045 -0.6600654 0.088043414
0002e0 31 a1 f4 be 5d 25 32 3f 1d f3 f7 be 89 0a 67 bd
       -0.4777923 0.6958826 -0.48427668 -0.05640653
0002f0 fa 94 02 bf 31 38 aa bd ed 5d af be e2 1a f2 be
       -0.5100857 -0.08311499 -0.34251347 -0.47286135
000300 d4 ec 9f be ec 01 44 be 56 6d 46 3d fc 36 2b 3d
       -0.31235373 -0.19141358 0.048444115 0.041800484
000310 9e 91 5d 3f a1 9c f4 3e d5 59 0f 3f 84 1f 75 bf
       0.8655032 0.47775748 0.5599645 -0.95751214
000320 d2 15 78 be c7 c1 57 bf bf fb 11 be 25 96 24 3e
       -0.24227074 -0.84280056 -0.1425619 0.160729
000330 10 33 da be 31 99 12 3f a2 d4 c7 3c 8f a3 ea 3e
       -0.42617083 0.57265 0.024393383 0.4582791
000340 63 ed 43 be 7c 10 9b bc 80 0a ea bd 6d d0 e5 be
       -0.19133525 -0.018928759 -0.11427784 -0.4488558
000350 9a b4 26 3e 78 48 41 3f 06 7a 6d bf f7 bb 1d be
       0.16279832 0.75501204 -0.9276432 -0.15403734
000360 ff 1f e7 3e ca fd 71 3e 50 66 96 3e a8 38 8a bf
       0.451416 0.23631969 0.29374933 -1.079854
000370 43 10 c6 be ed d6 97 3e a8 3f cf be 32 84 aa 3e
       -0.38684282 0.29656163 -0.40478253 0.33303982
000380 a5 e0 90 be 1c ed 83 bf 33 28 25 3f 92 9c 3f be
       -0.2829639 -1.0306735 0.64514464 -0.1871207
000390 79 d4 af bf b5 ff 68 3e 1c e3 54 be 17 e3 a0 3e
       -1.3736717 0.22753794 -0.2078976 0.31423256
0003a0 f5 62 b4 bd 7f ba 08 bf ac 04 84 3e 08 e1 26 3f
       -0.08807937 -0.5340957 0.25784814 0.6518712
0003b0 88 50 0c 3f 4b a0 0b 3f 2e 76 77 3d a8 91 cc bd
       0.5481038 0.5454146 0.06041544 -0.09988719
0003c0 c6 7b a1 3f 8b 3c e3 3d 3f 80 ad 3e 48 6b 5b 3e
       1.2615898 0.11095532 0.33886907 0.21427643
0003d0 2b 50 ec 3d f8 2c 77 3f 92 c2 fd 3d de 17 38 3d
       0.11538728 0.9655299 0.12390627 0.044944637
0003e0 81 ef 8b 3e 26 a0 1e bf 13 85 02 3d 76 15 ad 3e
       0.27331164 -0.6196312 0.03186519 0.33805436
0003f0 81 47 27 3e 45 fd 4d 3d 8c 3a 75 be 53 30 00 3f
       0.1633587 0.050290365 -0.23948115 0.50073737

_orig_mod.rnn.bias_ih_l1 f4 [384]
000000 55 6e 43 3e de fb 74 3e d9 4c 6d 3c 57 91 4d be
       0.19085057 0.23924205 0.014483654 -0.20074974
000010 a0 df 57 be f9 b4 d5 bd 72 dd 34 be 37 07 4f be
       -0.210814 -0.104349084 -0.176626 -0.20217596
000020 9e 90 6f 3d 2e 94 a4 bd c5 cd 29 3e fb 3b e4 be
       0.058487527 -0.080360755 0.16582401 -0.4457701
000030 ba 77 2c bd 4b a5 3c 3f 73 70 eb bd af 8e 28 be
       -0.042106368 0.7368972 -0.11496057 -0.1646068
000040 c7 ff dd bd 6f 36 05 3f eb 30 e5 3d f5 7b f6 3c
       -0.10839801 0.52036184 0.11190971 0.030088404
000050 bd bb 1f bd a8 29 d1 3e 95 a4 3e 3e 58 f8 7d 3e
       -0.0389974 0.40852094 0.1861747 0.24801767
000060 b6 f1 bd 3e 75 b4 2b bd 1c 6d 3f 3f 34 bc f6 bd
       0.37098473 -0.041920144 0.7477586 -0.12047616
000070 9a b8 ed 3d dd b2 cd 3e 45 c9 95 3d e8 2c a3 bd
       0.116074756 0.40175524 0.0731378 -0.079675496
000080 ff 63 bd 3e 73 b9 81 be 53 18 95 3e 3d f8 7b 3e
       0.36990353 -0.253368 0.2912012 0.24606414
000090 9b 84 f9 bd e8 32 44 3e 8d 5b bd 3e 40 e5 b8 3d
       -0.121834956 0.19160044 0.3698391 0.09028101
0000a0 92 51 02 be 0f 83 21 3e 29 c6 a1 3e 44 1c 5b 3f
       -0.12726429 0.15772651 0.31596497 0.85590005
0000b0 67 1e 7c be 27 ec cc bd 48 93 32 bd 85 e4 b4 3e
       -0.24620973 -0.1000598 -0.04359749 0.35330597
0000c0 2d 5a e3 bd 67 8b 30 be c2 a6 a2 bd de 13 91 3d
       -0.11101184 -0.17240678 -0.07941963 0.070838675
0000d0 37 56 90 be 5b 5b 65 3e b1 e6 57 3e 79 16 5d be
       -0.28190777 0.2239813 0.21084096 -0.21590604
0000e0 e8 5d 6a bd 2d 92 65 be d0 12 61 3d 54 cb 0f bd
       -0.057218462 -0.22419043 0.05494958 -0.03510602
0000f0 04 20 76 3b d7 9c a1 bd a7 64 63 3e bc ad a3 bc
       0.0037555704 -0.07891243 0.22206365 -0.019980304
000100 53 c8 1c 3d 44 3f e5 3e 6a 46 a3 3e af 9c dd 3e
       0.03827698 0.4477483 0.3188966 0.43283603
000110 78 36 72 be c1 1c f9 ba eb 5b 88 3d ba 44 37 3e
       -0.2365359 -0.0019005762 0.06658157 0.17897311
000120 8b ae 30 be 30 84 02 bf 8c 0f 87 bd d3 ff a7 bd
       -0.17254083 -0.5098295 -0.06594762 -0.082030915
000130 e2 55 3a be 89 15 89 bc 0b 60 f8 3e 58 ae ba 3e
       -0.18196824 -0.016733902 0.48510775 0.3646114
000140 19 8a 9b bd 80 dc 3b 3e 09 cd e0 3c 63 1f 11 be
       -0.075946994 0.18345833 0.027441518 -0.1417213
000150 66 85 00 bd c2 09 0c be 60 c3 7e bc 34 4a bb bc
       -0.03137722 -0.13675597 -0.015549511 -0.022862531
000160 8d 38 9f be 95 a6 78 3b 82 a5 31 3e a0 fa 97 3e
       -0.31097832 0.0037941088 0.17348292 0.296834
000170 59 d6 3c 3f 7e 96 3f 3e 50 3d 6e be 64 7a 96 be
       0.7376457 0.18709752 -0.23265576 -0.29390252
000180 7c 81 4d bd dd e0 7d bd 0d 1f 2e be c1 8c 63 3e
       -0.050172314 -0.061982024 -0.17004032 0.22221662
000190 75 6b 6d 3d be fc 72 be a8 15 04 3f be eb c4 3e
       0.057963807 -0.23729226 0.51595545 0.38461107
0001a0 7e 68 86 3d f8 f2 4b 3d 18 2d 0e 3e 29 5d 87 bd
       0.06562899 0.04979226 0.1388439 -0.06609566
0001b0 eb e3 a1 3e 55 a7 74 3d 68 3c 8e 3d 5a d8 dd bd
       0.316192 0.059729893 0.06945115 -0.108322814
0001c0 30 54 27 bd 24 44 a9 3d 3f 30 39 be f6 4d b3 3e
       -0.04085177 0.0826495 -0.1808481 0.35020417
0001d0 b1 03 9e 3e 33 0c fa 3b d9 16 68 3e 7d 1a ff 3d
       0.3086219 0.007630849 0.22664966 0.12456224
0001e0 73 03 a5 bc d2 93 bd 3c ad 08 02 3e d4 04 37 be
       -0.020143246 0.023141775 0.12698622 -0.17872936
0001f0 77 2a 8e bd 15 37 d5 3e f4 d7 18 3f 20 e7 71 be
       -0.06941693 0.41643587 0.5970452 -0.23623323
000200 c6 f3 35 3e 6a 40 2f 3f 1a af 2b 3f e9 91 0a 3e
       0.17768773 0.68457663 0.6706406 0.13532223
000210 b9 39 51 3e 21 e2 ab 3f e0 cc 20 3f 20 b9 1a bd
       0.20432176 1.3428384 0.62812614 -0.037774205
000220 3a b5 e6 3e c4 f3 57 3f 7e 3b cc bf 9b 5c 2d 3f
       0.4506014 0.8435633 -1.5955656 0.6771943
000230 03 19 20 3e b0 81 1e 3e e1 e9 a0 3f a5 44 c6 3e
       0.15634541 0.1547916 1.2571374 0.38724247
000240 c0 a6 a9 be fc 88 14 3f c0 78 22 be 4c 5a 70 3f
       -0.33135033 0.5802152 -0.15866375 0.9388778
000250 f0 e6 b3 bf 7e a3 30 3f 70 fe 05 bf 25 83 19 bf
       -1.4054852 0.6899947 -0.52341366 -0.59965736
000260 95 06 c0 be 47 19 10 bf 07 78 c7 3e f8 9a 91 3f
       -0.37505022 -0.5628857 0.3895876 1.1375418
000270 f1 c2 c4 bd c8 06 f5 bd ff 53 0e 3f 62 78 8c 3f
       -0.096074946 -0.11964184 0.5559692 1.0974238
000280 14 c5 45 3d 9c 67 33 3f 8e fb 63 be 2b 9e 8f 3d
       0.04828365 0.7007997 -0.22263929 0.0701259
000290 dc 41 7c 3f 8a 57 59 3e c0 b0 7e 3e b0 a7 23 3e
       0.98537993 0.212248 0.24872112 0.15981936
0002a0 2e 9b d9 3e bc 06 ea bd bf 49 cd bf a4 42 d7 3e
       0.42501205 -0.11427066 -1.603813 0.4204303
0002b0 aa eb 81 3e 5d 05 a1 3f 35 a0 4d 3f b0 c5 a0 3d
       0.2537511 1.2579762 0.8032258 0.07850206
0002c0 d9 83 ce 3e 4d a6 82 bd 55 97 31 3f 5c e3 a4 bf
       0.40334967 -0.063793756 0.6937154 -1.2881885
0002d0 2f 46 5e 3f 41 32 1e 3f ec 72 46 bf 1f 58 df be
       0.8682584 0.6179543 -0.77519107 -0.4362192
0002e0 e7 10 b4 be d9 2d 97 3f 19 91 74 bf c5 0a ab 3d
       -0.35169145 1.1810867 -0.955339 0.083516635
0002f0 e1 b2 56 3e 17 05 7f 3e fc 68 64 bd cd e6 6f 3f
       0.20966674 0.24904285 -0.055764183 0.9371155
000300 a3 b2 d2 3e f1 fd 32 3e 1a 82 26 3f a6 a8 6c 3d
       0.41151914 0.17479683 0.6504227 0.057778023
000310 23 e0 3c 3f 7a cb 36 bd 7a ee 17 3f a6 43 3b 3f
       0.73779505 -0.044627644 0.5934826 0.731501
000320 2e 42 03 3e 30 80 4f be c2 ac 2f be 47 5e ec bf
       0.12818214 -0.20263743 -0.17155746 -1.8466271
000330 54 24 fc 3e 71 c4 01 3f 3a 24 73 3e 93 9c 42 3e
       0.49246466 0.5069037 0.23744288 0.19005041
000340 07 85 4c be f8 38 99 be 8c fc 8c bf 42 8c 71 3e
       -0.19972621 -0.29926276 -1.1014571 0.2358866
000350 14 be dc bd fa ce e9 be cf 17 11 3f 88 33 e2 bd
       -0.10778442 -0.45665723 0.56676954 -0.11044985
000360 ac 7f 94 3f aa 8a 9f bf 53 3c 3e 3e 6c 56 78 3f
       1.1601462 -1.2464192 0.185777 0.9700687
000370 5b 83 96 3f 59 c2 66 3f 67 63 39 bf f0 50 a5 3e
       1.1758837 0.901403 -0.724173 0.32288313
000380 66 5b 7d 3f b0 0a 93 3f f1 1a ee bf 2e fe 91 3f
       0.9896759 1.1487637 -1.8601972 1.1405694
000390 8c 34 9a 3f 63 e9 f4 3c 1d 67 03 bf 24 ca 37 3f
       1.2047286 0.029896444 -0.51329213 0.7179282
0003a0 ed 49 66 bd b4 23 4c 3f 81 36 87 bd 94 7f 33 3f
       -0.056222845 0.7974198 -0.06602193 0.70116544
0003b0 2b a7 7a 3f 29 6a 5d bf 62 67 1c 3e ee 24 a7 be
       0.9791133 -0.8649011 0.15273812 -0.32645363
0003c0 99 f5 29 3f 5f d1 2b 3f 27 9d 21 3f ab be 7a be
       0.6639038 0.6711635 0.6313042 -0.24486797
0003d0 d9 81 0c be 9f aa 0f 3f f6 ab ce 3d 28 0e 26 3e
       -0.13721408 0.5611972 0.10091393 0.16216338
0003e0 c3 94 5d 3f 0e 4d 12 bf 52 ad 82 3f b9 35 88 3f
       0.8655512 -0.57148826 1.0209143 1.0641395
0003f0 b6 20 ce 3e 3d 41 04 bf 7e ba 80 bd f9 24 8e 3f
       0.4025933 -0.51662046 -0.062855706 1.1105033
