4.2_Analysis/Train_Models/model_3/GRU_SupConLoss_best.pth (torch, 873576 bytes, 10 tensors)

_orig_mod.rnn.weight_ih_l0 f4 [384, 93]
00000000: 962b 8dbe 0206 ad3c 3a99 3dbe 108d e73e
00000010: 4e1b b9bd 3524 81be 2106 8fbe 8fb0 89bd
00000020: 106c c23c f596 273c 8d1e 3a3e 35b2 0bbe
00000030: 7069 7cbd 53cc 5ebb 4574 3d3d f6bc 8cbe
00000040: cb22 ed3d b76c 7fbe 5fe8 90bd 850d 12be
00000050: 190d eebd 74b6 45bd b4d7 453d b924 24bc
00000060: 65ad 30bd 43f1 793e c355 64be ecd7 b43d
00000070: 2746 d93c 77d8 623d 3c9d d4bd d910 30bd
00000080: 4be7 d03d 782e 1abe 438b 433d 9bdd 6ebe
00000090: 141a 723d ee95 9f3e 403b ad3e 4af3 85bd
000000a0: ad73 10be f135 f9be 909d 85bd 298f 8ebe
000000b0: 378a 6b3e 271c 94be d94d 22be e1e1 8b3d
000000c0: d4f8 a0bd 4991 3dbe f54f 9cbe 1387 f23d
000000d0: 4dae cb3c 295c 86bd 46f4 f7bc d19b 4e3d
000000e0: 1b77 3fbe f491 b2bd db90 fdbd 013a 373e
000000f0: ec8e 6d3c 39a6 27be d26a 34bd 3daf 14be
00000100: 4fb5 cfbd 5dbb 193e 41e0 15be 7bea 0bbd
00000110: 0237 143e 3f72 e3bd 5727 4d3d 1d11 08be
00000120: d5e8 aabd 1938 f8bd 9dbf 6f3e 61d6 0abe
00000130: b3d6 323d ff15 0cbe 17c3 be3d 4a8d 47be
00000140: 3308 48be 9f80 ad3d 85ba 303d 080b 0f3e
00000150: 38d6 283e b707 1fbf 5c27 873d 51ac 22be
00000160: 817c 873e aa31 9abe 4377 f1bb ed56 fbbd
00000170: b3a1 51bd 4a30 dabd 2547 943d cf70 eebd
00000180: 31dc f73d a4bb 44be 353a cfbd df24 103d
00000190: 813f b33b 2161 853d 2a9d 4dbe ce02 7f3d
000001a0: 392f 053d 0934 bcbc a404 213d 95d0 babc
000001b0: b75f bdbd 4891 e9bc 141f 203e 6c3a d6bd
000001c0: ef39 cfbd 66a0 ae3d 02b1 753e 1a4f a83d
000001d0: 7093 ab3d a73b 2f3e 7ade 003d 31e8 553e
000001e0: cbd3 a4bd f998 27be 5e8f 93bc 83dc f03d
000001f0: 4f34 5fbd 2c17 e8bc c2c4 1cbe d566 433d
00000200: 0d02 ec3d 9900 0dbe 5ab4 39be 62ed 24bc
00000210: 4d5c b1bb 21e2 c5be 5687 193b 104d 8d3e
00000220: 63d5 26be d067 b5bd bdc7 633d 0778 243e
00000230: ac78 58bd 78ee 96bd 4ab7 233e b0f8 00bd
00000240: 781b 443e 9701 47be 499c 36be 723f ee3d
00000250: b9d0 2bbd e36d b23d a62d 4b3d df39 813e
00000260: 9818 10bd 9ca0 e4be 1657 853c 78ea b9bd
00000270: dabc c3be 8744 e8be c29b 89bd dee4 9e3e
00000280: a9fb 6d3d 4b2d 893d 61d6 fbbb 34bd cfbe
00000290: 4530 f9bb 9abb 14bc 67db 453d c7eb 223e
000002a0: e516 01be 82f6 50be 89ed 80be e516 123d
000002b0: 7bb4 343c 6712 c03c 3ce1 33bd d1f0 b23d
000002c0: 0e69 333e 1eea 4ebe 83b0 713e bc23 f33b
000002d0: c8d8 00ba b67f 98bd c272 b63c efff 89bd
000002e0: 3f53 613d 27ab ba3c c7be 41bd 1c7a 4d3d
000002f0: 83cf 8cbb a541 843d f922 313e e7fb dfbc
00000300: e962 8c3d 3ca8 ef3d ca30 8abc 43b3 92be
00000310: 7ea2 813e 5a92 6abe 1f19 2cbe 3a5b 3ebe
00000320: 0397 56be f18e e93d e50c 1fbd d525 b63d
00000330: e381 1ebd b50d c5bc c7ee 50be 7a9e 26bd
00000340: 7d14 06be 5eb2 f4bd a36f 86be 7bd5 97bd
00000350: a330 a1be 9aed 3f3d c0ab 82be fa37 96bd
00000360: 4ae5 adbd 3e51 adbd 6d12 c2bd 6879 58be
00000370: 1b72 c4bb a6d3 b73e 6eac 8c3c ea69 d8bd
00000380: aaf0 c4bd 0298 acbe 5814 f03c 1ef2 19bd
00000390: fb8d f8bc b8a7 853c 721c 5b3c fa12 b33e
000003a0: ac7f 7c3c 5d40 d03e b97c dd3c f046 813e
000003b0: 1ff3 20be f5d5 c83c 7718 4bbe 8904 193d
000003c0: 0686 aebd 3315 80be 74d9 f4bc 83c2 c23e
000003d0: eace 89bd c657 80be e6e8 d5bd cff4 af3d
000003e0: 2750 c2bd fcfc 2ebd e412 0dbd 89af 92bd
000003f0: 993f 54bd 7794 773e 1fa4 9a3e 78cf 493e
-0.27572316 0.021121029 -0.18515483 0.4522481 -0.09038411 -0.25222936 -0.27934363 -0.06723129
0.023733169 0.010228862 0.18175717 -0.136422 -0.06162399 -0.0033996298 0.04625346 -0.27487916
0.11578902 -0.24943815 -0.07075571 -0.1426297 -0.11623592 -0.048269704 0.048301414 -0.010018521
-0.043134112 0.2440844 -0.2229834 0.08830246 0.026522709 0.05538222 -0.103815526 -0.042984817
0.10200366 -0.15056789 0.047740232 -0.23326723 0.0591069 0.31169075 0.33834267 -0.06540544
-0.14106627 -0.48673967 -0.06524193 -0.27843598 0.23001944 -0.2892773 -0.15850009 0.06830192
-0.0785996 -0.18512453 -0.30529752 0.118421696 0.024863387 -0.06560547 -0.030267846 0.050441567
-0.18697779 -0.087192446 -0.123811446 0.1789322 0.014499407 -0.16372003 -0.044047184 -0.14519973
-0.10142004 0.1501288 -0.14636327 -0.034159165 0.14474109 -0.11105775 0.050086346 -0.13287778
-0.083451904 -0.12120075 0.23412938 -0.13558342 0.043661784 -0.13680266 0.09314554 -0.19487491
-0.19534378 0.08471798 0.04314663 0.13969052 0.16487968 -0.62121147 0.06599304 -0.15886046
0.26462176 -0.30116016 -0.0073689534 -0.12272439 -0.0511796 -0.10653742 0.07240132 -0.1164261
0.12102545 -0.19212204 -0.10118524 0.035191413 0.0054702167 0.065126665 -0.20079485 0.062258534
0.03251574 -0.022974031 0.039311066 -0.022804538 -0.09246772 -0.028511658 0.15636855 -0.10460362
-0.10118472 0.08526687 0.23993304 0.082182124 0.08377731 0.171126 0.03146217 0.20889355
-0.08048209 -0.16366948 -0.018012699 0.11760809 -0.054493245 -0.028331362 -0.15309432 0.04770549
0.11523829 -0.13769759 -0.18135205 -0.010066362 -0.0054126144 -0.38649085 0.0023426614 0.27597857
-0.16292338 -0.08857691 0.055610407 0.16061412 -0.052849457 -0.07369703 0.15987888 -0.031487167
0.19151103 -0.194342 -0.17833056 0.11633195 -0.0419471 0.087123655 0.04960408 0.25239465
-0.035179704 -0.44653785 0.016276877 -0.090779245 -0.3823002 -0.45364782 -0.067191616 0.31033987
0.05810133 0.06698092 -0.007685468 -0.40574038 -0.007604631 -0.009077931 0.04830494 0.15910254
-0.1260639 -0.20406535 -0.25181225 0.035666365 0.011029358 0.023446275 -0.043915972 0.08737338
0.17520544 -0.20206496 0.2360249 0.0074200314 -0.00049151154 -0.07446234 0.022271518 -0.067382686
0.05501103 0.02278669 -0.04730108 0.05016528 -0.0042971983 0.06457833 0.17298497 -0.027341796
0.06854803 0.1170201 -0.016868968 -0.2865239 0.25319284 -0.22907391 -0.16806458 -0.18589488
-0.20956044 0.11404217 -0.038830657 0.08893935 -0.03869809 -0.024054388 -0.20403586 -0.04067848
-0.13093753 -0.11948083 -0.26257047 -0.07413765 -0.3148242 0.046857454 -0.2552166 -0.073348954
-0.08490999 -0.08462761 -0.09476171 -0.21140063 -0.0059950477 0.35903662 0.017172065 -0.105670765
-0.096162155 -0.33709723 0.029306576 -0.037584417 -0.030341139 0.016315326 0.013373481 0.34975415
0.015411299 0.40674105 0.027037011 0.25249434 -0.15717743 0.024516085 -0.19833551 0.03735784
-0.08521657 -0.25016174 -0.029888846 0.38039026 -0.06728919 -0.25066966 -0.104448125 0.085916154
-0.09487944 -0.042721733 -0.034441844 -0.07162387 -0.051818464 0.24177729 0.3020334 0.1970805

_orig_mod.rnn.weight_hh_l0 f4 [384, 128]
00000000: cd43 a13e f885 383e 7d02 88be 8742 23be
00000010: 8b59 3d3e f80c 8ebe 6f28 963e ac08 d43d
00000020: 1b1f 043e 60c0 03be c369 75bd 84dd 26bd
00000030: d05b 1abe ac46 9b3d 6831 9ebd 94dc 34bc
00000040: c817 0ebd 6e90 cd3c b35c 17bf a158 d6bb
00000050: d619 78bd 54a4 403b 97d0 d2bc 58ac 6b3e
00000060: 2acc 043d 7267 e43e e25a 7d3e 9aa7 16be
00000070: 09eb 46be 6525 86bb f312 8e3e 07b9 a83d
00000080: 3c17 323e a2ef f13c 5ed5 033e c7b0 49bc
00000090: da2b 77be 639e 95bd ebad 9d3e 9808 2a3e
000000a0: 4b61 1f3e d0b7 363d c24f f1bd 3edd 173e
000000b0: b741 9fbe db57 103e 31e9 b63e ffd1 cebe
000000c0: 1fbb d2bd a926 09bf 03f3 a13d 7643 7abe
000000d0: 6d89 bfbc e9b8 b7bc 2ebd 6f3d bf50 e6bd
000000e0: 500e 9ebe 9e66 98be 9a12 463e a3ff 593e
000000f0: b65f 0fbd 0f6d 3bbe 98de 713e 13f0 2abe
00000100: 1838 a13e 6204 8fbe 79c0 9abe 3025 b6bd
00000110: 4e38 aebe d389 04be 6c05 a23e 8cc7 01be
00000120: 441d d8bd 7584 85be 655b 90be 275b 263e
00000130: 3e10 963e 1395 b13e b351 afbd 0f70 f3be
00000140: e591 66be ff5a 27be 07bc 6bbc 57e4 9b3e
00000150: 1cb7 a83b 8d80 3cbe be27 c23c abac 68be
00000160: 7eb7 15be 377e 8cbe a139 c1bd d02f 853d
00000170: 575d b8be b778 183d db15 d93b 786d f2be
00000180: 60c1 9fbe 5a49 a2bd 5321 91be 60d4 253e
00000190: 09cd 813e 08ae 14bc c377 683e 37d7 67be
000001a0: 2c28 a3bd 9b0e a43d 4f0b e0bd e11f b33d
000001b0: 5577 ba3e 6343 1b3e 8794 2d3e a3e0 bd3e
000001c0: ff2d b23d 2fed 03be e3d7 f13d 023c 863e
000001d0: 4932 57be 1b2f 8c3d 91a0 323e 7696 09be
000001e0: 53d1 91bd f099 723d ef8f 55be cd8c e6be
000001f0: d6f6 1fbe e081 2fbe c638 91be 9b6b 52be
00000200: 5abe 153e 770f a63d f2cc 1cbd b03b 783a
00000210: 589e 603c 29be cabe a62e 0fbe 1400 c73e
00000220: f0e1 87be 85b0 bc3d 46ca 253e 0bd3 8abe
00000230: 2031 ea3d 0416 01bd 5949 22be ea84 653e
00000240: 03c5 cc3d 259f 5c3d 9335 8abb 919a 613c
00000250: e92d 7e3e 1c00 f3bd dee2 483e dd57 86be
00000260: b7cf c3bd 9bdc 3e3c 6fe7 b23d 5103 8bbe
00000270: 1490 973d b439 823e 3e24 cc3e 1bc5 ccbd
00000280: 45bd d0be 7152 41be ab58 e0bd dbf4 3f3e
00000290: 49e8 fbbd 0857 963d 51d4 00bd cda8 d53d
000002a0: 36f6 a03e e071 113e 2d06 ddbd f336 203e
000002b0: 91c0 5d3d e621 8fbe 4fc1 3e3e 040d e63d
000002c0: 7363 933d ce2a 7c3e f16b e5be 0ca8 8bbe
000002d0: 2d2a 193e f7ad 833e 4117 b2bd c9a1 d33d
000002e0: b432 dcbd d063 a63d d072 22be e9f7 69be
000002f0: a5d4 5cbd 020b d33d 33e7 293e 27b2 eb3e
00000300: 2a9c f63b 6856 64be bfdf 9b3e 57af 1ebe
00000310: 2eae f13d a6b1 54be 6940 f13d e04f 73be
00000320: 7594 a8be daa0 7d3e 35b1 26be 00a4 84be
00000330: 96e8 29be 70ca 26bd 31f4 803d 2509 0e3e
00000340: 11ed 0e3b fb78 42be 0066 98bd 1907 363d
00000350: 95da 403e 35e7 05be 3991 e3be 80a8 503e
00000360: b0f9 823d 52c1 2fbe 0d10 ffbd 7317 44be
00000370: 52b5 0f3d aeaf 133e 1305 cb3d 332d 97be
00000380: 1860 9dbd ba5e 01bd 024c 1dbe 28c4 e5bd
00000390: 995a 4cbc 02a0 1b3e 4b74 4fbd 5a75 5c3d
000003a0: 2020 463a 4f75 be3d 3259 ec3d abbb 48be
000003b0: ddcf 9ebd 9e67 463c ec22 99bd 027d 1bbd
000003c0: 89ee 213e afb2 0abe b5ae f23c 8c4f e0bd
000003d0: 30d5 1d3c 261a 09be f493 b3bc 7e78 4c3d
000003e0: 77a1 ad3d b04b a33c 5c98 51be 9fac b33d
000003f0: 014b 66be ddff b13d 5dbf 853e 481b 35bd
0.3149704 0.18019855 -0.26564398 -0.15943347 0.18491189 -0.2774427 0.29327723 0.103532165
0.12902491 -0.12866354 -0.059915315 -0.040738598 -0.15074086 0.07581839 -0.07724267 -0.011038918
-0.03469065 0.025093284 -0.5912582 -0.006541327 -0.060571514 0.0029394822 -0.025734229 0.23014963
0.03242127 0.44610173 0.247417 -0.14712372 -0.19425596 -0.0040938132 0.27748832 0.08238416
0.17391676 0.029533211 0.12874362 -0.012310213 -0.24137822 -0.073056005 0.3079675 0.16604841
0.15564458 0.04460889 -0.11782791 0.14830491 -0.31104824 0.14096014 0.35724786 -0.4039459
-0.10289597 -0.53574616 0.07907679 -0.24439797 -0.02338096 -0.02242704 0.058530025 -0.1124587
-0.30870295 -0.2976579 0.19343033 0.21288924 -0.035003386 -0.18303321 0.23620069 -0.16693144
0.3148811 -0.2793303 -0.3022497 -0.08893812 -0.34027332 -0.12943201 0.31644762 -0.12673777
-0.10552457 -0.2607762 -0.28194728 0.1624571 0.29309267 0.34684047 -0.08560505 -0.4754643
-0.22516592 -0.16343306 -0.014388091 0.30447647 0.0051487815 -0.18408413 0.023700591 -0.22722118
-0.14620778 -0.27440044 -0.0943482 0.0650326 -0.36008713 0.037224498 0.00662492 -0.47349143
-0.3120222 -0.07924147 -0.28345737 0.16194296 0.25351742 -0.009074695 0.22701935 -0.22640692
-0.079666466 0.08010598 -0.10939657 0.08746315 0.36419168 0.15162425 0.1695119 0.37085447
0.08700179 -0.12883447 0.11808755 0.26217657 -0.21015276 0.06844922 0.17444064 -0.13436303
-0.071200036 0.059228837 -0.20855688 -0.45029297 -0.15621504 -0.17139387 -0.28363627 -0.2054886
0.14623395 0.081084184 -0.03828139 0.00094693433 0.013709627 -0.39598206 -0.13982639 0.38867247
-0.26539564 0.09213356 0.16190442 -0.27114138 0.11435151 -0.031515136 -0.15848292 0.22413984
0.099985145 0.05386271 -0.0042178123 0.013769762 0.24822201 -0.11865255 0.19617793 -0.2623891
-0.09561103 0.011649276 0.08735549 -0.27150968 0.074005276 0.2543465 0.398714 -0.099985324
-0.407694 -0.18879105 -0.10954412 0.18745749 -0.12300164 0.07340819 -0.03145248 0.10432587
0.31437844 0.14203596 -0.107921936 0.15645961 0.054138724 -0.2795555 0.18628429 0.11232951
0.07196703 0.24625704 -0.44808915 -0.27276647 0.14957495 0.25718662 -0.086958416 0.103335924
-0.10751858 0.081245065 -0.1586411 -0.22848476 -0.05391373 0.10304834 0.16592102 0.46034357
0.0075259404 -0.22298586 0.30444142 -0.15496574 0.118008 -0.20770893 0.117798634 -0.23760939
-0.32925764 0.24768391 -0.16278537 -0.25906372 -0.1659263 -0.040720403 0.06296576 0.13870676
0.0021808783 -0.18991463 -0.0744133 0.044440363 0.18833382 -0.1307648 -0.44446734 0.20376778
0.0639528 -0.1716359 -0.12454233 -0.1914957 0.03508503 0.14422485 0.09913077 -0.29526672
-0.07684344 -0.03158448 -0.15361026 -0.112190545 -0.012472772 0.15197757 -0.050648015 0.053822853
0.00075578876 0.092997186 0.1154045 -0.1960284 -0.077544905 0.012109665 -0.07477364 -0.037961014
0.1581365 -0.13544725 0.029624322 -0.10952672 0.009633347 -0.13388881 -0.021921135 0.049919598
0.084780626 0.019933552 -0.20468277 0.08773159 -0.22489549 0.0869138 0.2612256 -0.04421547

_orig_mod.rnn.bias_ih_l0 f4 [384]
00000000: 444e 84be edc8 153e 7770 3a3e 0e7a 11bd
00000010: fbfc f4bc 9f91 a83e 5a42 a6bd 225d 893e
00000020: 6052 d73c 8e2b 9c3d ce5d 083e fb58 613d
00000030: e5fe b7bd 2cf5 183e 591d 3cbd fda8 f23d
00000040: a65a a63d 67a2 b73e b87a 023c 6d60 54bc
00000050: e9dd c93d 5a31 c0bd 461e 853c 8cb4 8e3e
00000060: 4458 393e faf9 e13d 0ac1 4f3e 3868 053e
00000070: b368 ce3c 6ba8 813e 9860 ba3d f903 da3e
00000080: 0fba 15be 9c69 a43d ada4 f0bb 92f3 ca3e
00000090: 557d 963e 8342 5c3d 04bc 1dbe e4bd 983d
000000a0: b04b b43d 3b68 0e3e 01f3 db3c 57a5 4a3e
000000b0: bd4b 513e 1525 863d 75f2 193e 6a6d 743e
000000c0: 7bcc 8d3d 7943 233e dd49 673e 0c33 f73d
000000d0: 1c22 22be 2ece 2b3e 4ec2 3b3d 2a4b 7a3e
000000e0: 5e9c 5b3e 04d2 2d3e b379 5e3e 2247 603d
000000f0: 1df6 173e e6e8 223e f0a4 253e ecb7 e1bc
00000100: c8dd d33b b73c 863d 17e2 a93e c4a8 3d3e
00000110: 3404 503d 2e3e 3e3e 3187 10be ad6d 3f3d
00000120: a739 103e 09a2 cc3d 8003 50be bdc8 9f3b
00000130: 8a9a 65bd 791f 303d 351e 2d3e 7dee 2f3d
00000140: fcdc 453e 2ffd 54bd 3ddf 493c fc46 1e3e
00000150: 759b 5ebb 1e32 efbd d0d0 863e 3a53 213e
00000160: e195 77bd bda8 633d 33f0 cdbc cb09 0e3e
00000170: 98b2 b63e 2467 bd3e 1ef0 813e e2f7 753d
00000180: 5119 edbd 3c37 ec3d efb9 373b fcf9 16be
00000190: 15eb 993d 076f f13c 8f35 d6bd 77b3 06be
000001a0: c679 5ebd 5e75 653e 6b7e 8dbc d9ac e63d
000001b0: 3104 813d f0dc 1a3e 89f8 1b3d c17d bc3c
000001c0: ebaf 763e b3fb c0bb 1d3f ba3e 0dc6 39bc
000001d0: 3ffc cebd 16c5 47bd f184 3bbe 9532 49bd
000001e0: b5e4 763d 71fb 7b3e eaa6 893e 263f 493d
000001f0: ba5a 8d3e 50f1 c53e 9888 39bd 4186 af3d
00000200: 2cb5 e0bc 93c2 71be 5010 b43e 4ca9 4d3f
00000210: 42c6 163f fb33 7e3e d51d 4f3f 8042 383f
00000220: f58a 413f 1bc4 a03b 9c2e c13d 6530 173e
00000230: e025 2f3e c966 613e 730a 3e3e 2fa3 51bd
00000240: 22df 463f ee61 97be 6924 ae3d a58f a4be
00000250: 9f34 dc3e 9664 0d3f 2b3d 5f3f 3f80 ed3d
00000260: 6b8f 373f ff69 923d 5ac3 583e 5984 c43e
00000270: 5b23 8bbe 55ef 833f edc7 353f 401d 79be
00000280: 68de 143f ec6c 913e 2cb9 543e 9831 3d3f
00000290: 7def 0d3f 5bee 3ebd e4d3 373f c1e8 253e
000002a0: 0d0d e73e 2282 283f b0ad 6c3d f894 e83e
000002b0: 7977 113e e77f 533f 2e31 ea3e 24c2 11be
000002c0: 0430 0d3f bc86 1c3e 30a6 093f b282 693f
000002d0: 4742 643f 1c7d 183f aee5 043f 0933 6e3f
000002e0: 61ca b43e 6fca b43e f2c8 393e 8612 153f
000002f0: 096d 1d3f 75c7 c7be edb7 5abc 5b7a 173f
00000300: 7498 373f 9bdb 4b3f 6417 213f 837f 843f
00000310: e9a9 9bbe fbaf 833e f47c 17bd bf79 343f
00000320: 20fa 6a3f 26a8 3c3e ddf0 b43e a14f 633f
00000330: 1c91 b9be fde4 1d3f f66b 0a3e 3329 6a3f
00000340: b099 16be 4bb4 123f 3271 423f 38a0 e03e
00000350: eb60 e3bc 008f b33e 275f 383f 558a 03bd
00000360: e144 4d3f c6b7 203f 6dc1 bbbd cfac 163f
00000370: 0fd0 3e3d 9048 31be 62d2 913d ab3c 193e
00000380: c353 b3bd 372b 0cbe d0b3 3a3f d116 a0be
00000390: fc0f 24be ba49 273e 2ae7 df3d b659 743e
000003a0: 4b03 383e f143 c93d 4cd3 ba3e b9f2 813f
000003b0: e56b 443f 77b7 433d 17f8 e33e d3f8 2f3d
000003c0: 3908 24be 75a6 d43e 1955 9f3e 90d7 e4be
000003d0: aba7 6fbd 42fe d23d 19a9 bd3e 5e69 e03e
000003e0: 5714 2bbd bfb8 d4be b2cc 73bd bf99 babe
000003f0: a8e5 0c3f c02c 793f cb11 553f 520c 033f
-0.25840962 0.14627428 0.18206964 -0.03551679 -0.029905787 0.329236 -0.08118124 0.26828867
0.026284397 0.07625495 0.13317034 0.0550165 -0.08984164 0.14937276 -0.045926426 0.11848638
0.081227586 0.3586609 0.007963829 -0.012962443 0.09856779 -0.09384413 0.016249787 0.2787212
0.18100077 0.11034007 0.20288482 0.13028038 0.025196409 0.25323805 0.09100455 0.42581156
-0.14621757 0.08027956 -0.0073438496 0.39638954 0.29392496 0.053774368 -0.15403754 0.07458094
0.08803499 0.13906948 0.026849272 0.19789635 0.20439048 0.065500416 0.15033896 0.23869863
0.06923767 0.15943708 0.2258677 0.12070283 -0.15833324 0.1677787 0.0458396 0.24442735
0.21446368 0.16974646 0.21726112 0.054755338 0.14839979 0.15909156 0.161762 -0.027553521
0.0064656474 0.06554549 0.33180305 0.1852141 0.05078526 0.18578407 -0.14114071 0.046735454
0.14084493 0.09991843 -0.20313835 0.004876225 -0.056055583 0.042998765 0.16906054 0.04295205
0.1932258 -0.051999267 0.012321291 0.15456766 -0.0033967171 -0.11679481 0.26331186 0.15754405
-0.06044567 0.055580843 -0.02513895 0.13870923 0.3568313 0.36992753 0.25378507 0.060050853
-0.11577094 0.115339726 0.002803441 -0.14743799 0.075155415 0.029471887 -0.10459434 -0.13154398
-0.05431535 0.22408053 -0.017272195 0.11263437 0.062996276 0.15123343 0.03807882 0.023009183
0.24090545 -0.00588938 0.36376277 -0.011338723 -0.10106706 -0.04877194 -0.18312432 -0.049120504
0.060276706 0.24607636 0.26885158 0.04913249 0.2760828 0.3866067 -0.04529628 0.08570529
-0.02743014 -0.2360938 0.35168695 0.8033645 0.5889627 0.24824516 0.80904895 0.7197647
0.75602657 0.00490619 0.09432718 0.14764555 0.17104292 0.22011866 0.18558674 -0.051181015
0.77684224 -0.29566902 0.085030384 -0.32140842 0.43008897 0.55231607 0.8720271 0.115967266
0.71703213 0.071491234 0.2116827 0.38382223 -0.27175412 1.0307413 0.7100819 -0.24327564
0.58151865 0.28403413 0.20773762 0.739038 0.55443555 -0.046614032 0.71807694 0.1620207
0.45127144 0.65823567 0.05778283 0.45426154 0.14205731 0.8261704 0.45740646 -0.14234215
0.5515139 0.15285772 0.53769207 0.9121505 0.8916363 0.595659 0.51912963 0.93046623
0.35310653 0.35310695 0.18143061 0.5823139 0.614945 -0.3901936 -0.013349515 0.59171075
0.71717 0.79631966 0.62926316 1.0351413 -0.3040307 0.257202 -0.0369844 0.7049827
0.9178791 0.18423519 0.35340014 0.8879338 -0.36243522 0.61677533 0.13517746 0.91469115
-0.14707065 0.57306355 0.7595397 0.43872237 -0.027756175 0.35070038 0.7202019 -0.032114346
0.80183226 0.62780416 -0.091677524 0.58857435 0.04658514 -0.17312837 0.071202055 0.14964549
-0.08756211 -0.1368836 0.7293062 -0.31267408 -0.16021723 0.16336718 0.10932763 0.23862347
0.17970006 0.09827412 0.36489332 1.0152198 0.76727134 0.047782388 0.44525215 0.042961907
-0.16018762 0.41533247 0.31119612 -0.4469571 -0.05850951 0.10302402 0.37043074 0.4383039
-0.041767444 -0.415472 -0.059521385 -0.36445424 0.5503793 0.9733391 0.83230275 0.51190674

_orig_mod.rnn.bias_hh_l0 f4 [384]
00000000: 6f68 0fbe 719d 203e b79b 853e dba3 373b
00000010: f46c 783d 0f6a 603e c668 a1bb f84f 3d3e
00000020: 7588 ad3c 8e8c 863d 102b c03d f803 2ebd
00000030: 6bf9 59bd 6630 3e3e f82c 59be 1ab3 403d
00000040: 1e58 7f3d a205 bf3e d0d0 64bc 943d d93c
00000050: ca25 6f3e 99fb b8bd 97db a4bd 28b8 4d3e
00000060: f222 113e 1330 3c3d 2b2a 2e3e b357 643d
00000070: 632d e2bc 63d8 9d3e 0f91 2d3e c67d a83e
00000080: 991b d0bd 4f7b ccbc c174 203e 7d28 c63e
00000090: e66d 413e 90c8 513d 1084 88be bf30 103e
000000a0: 763e 753d bbae 913d a2cd f4bc 605b 453e
000000b0: eb59 0b3e b7d3 3e3d f408 833e 43f1 013e
000000c0: 31aa 4e3e 646d 203e 2965 303e 9d19 3d3e
000000d0: eb4e 0fbd e2cd f13d f5ef 343e 4d6a 853e
000000e0: 6d1e 943e c4d4 3b3e bfac 2c3e 62b2 f9bb
000000f0: e3e6 143e 9953 333e e467 513e 4f9a 663d
00000100: 8654 113e dcfa bdbc 53fe 393e 052d 853e
00000110: 910a edb9 8347 3f3e 2e32 50be 2bdf 9c3c
00000120: 9ed1 853d 510e 963d ee5d 86be 5c7f c4bd
00000130: 1eb5 4abd 2dc0 ca3b 7b57 893d 1716 943d
00000140: 5537 513e a8d0 45ba 4e66 2dbd 20b5 383e
00000150: 3364 d43c d7e3 efbd 2ef0 973e b7f2 223e
00000160: 4aff 04be 488b 8c3d bfa8 c2bc b5be 333e
00000170: db94 ba3e ef3e 9f3e bd40 ac3e ef0c 953d
00000180: 321d 3bbe d4af c33c 2a1d 03be a6cc d4bb
00000190: ff61 f63d 8354 873c b4d9 e3bd 5b50 42be
000001a0: 221d 81bc 31f3 9f3e e94a 043d 1960 973c
000001b0: 2dd9 163e 81b8 053e b0a1 e33d 91e7 8c3d
000001c0: 41e0 5f3e 734c b93d d9ac 013f 9d3d 14bd
000001d0: e52d ebbd e4c4 45bc 0b18 e6bd c889 ba3b
000001e0: 5894 0b3e 330b c83e 6b8d 843e 2254 0f3e
000001f0: c9b9 283e a48a a73e b54d 5cbc 786f 9dbc
00000200: 0853 f8bd 3c8e 6ebe 30be bf3e 447e 4c3f
00000210: 2b1a 113f 3299 463e 0194 373f f01a 4a3f
00000220: ebb2 363f 80b0 33bd 4d07 2a3e 8683 3d3d
00000230: acbb a23e d61e 513e d531 243e 0103 e33c
00000240: 774d 243f 5194 43be 00ca 343e a6a3 9dbe
00000250: c699 ed3e 6ee4 0d3f db61 4e3f 8271 f03c
00000260: 1a42 223f 0063 333e bc3a 823e db30 8f3e
00000270: ff7d 65be 9268 723f 31f0 473f d487 71be
00000280: 03b5 293f 8545 ca3e 1c2e 3f3e 9388 3f3f
00000290: 5b3c 0b3f eeda 8e3d 4ed8 223f a76c 283e
000002a0: b619 073f b95b 373f 0f30 403d 4412 013f
000002b0: ff2d c63d 1bf5 413f 84de cd3e 6627 7dbe
000002c0: 4060 1f3f 5170 563d 297e 163f 0511 643f
000002d0: be47 563f fa74 253f f762 103f b019 683f
000002e0: 6f53 e53e 9c94 963e 8736 733e 08ae 263f
000002f0: 63f4 283f 17c3 f8be 2f25 0fbe 3fbb 223f
00000300: 0285 4c3f 59f5 3c3f 78df 283f 5019 703f
00000310: d64d 9dbe d0e1 663e 9b91 60bd 8baa 303f
00000320: e5ee 653f 3d67 4d3e 482e 533e c9dd 393f
00000330: 1ad2 8cbe cb38 393f 9ee2 3a3e c7d6 533f
00000340: 0c2b 7fbe 85be 213f a740 383f 2c2c f13e
00000350: 6613 f5bc c48f a63e c8d1 513f 6fb8 8cbd
00000360: 682b 433f 21ba 363f 7507 65bd ead7 2d3f
00000370: 2145 083e 7605 d4bd 2ca8 bf3c 8da2 e33d
00000380: a95e 1ebd 94c9 0abe b96a 663f 6806 86be
00000390: 0ae2 4ebe d435 b03d 9684 883d 18d5 a23e
000003a0: 7c4a 833e 0bad de3d 0c5b de3e 7581 5a3f
000003b0: 7e43 5e3f edc4 cf3d 886e fa3e 3dfa e83d
000003c0: 3846 13be c2a2 dd3e 67f0 653e e5f5 03bf
000003d0: 8af4 07be 1a24 543e 2309 713e 876c d63e
000003e0: 4f65 96bb fd6b bebe 8965 27bd 1180 a8be
000003f0: e80d 193f fc78 713f 5c33 4f3f a79e 003f
-0.14004682 0.15685059 0.26095363 0.002802125 0.06065078 0.21915458 -0.00492582 0.18487537
0.021183232 0.065697774 0.093832135 -0.042484254 -0.05321638 0.1857315 -0.2120856 0.047045805
0.062339894 0.37308985 -0.0139658 0.02651862 0.23354259 -0.090323634 -0.08049696 0.20089781
0.14173487 0.045944285 0.17008273 0.0557477 -0.027609533 0.30829152 0.16949867 0.32908458
-0.10161514 -0.024961142 0.15669538 0.38702765 0.18889579 0.051216662 -0.26663256 0.14081095
0.05987402 0.07113405 -0.02988321 0.19273138 0.1360852 0.046588626 0.25592768 0.1268969
0.2018211 0.15666729 0.1722609 0.18466802 -0.03498737 0.11806847 0.17669661 0.26057664
0.28929463 0.18342882 0.16862772 -0.007620142 0.14541201 0.17512359 0.20449787 0.056299504
0.141924 -0.023190908 0.18163423 0.2601091 -0.00045212035 0.18679623 -0.20331642 0.019149384
0.06534122 0.073269494 -0.26243538 -0.095946044 -0.049489133 0.00618746 0.06706139 0.07230776
0.20431264 -0.0007546046 -0.042333893 0.18037844 0.025926685 -0.11713379 0.2967543 0.15912901
-0.1298801 0.06862503 -0.023762105 0.17553218 0.36441693 0.31102702 0.3364314 0.072778575
-0.18272856 0.023887552 -0.12804094 -0.0064941226 0.1203041 0.01651979 -0.11125508 -0.18975966
-0.015760962 0.31240228 0.032298002 0.01847844 0.14731283 0.13058664 0.11114824 0.06880105
0.2186289 0.09047785 0.5065437 -0.03619157 -0.11483363 -0.012070868 -0.112350546 0.0056926943
0.13630807 0.39071044 0.25889143 0.13996938 0.16477121 0.32722962 -0.013446261 -0.019218192
-0.12125212 -0.23296446 0.3744979 0.79880166 0.56680554 0.19394377 0.7171021 0.78947353
0.7136676 -0.043869495 0.16604348 0.04626801 0.31783807 0.20421919 0.16034634 0.027711393
0.641807 -0.19099547 0.17655182 -0.30788916 0.46406382 0.5542668 0.80618066 0.029351
0.6338211 0.17518234 0.25435436 0.2796696 -0.22411345 0.9469081 0.7810088 -0.2358697
0.66291827 0.39506164 0.18669933 0.7481777 0.5438897 0.06975351 0.63611305 0.16447698
0.52773607 0.7162433 0.046920832 0.50418496 0.09676742 0.75764626 0.40208828 -0.2472206
0.6225624 0.052353207 0.58786255 0.8908847 0.8370322 0.6463162 0.5640101 0.90664196
0.44790217 0.29410255 0.2375127 0.651093 0.65997905 -0.48586342 -0.13979028 0.63566965
0.79890454 0.7381187 0.65965986 0.93788624 -0.30723447 0.22547078 -0.05482636 0.6901023
0.8981765 0.20058914 0.20623124 0.7260404 -0.27504045 0.72352284 0.1825051 0.827496
-0.24918765 0.63181335 0.7197365 0.47104013 -0.029916476 0.3253156 0.81960726 -0.068711154
0.7623811 0.7137776 -0.055915315 0.67907584 0.1330762 -0.10352604 0.02339562 0.111149885
-0.038664494 -0.13553458 0.90006596 -0.26176763 -0.20203415 0.08604017 0.06665914 0.31803203
0.25642765 0.10872849 0.43428838 0.85353786 0.86821735 0.101449825 0.48912454 0.11375854
-0.14382255 0.43288237 0.22454987 -0.5154708 -0.13276878 0.20716897 0.23538642 0.41879675
-0.0045897136 -0.37191764 -0.040868316 -0.32910207 0.59786844 0.9432523 0.80937743 0.50242084

_orig_mod.rnn.weight_ih_l1 f4 [384, 128]
00000000: 637f d5b9 d66e 2b3d ef38 0abd 6b71 363f
00000010: ccdd c5be 4a81 0cbe 4801 cf3e d289 a83e
00000020: 9549 d7bd 9be1 12bc 9137 973e 8b53 f1be
00000030: b4d8 113e 4fdf 80be aab8 e43e 5498 07be
00000040: bd42 8bbe 89c0 98be 113c d33e 88a7 413d
00000050: 25a6 1abf e7d2 be3d 8666 63be dc70 21bc
00000060: 22cd 8abe 0969 25be bb3b cdbe caf9 78be
00000070: 0e7a 89be 446e 403e ba50 39be 8f37 0bbf
00000080: 1dc4 a33e 2447 123e 2d6c d8bd f273 aa3e
00000090: 1c32 583d 1f6f 3a3e 7dea f33e 54ef 433e
000000a0: 3b7b a63d 4ee5 98be 4c88 b2be 0930 8ebd
000000b0: 3d4f 0ebe b0bf 23be 614a 15be 7ac1 4dbd
000000c0: 55c8 023f e8fe f63d fa3f 44bc a105 28be
000000d0: 73b0 c33d 5e6f ee3e 1b3e dfbe eddc ff3a
000000e0: 351e 9d3e d511 53bd 07ed f53d 445b e8bd
000000f0: 5c5e 833d 5048 d2bc b52f ef3e e823 8dbe
00000100: 1098 c33d 5355 9fbe c3b8 943e 1ab9 3a3d
00000110: 76de eabd 9c6d bbbe 0b2f a23b 5761 253e
00000120: 8d43 3fbd ba17 8cbc 3d04 913e 0c70 1bbe
00000130: 0f58 d6bd 8f23 913d 5abb d9be baf8 873e
00000140: e0f6 f23d 8095 5cbe 0a0f 433e 0358 1fbe
00000150: 7798 8f3e 2a74 df3d 32d9 b53e 6def 663d
00000160: 22bd 78be 0322 623e b859 acbd 56fd adbe
00000170: 7ced bb3e 8f1c 72bd 8dac 943e 21cc 673d
00000180: b534 7dbe b9ec cd3e d97c 98be 021c 19be
00000190: 3b5e b53d c78e cfbe 971e 5c3e 5d93 5fbe
000001a0: 5e9e 233e 2380 953c f3d1 78be 8768 bc3e
000001b0: 2fa5 ee3d 9cda a9bd 2ea8 8f3e 4384 163f
000001c0: b11b 1f3d f2db 35bd cc5b 97bc 4a3c 8d3d
000001d0: fcd9 9f3e 2bd4 99ba 3e6b d53d f2b2 83bc
000001e0: 5aa7 133d 0c7f 993d b470 82bd fef8 f4bd
000001f0: 81ec bb3d a0fb b7be ed29 82be a485 8abe
00000200: d2ab 363e 588a 843d b1dd ef3e 849e 3bbd
00000210: 0a31 afbd fe7b 8bbe f1e0 1c3e d670 823e
00000220: b007 04be 04b4 47be 97df a3be 2284 813d
00000230: fcfb b43e 9748 38be 3bb6 f23e fd68 1f3d
00000240: 1858 1f3e e398 9e3d 5953 723e 5333 6f3d
00000250: 1170 fcbd 1c66 86be 454c d9be dd54 1d3e
00000260: 0103 19be 913d 35be f336 05be 8241 ab3d
00000270: 877b 5b3e d67b d4be af69 d43d 541e b7be
00000280: 7b59 a23e db97 ffbd 7d5c a93d ae49 ca3d
00000290: 9309 ccbe 90e1 b23e 8a62 5c3e f527 61be
000002a0: 1b93 6b3e a617 46be 7208 7fbe 1a10 403d
000002b0: df15 773e 087d e3be c483 23be 114a 15bd
000002c0: c2ed 913e 0cdd 15be 650b 513e 331f 213b
000002d0: 1fca 20be bc74 febc 9eba 2fbe 957d dabd
000002e0: 2149 603e 07fe 233d 242e 0d3e 2355 0ebe
000002f0: 1626 423e f457 bd3d efd6 72be 66d9 9d3e
00000300: fd6f 11be f608 b83e 6691 e6bd 05d3 0d3e
00000310: 94ca 14be a60f f8bd d842 1ebd fee1 143c
00000320: 6f6a 67bd ae4d 9d3d 511c 90bc f785 f5bd
00000330: e401 8bbd b065 333e 5b0c c93d 3c15 80be
00000340: ccea da3d 3628 553e 9f44 a2bd 9624 4fbd
00000350: 9716 a6bd 819a 5a3e 6276 21be 6cac 4a3e
00000360: fc26 c73d bb0b 02be 1c8f 99be 733c 1f3e
00000370: 87e5 57bd c862 6bbe a4d3 be3d 2c87 2d3d
00000380: 605f 513c 4837 ea3c adf7 04be 9c07 3ebe
00000390: 1c4b 173e 5d19 41bd a655 f93d 2324 3cbc
000003a0: 6bf8 8fbe 0429 12bb 9e03 b3be c689 433c
000003b0: dc64 983d c767 21be 99cd 553c 8074 b4bd
000003c0: b780 08be f526 1f3d b689 05bc b69a 563e
000003d0: 149d 653d 9460 9fbd 6ddf ccbd 8eee 8e3e
000003e0: b530 923d c1c8 a53d 84d4 f9bc 07f1 473e
000003f0: be8c 7dbe 8fba 12bc a987 9b3d fee1 b5bd
-0.00040721436 0.04185375 -0.033745702 0.7126681 -0.3864578 -0.13721195 0.40430665 0.3291765
-0.105120815 -0.008964921 0.2953458 -0.4713405 0.14242822 -0.2517037 0.44672137 -0.13241702
-0.27199355 -0.29834393 0.41256765 0.04727891 -0.60409766 0.0931757 -0.22207078 -0.009853568
-0.2710963 -0.16153349 -0.40084633 -0.24314037 -0.26850933 0.18792063 -0.18097201 -0.5438165
0.3198556 0.1428495 -0.10567508 0.33291584 0.052782163 0.18206452 0.47639838 0.19134265
0.08128973 -0.29862446 -0.3486961 -0.06942756 -0.13897415 -0.15991092 -0.14579155 -0.05023334
0.5108693 0.12060338 -0.011978144 -0.16408397 0.095551394 0.4656934 -0.4360207 0.0019520797
0.3068711 -0.051530678 0.120081 -0.113455325 0.06414482 -0.025669247 0.46716085 -0.27566457
0.09550488 -0.31119785 0.29047212 0.045586683 -0.11468212 -0.36607063 0.0049494556 0.16150413
-0.04669528 -0.017101157 0.28323546 -0.15179461 -0.104660146 0.070868604 -0.4252575 0.2655695
0.11863494 -0.21541405 0.19048706 -0.15560918 0.2804601 0.109108284 0.3551727 0.056380678
-0.24290898 0.22083287 -0.0841555 -0.33982342 0.36704624 -0.059109267 0.29037896 0.056591157
-0.24727137 0.40219668 -0.2978275 -0.1495209 0.08855864 -0.40538618 0.21496044 -0.21833558
0.15978381 0.018249577 -0.2429884 0.36798498 0.116526 -0.082936496 0.28057998 0.58795565
0.038844768 -0.04439921 -0.01847639 0.06896265 0.31220996 -0.0011736205 0.104208454 -0.016076539
0.03604827 0.074949354 -0.06369153 -0.11961554 0.09175969 -0.35934162 -0.25422612 -0.27055085
0.17838982 0.064716995 0.46848825 -0.04580547 -0.08554275 -0.27243036 0.15320183 0.25476712
-0.12893558 -0.19502264 -0.32006523 0.063240305 0.353485 -0.17996441 0.47404656 0.038918484
0.15560949 0.077440046 0.23664607 0.058398556 -0.123260625 -0.26249778 -0.42441002 0.15364404
-0.14942552 -0.17699267 -0.13009243 0.08362104 0.2143384 -0.4150073 0.1037172 -0.35765326
0.31708893 -0.12480136 0.08269594 0.098773345 -0.39851055 0.34937716 0.21521965 -0.21987899
0.23005335 -0.19344959 -0.24905565 0.046890356 0.24129437 -0.4443133 -0.15968233 -0.03644759
0.28501707 -0.14635104 0.20414503 0.0024585247 -0.15702103 -0.031061523 -0.17161033 -0.10668484
0.21902896 0.04003718 0.13787133 -0.13899665 0.18959841 0.09245291 -0.23714803 0.30829924
-0.14202876 0.35944337 -0.11258201 0.13850029 -0.14530402 -0.1211236 -0.038637966 0.009087084
-0.056497987 0.07680832 -0.017591627 -0.119884424 -0.0678747 0.1751926 0.0981681 -0.250162
0.10689315 0.2081612 -0.07923245 -0.050572 -0.081097774 0.21348001 -0.15767816 0.19792336
0.097242326 -0.12699787 -0.29991996 0.15550403 -0.05270913 -0.22986901 0.09317711 0.042365238
0.012779087 0.028590813 -0.12985106 -0.1855759 0.14774746 -0.04714333 0.12174539 -0.011483225
-0.28119215 -0.002230228 -0.34963697 0.011934703 0.074411124 -0.15762244 0.013049507 -0.08811283
-0.13330351 0.03885551 -0.008150509 0.20957455 0.056058004 -0.07782093 -0.100035526 0.27916378
0.071381964 0.080949314 -0.030496843 0.19525538 -0.2476072 -0.008955612 0.075942345 -0.08880995

_orig_mod.rnn.weight_hh_l1 f4 [384, 128]
00000000: 2d5f afbe 8d03 c8be 19ac 3f3e 4302 f1bc
00000010: 1e46 02be df13 623c 7b68 fcba f614 39bd
00000020: bae1 143f 25b6 0f3d 35e1 0d3e b796 673d
00000030: 65d8 443c a2f9 66be a836 353e dd3e 94bd
00000040: 2c13 dc3d fb38 ec3d 8356 22be 5782 e9bd
00000050: 1d0c 82be 4259 a33b 3deb 1c3e f493 dbbe
00000060: 5b8c 213e ab95 93bc b9ad 79be 1519 3bbe
00000070: deff ffbe c4fa 88be 533f b23d 4ea1 2dbe
00000080: 271a ef3d 5f38 1c3d 9966 c23d bbef 0b3c
00000090: 3632 12bd 8039 3fbe f79b d0bd 44de 913d
000000a0: 7d18 87bc 5bd2 b1bb cc28 ca3e 60c3 773e
000000b0: 7a71 a9bd 6b4f d6bd 5f01 a7be 8803 81be
000000c0: 8056 47bd e71d 653d 1d2b 27bd 1893 cdbd
000000d0: ba32 9e3d 44d2 873d caef 89be c41c 683e
000000e0: b995 37be f6b1 743e c67d 943d 54bb c23d
000000f0: 9bb2 3e3a 1cdf ce3d 4650 bd3d 2902 963e
00000100: 771c 60be 271d f3bc 5fca a4be 63ee b0bd
00000110: 2fea 16bd 9c4e 32be 478e 37bd b30e b6be
00000120: ab27 873c 7912 643e eee4 bdbd 20a4 a03e
00000130: 0e5d 0d3d 2d59 12be e3aa 3c3d d0db 223d
00000140: 36d3 6b3d fb81 13be 8cec 3abe e2fc 593e
00000150: fbf0 6abd 3494 d7be f0a2 2cbe 6f7f b83d
00000160: f79c cabc 5d5d 053c e7fc 1cbe 7451 323e
00000170: 9796 cb3d 331d fd3d faa0 ac3e 13ba a63d
00000180: 3617 5bbe c6eb 613b a83a c43d 3703 493e
00000190: 2c87 15be 8d44 63be 069a debc 6062 ac3d
000001a0: 5705 1fbe a29e f9bd 1a86 78be a845 81bd
000001b0: f6de b03e 3418 87bd b289 86bd 3224 ae3e
000001c0: 60f2 823d 4b4b dd3d a4f3 783e 33fb 85bd
000001d0: 3580 2a3e 24da e4bd 9065 68bd 427e 1abc
000001e0: d147 afbd 9f16 143d ccdd 83bb 35aa 29bd
000001f0: 5172 15be 9fa3 6b3e 8da9 083e 205d 0c3e
00000200: 579e 2abd b7b5 cabe 69f9 14be 4f94 4dbc
00000210: 2263 e83d 2a0e 89be 6af1 20bf 0398 acbe
00000220: 0409 af3e 275e 34be 97cc 933d 4b4b 90bc
00000230: 5b23 debd 1491 003e 479d 98be f2ed bdbc
00000240: c0ad f7be 8eea 09bf b177 073f 2cdb 03be
00000250: 2e84 92bc 1338 81bd 6e8a 88be 0a52 d53e
00000260: 830a 843b a25f babd d921 48bd 8ee1 3fbf
00000270: 1dfc 5a3e 6e5e 9ebe c079 ad3c a94d a43d
00000280: a2e6 8fbe 6049 d6bd 1038 cfbe b253 09be
00000290: 69ab 563c 31a6 313e 3af6 edbe c94e edbe
000002a0: 51cf 283f 8c6c e8be 9d76 4b3e 48e9 2b3d
000002b0: 4f04 ec3d 67eb 933e 0789 233f 2243 4ebd
000002c0: 7746 dabd ad25 aa3e b731 76be ce52 603e
000002d0: c48f 81be 8bd6 633e 882f 1abd b1d8 0dbe
000002e0: 5697 373f 92d8 5d3d 2d06 dcbb 8306 053f
000002f0: b332 68be 6e17 9d3e c8b8 00be 7ecb c23e
00000300: f4b8 9c3e e0f8 6e3e d76e 05be 2a59 55bd
00000310: 9ce6 eebe 7a54 2e3e 4fa5 bdbe 148b 82bc
00000320: 0a0e 81be fd44 913e 9e2d 343e c8c8 c3be
00000330: 3088 443e ee34 54be d9f5 793d aeea e2bd
00000340: 6a5c 053e acd1 833d da3d e23d 7032 01bf
00000350: 1dbd 3d3e 172e 1bbe 6304 b9be 93ff ae3d
00000360: cb28 9a3e 3cd6 a5bd 1d7e a9bd b496 bfbe
00000370: ef12 353e 54f2 39bd 945d 0bbe ae8a 0abf
00000380: 6152 81be a18f 993e d14f 1f3e cec6 58bd
00000390: 4c1f d93d 35fa 39be 16ff 0a3c b07f 1d3f
000003a0: bd15 7cbe c371 18be 8f90 943e ca71 5ebd
000003b0: 04f7 2ebd 1d11 97be 40bb 02be c726 98be
000003c0: 6793 47be 72ea bdbd d5b5 6a3e 003a b0be
000003d0: cb02 833e 108f 393e 1dc9 88be 970c 043e
000003e0: 34db 19be 25c4 2c3d c5fa 573d 8ecb 493e
000003f0: c9ae 79be d7f0 5b3e 9ef6 8e3e f6b8 b4bd
-0.342523 -0.3906521 0.18717994 -0.029420024 -0.1272206 0.013798683 -0.0019257212 -0.045186006
0.5815693 0.035085816 0.13855441 0.056540217 0.012014483 -0.22556165 0.17696631 -0.07238553
0.10745844 0.11534306 -0.15853314 -0.114018135 -0.25399867 0.0049850056 0.15324111 -0.42886317
0.15776198 -0.018015703 -0.24382676 -0.18271287 -0.499999 -0.2675382 0.087034844 -0.16956064
0.1167491 0.038139697 0.09492225 0.008541043 -0.035692416 -0.18674278 -0.10185998 0.07122472
-0.01649117 -0.0054266877 0.3948425 0.24195623 -0.08273597 -0.104643665 -0.32618234 -0.25198007
-0.048666477 0.05593672 -0.0408126 -0.100378215 0.07724519 0.06631902 -0.26940757 0.22667223
-0.17928208 0.23896012 0.07250552 0.09508386 0.0007274539 0.101011485 0.092438266 0.29298523
-0.21885858 -0.029676987 -0.32185647 -0.08639219 -0.03684443 -0.174128 -0.04481342 -0.3555809
0.016498407 0.22272672 -0.092721805 0.31375217 0.034512572 -0.1429183 0.046061408 0.03976041
0.057574473 -0.14405052 -0.18254298 0.21287873 -0.057358723 -0.42105258 -0.1685903 0.09008681
-0.02473305 0.008139935 -0.1533085 0.17413884 0.09940832 0.12359085 0.33716565 0.081409596
-0.21395573 0.0034472807 0.095815 0.19630133 -0.14602345 -0.22194119 -0.027173053 0.08417201
-0.1552938 -0.1218846 -0.24269906 -0.06312114 0.34545106 -0.06596413 -0.06569232 0.3401199
0.063938856 0.108053766 0.24311692 -0.06542053 0.1665047 -0.111744195 -0.056737483 -0.009429516
-0.0855862 0.036154386 -0.004024243 -0.041422088 -0.1459439 0.23011635 0.13345928 0.137074
-0.04165491 -0.39591762 -0.14548267 -0.012547567 0.11347033 -0.2676862 -0.6286837 -0.33709726
0.34186566 -0.17614041 0.07216757 -0.017614027 -0.10846587 0.12555343 -0.29807493 -0.02318475
-0.48374748 -0.5387353 0.5291701 -0.12876576 -0.017885294 -0.063095234 -0.26668113 0.41664153
0.0040295734 -0.09100272 -0.048860405 -0.74953544 0.21385236 -0.3093142 0.021176219 0.08022625
-0.28105646 -0.10463214 -0.4047246 -0.13410833 0.013102391 0.17348553 -0.46476918 -0.4634917
0.6594134 -0.45395315 0.19869466 0.04197052 0.11524259 0.28890535 0.6388096 -0.05035699
-0.10657971 0.3323187 -0.24042402 0.21906587 -0.25304997 0.2224981 -0.037642986 -0.13852192
0.71715295 0.054161616 -0.0067146034 0.5196306 -0.2267559 0.30681938 -0.12570488 0.38045877
0.30609858 0.23337126 -0.13030563 -0.052086987 -0.46660316 0.17024413 -0.37040183 -0.015935458
-0.25206023 0.28372946 0.17595527 -0.3823912 0.19192576 -0.20723316 0.061025474 -0.11079918
0.13023534 0.06436476 0.110469535 -0.50467587 0.18529172 -0.151543 -0.3613616 0.08544841
0.30109248 -0.080975026 -0.08276007 -0.37419665 0.17683004 -0.045397118 -0.13609916 -0.5411786
-0.25258163 0.29992393 0.15557791 -0.05292397 0.106016725 -0.18161853 0.008483669 0.6152296
-0.24617667 -0.14887147 0.2901654 -0.054307736 -0.04271604 -0.29505244 -0.12766743 -0.29717085
-0.19489823 -0.092732325 0.22920926 -0.3441925 0.25588068 0.1812098 -0.26715937 0.12895428
-0.15025026 0.042179246 0.052729387 0.19706556 -0.24383081 0.21478592 0.2792253 -0.08824341

_orig_mod.rnn.bias_ih_l1 f4 [384]
00000000: e190 d8bc 1258 38bd f615 56bd 764c 9a3d
00000010: 2b49 1b3e 44bb 1dbe f2b7 823e 3237 913d
00000020: 10f8 fbbb 8320 0f3e 7a82 263d 6ae6 003e
00000030: 3382 a43d 098d f73c 0463 c4bc 2552 37bd
00000040: cc66 fa3d 5c28 b0bd cdb5 a43d b667 3f3d
00000050: f09a 59be 85ec bf3a 989b ea3d e5fa 18be
00000060: 781d af3d 7d38 023f dc5b 973c 76f9 9bbc
00000070: 3663 7e3b 64f8 4f3e eed5 2abd d6d6 393e
00000080: 2b3e 9a3b 2c1c 213e 85c2 453e c47f c93d
00000090: a407 163f 7630 b4bd 543f 333e 1af0 e13d
000000a0: 9978 8fbd 3cc8 a5bd 91f8 4cbc 9467 81bd
000000b0: 1aa9 a23d c1f1 953d 1195 a3bd 807f cf3d
000000c0: 6eec 1dbd 77ca af3e b255 0f3e d78c ae3d
000000d0: 3dd7 b1bc bdb5 ea3d f380 3ebd 93af 0a3e
000000e0: e7a7 8abd d0ea 0d3d 4b95 193e 807b 11bd
000000f0: b982 37bd faef 943d a0ee 2f3c 1352 983d
00000100: 8aaf d43d 3e74 583c 3f8e 883a 13d8 693e
00000110: 91a2 333d 3d31 023c 6ce1 27be 6a7e 0f3e
00000120: 5886 e5bd dadf 543c 1e5a 233d d805 fe3b
00000130: 20a7 a23e 7e24 843d bfef 38bb a600 8b3e
00000140: ed30 1d3e c58a c5bd fc01 f83d 8da8 38bd
00000150: bf52 a5bd 2146 433c e652 193e bde5 8b3d
00000160: 30e6 f83c 84d7 c4bb b89e 2e3e ee4b 3d3d
00000170: b282 733c 5172 903d 4d05 cc3d 88a2 193d
00000180: 6517 513a 3ca5 663d 75a2 cf3d a831 ff3c
00000190: 7476 dabd 37ce 373e da90 b03c 99e1 a5bd
000001a0: d0d8 10bc f17b 0e3e 112e 33bd 1a09 c03d
000001b0: fff4 43bc f5ed 4fbe 02ab b53d dff4 29bd
000001c0: e968 37bc ce18 f23c d87b c73d 3707 6f3e
000001d0: 679f 49bd 1272 8bbd ca0c 4f3e f5f9 043d
000001e0: 074d d9bd 3e5d c33e f0e3 debb 4b87 c9ba
000001f0: 7429 5dbd 9b10 5b3b 1e13 183e 11db 123c
00000200: f80f c53e 18a7 543d a6d7 5f3e b4a7 99bd
00000210: 3c73 9d3d 1b41 f13e a875 3e3d 447b 263e
00000220: f320 ec3e c7d6 8fbe 6cca 39bf 35a3 d03c
00000230: ef23 0abf 8e61 30bd 5b0a a53e e291 03be
00000240: 054e c03d be07 e23e 3504 1a3f e56b ac3e
00000250: 77d8 c3bd e5d2 aa3c 04fa 1f3d ff9d a73c
00000260: 3120 bebd d912 29bf e1a4 8b3d d20d 113f
00000270: c375 c43e d589 57bf bcb6 853e 7651 81be
00000280: dd8e f63e b3e3 1d3e d382 0d3e abd6 bbbe
00000290: b723 a5bf b3e5 f8bd 18b5 4c3e de2e 53bd
000002a0: e17d 873e adfc d93e 0dfc bf3e 8552 fe3e
000002b0: 5f64 fe3d 7f58 e13e 5185 c33e 7cd7 053e
000002c0: a34b c73e 3cdb 943c a853 ea3d 15a3 983e
000002d0: ee00 d53e e52d 9c3e 0ebd 7dbe 80b1 16bf
000002e0: 9a4c 113f e7bc 503e aa6e 91bc 4433 053f
000002f0: b30f 1dbd 277e bb3d c395 f93c 20e6 6f3e
00000300: f818 fa3e 9d15 043f 39a6 fb3e 6825 3abe
00000310: 26e5 843e e34f 3f3e 28d3 923d 9613 6e3e
00000320: 9e9f 453e edcb 81be c3b7 f03e a35d 1d3f
00000330: 96e9 49bf b9d5 a53d 99d6 3d3e 7d41 25be
00000340: cf28 073e 09b3 8b3e a248 453e a294 bd3d
00000350: d918 6a3e 762c 913e 8549 e53e 7178 e7bd
00000360: ab9f 24bd 04a8 7f3e 6c5a e73d 9810 913e
00000370: a828 e53e 0ef7 133e a244 bebd d05f ee3e
00000380: 094a 5a3e 9d38 e7bd cd19 f03c 0d8f a03e
00000390: 38b7 343f 2fde c5bd bec5 2fbf bf89 0a3f
000003a0: 61d5 c83e 3e29 51be 75c6 ea3e 28bc 373d
000003b0: 2393 36bd 4000 2a3f 26df a23d 1598 bb3d
000003c0: 0ec0 8f3e be58 9c3d 6521 e53e 129b d6bd
000003d0: d19c e03e fc0f 193f 013e fdbe 087c 943e
000003e0: 36c6 c0bd 8e7e fdbe 6c9e ab3e 9a8e 043f
000003f0: 5289 473d 8397 533d 15eb 40bc ed4d e33e
-0.026436271 -0.045005865 -0.052267037 0.07534115 0.1516463 -0.15403467 0.25530964 0.07090606
-0.0076894835 0.13977246 0.040651776 0.12587896 0.08032646 0.030218618 -0.023972996 -0.044756074
0.12226638 -0.08601448 0.08042488 0.046729766 -0.2125051 0.0014642632 0.114554584 -0.14939459
0.085505426 0.50867444 0.01847642 -0.01903985 0.0038816459 0.20309597 -0.041707925 0.1814836
0.004707118 0.15733403 0.19312485 0.098388225 0.5860541 -0.08798306 0.17504627 0.11032124
-0.07005424 -0.08094832 -0.012510435 -0.06318584 0.0794241 0.073215015 -0.079874165 0.101317406
-0.038555555 0.34334156 0.13997534 0.08522957 -0.021709079 0.11460445 -0.046509694 0.13543539
-0.06770306 0.034647763 0.14998357 -0.03551817 -0.0448024 0.072723344 0.010738045 0.074375294
0.10385044 0.013211308 0.0010418369 0.22836332 0.043856207 0.00794631 -0.16394585 0.14013067
-0.11207265 0.0129928235 0.039880864 0.0077521615 0.3176813 0.06452273 -0.0028219072 0.27148932
0.15350695 -0.09645609 0.121097535 -0.045082618 -0.08072423 0.0119185755 0.1497303 0.068309285
0.0303832 -0.006007137 0.17052734 0.04621499 0.014862703 0.07053054 0.099619485 0.037508518
0.00079762033 0.056309924 0.10138408 0.031151608 -0.106671244 0.17949758 0.021553446 -0.0809967
-0.008840755 0.13914467 -0.043745104 0.09376736 -0.011960267 -0.20305617 0.08870508 -0.041493293
-0.011194446 0.029552843 0.09740418 0.23342596 -0.049224284 -0.068088666 0.20219722 0.03246494
-0.10610395 0.38157076 -0.0068020746 -0.0015375403 -0.05399461 0.0033426646 0.14851043 0.008963362
0.38488746 0.051917166 0.21859607 -0.0750269 0.07687995 0.47119984 0.046498924 0.1625796
0.46118888 -0.2809355 -0.72574496 0.025468448 -0.5396108 -0.043061785 0.32234463 -0.12848619
0.09389881 0.44146532 0.6016267 0.33676067 -0.09562772 0.020852515 0.039056793 0.02046108
-0.09283484 -0.66044384 0.068185575 0.56661713 0.38371095 -0.8419469 0.26115978 -0.25257462
0.4815587 0.15418892 0.13819437 -0.36687216 -1.2901524 -0.12153187 0.19990957 -0.051558368
0.26463225 0.4257559 0.37496987 0.49672332 0.12421488 0.4401283 0.3818765 0.13070482
0.38924894 0.018170945 0.114417374 0.29811922 0.41602272 0.30503765 -0.2477915 -0.58864594
0.5675751 0.2038456 -0.017752964 0.5203135 -0.03834505 0.09154921 0.03046692 0.2342763
0.48847175 0.5159548 0.49150255 -0.18178332 0.25956076 0.18682818 0.07169181 0.23249659
0.1929917 -0.25350896 0.470152 0.61471003 -0.7887205 0.08097405 0.18538894 -0.16138263
0.13199161 0.2728503 0.19265988 0.09256865 0.22861041 0.28354234 0.44782653 -0.11302269
-0.040191334 0.24966437 0.112965435 0.28332973 0.4475758 0.14449713 -0.092904344 0.46557474
0.21317305 -0.11290095 0.029309178 0.3135914 0.7059207 -0.09661519 -0.68661106 0.54116434
0.39225295 -0.20425889 0.45854536 0.044857174 -0.044573914 0.6640663 0.079527184 0.09159867
0.28076214 0.07634114 0.4475204 -0.10478796 0.4386964 0.59790015 -0.49461368 0.29000878
-0.09412806 -0.49510616 0.33519304 0.5178009 0.048714943 0.051658165 -0.011774798 0.4439539

_orig_mod.rnn.bias_hh_l1 f4 [384]
00000000: 8bbc 623c 9149 1ebe 0e7a 9dbd 3cd6 0c3e
00000010: d2b4 d93d 6f13 3ebc 00eb 4e3e 992e 063e
00000020: 4b42 163d 3290 f43d 9452 7bbd b136 983d
00000030: de2c 8bbc b323 f8bd 7b22 22bb d777 933c
00000040: 7222 5c3d 27ba 10be 2884 60bd 64a8 b73d
00000050: ba38 5fbe 6e53 1ebe 3025 303d 4675 dfbd
00000060: f147 d43d 3f2e ca3e 1c00 013e c8cf eebc
00000070: 507d c73d f090 4a3e 35a3 8fbd 4281 103e
00000080: f45e e6bb 974b 7c3d ef4d 203e cfe5 d43d
00000090: 549d 1b3f 3dab a33b bd64 573e afb0 b73d
000000a0: eeb1 c8bd d7ee f93c 5322 86bd 1edc 903d
000000b0: 323b 623d 57d5 633d b8fc 993c 57ac b73d
000000c0: 1cf0 2a3d 865a de3e 5cc4 433e f242 e93a
000000d0: 2623 00be 0df6 0c3d d747 bb3d d35f 3f3e
000000e0: 20eb 50be f85c 2c3e 26f0 193e cc27 d23b
000000f0: a2ac 01bd 9010 903d 180b f7bc 25ab 263e
00000100: ddd2 f03d 7900 a8bd a4ba 673d eba9 cb3d
00000110: d712 a63d 3fb8 803d 933a 79bb 8725 efba
00000120: 692c abbd f159 fc3d 20a3 e3bc 9c79 babd
00000130: 34a3 d73e 90b5 2d3d 0977 e0bd 0a58 4a3e
00000140: 9a2e 9a3e 9c58 25be 0516 2f3e 48c3 ea3b
00000150: f5c1 6dbd 9e74 173d 82d2 a93d 5b97 40bc
00000160: 4350 443d 1be4 64bc 4e18 743d 7eb8 3a3d
00000170: 5166 913d 167c 183d e5a9 b43d d2a5 83bd
00000180: d764 5e3d 9d35 b5bd 19f0 e23d 3d78 a3bc
00000190: f9a9 d8bd 9fd1 ee3d 1b23 8dbc 6bc9 afbd
000001a0: be63 f13c 48ad 353e d8c0 c2bd 6ce5 b6bc
000001b0: 41e0 7cbd f4ac 0fbe ebad 023e 2f07 bbbd
000001c0: 35f5 a83d 4bb5 32bd 2777 a23d fca1 923e
000001d0: 99fd ebbc 2c7c a7bc 22a1 853e 43dd 953d
000001e0: 001b a2bd ce8c af3e 9991 af3c 7647 b93d
000001f0: 388d 5e3d 3bd6 4e3d 37d0 a73d 445b 363d
00000200: c061 d13e b713 7d3d b8a3 003e ad66 13bd
00000210: b181 a93d a1fb 033f ad6d a7bd 113d fb3d
00000220: 0184 063f 4fac 5dbe 985b 2ebf f8ac 443d
00000230: cd9a 14bf 722b fdbc 186d aa3e 65c6 b5bb
00000240: e00a 1a3e aeed f03e 1b09 033f 16c0 5f3e
00000250: e66b dcbd c4a8 6a3c 5e21 063e 9f6a cbbb
00000260: c72c b8bc 0183 38bf 13f4 103c b097 fd3e
00000270: 48d9 e63e 0380 4fbf dc74 fd3d f928 b3be
00000280: 8ce7 db3e 53c6 313e a1a8 ca3d c665 9bbe
00000290: e1cd a7bf f491 d2bd 1070 483e 6641 133c
000002a0: 366d d83e 4576 f23e cb09 ee3e ef33 f23e
000002b0: 08cc cfbb 01c7 e93e 4ed4 c53e b762 7b3e
000002c0: 79a0 d03e 49fe 853a 01b1 9e3d 91d7 593e
000002d0: ebdc b73e 3ae6 c33e 5f6c 7abe c18f dfbe
000002e0: 5eec 063f 5b81 143e 3756 59bd 4373 f93e
000002f0: 66ee 80bd ccdd bf3d a1e0 ac3d 559d 943e
00000300: 5dde 053f f9ac 073f 8bf6 e93e 45d1 e5bd
00000310: c521 513e 6605 993d 7bbe 8d3d 1589 473e
00000320: 296c 3a3e 9a0a 66be ca8d c33e 0147 0c3f
00000330: 3778 6bbf 2fbf 25bd 88d9 b73d 1f24 2abe
00000340: 2bd8 7d3d 3d55 283e b530 653e 96c3 063d
00000350: 9a62 a13e 4590 933e 5956 e83e 6f0c dc3c
00000360: 9d79 b03d 5c78 503e d1a5 c33b e0bc 933e
00000370: b300 cd3e 7a1f 0d3e ae7a a63c c523 093f
00000380: 4541 993e d3d0 eebd 1b1c 6abd 09e0 b33e
00000390: 2162 103f b80b d3bd 073b 1fbf 1aaa c43e
000003a0: baef d33e cd79 65be 4049 e53e fbf7 7c3b
000003b0: 7e0c 153d fbdf 2b3f 71d3 493e 027c 473e
000003c0: bf57 2c3e 7cb5 81bc e401 bd3e 0eef b1bd
000003d0: 7a4f 093f da6e 0c3f 5a7d c9be a46f a93e
000003e0: 4251 eabc aec8 04bf 650b 8a3e a2f8 fe3e
000003f0: 8b7b 6e3d 1e50 333e 1933 2fbc 09b1 c03e
0.013838897 -0.15457751 -0.07689296 0.13753599 0.10630192 -0.011601313 0.20206833 0.13103713
0.036684316 0.119415656 -0.06135805 0.074323066 -0.016989168 -0.12116184 -0.002473979 0.01800148
0.053743787 -0.14133511 -0.054813534 0.08967665 -0.21798983 -0.15461513 0.043004215 -0.1091104
0.10365284 0.39488408 0.12597698 -0.029151812 0.09740698 0.19781852 -0.07013551 0.14111808
-0.0070303623 0.061595526 0.1565473 0.10395395 0.6078694 0.0049947784 0.21034522 0.089692466
-0.097995624 0.030509396 -0.065495156 0.07073234 0.055232234 0.05562338 0.018797264 0.08968418
0.041732892 0.4342844 0.19117874 0.001779644 -0.12513408 0.03441434 0.09144562 0.18688898
-0.20402193 0.1683234 0.15033016 0.0064134356 -0.031658776 0.07034409 -0.030156657 0.16276224
0.11758969 -0.08203215 0.05657448 0.09944519 0.08109062 0.06285142 -0.0038029298 -0.0018245437
-0.0835808 0.123218425 -0.027787745 -0.091052264 0.42116702 0.04240948 -0.10960204 0.19760147
0.3011368 -0.16147083 0.17098244 0.0071643926 -0.0580463 0.03697645 0.08292104 -0.011754836
0.047928106 -0.0139704 0.05959349 0.0455861 0.070995934 0.037227713 0.08821467 -0.06428112
0.054295387 -0.088481165 0.11080951 -0.019954795 -0.10579295 0.11661076 -0.017228654 -0.08583339
0.029466506 0.17741883 -0.09509438 -0.022326194 -0.061737303 -0.1403082 0.12761657 -0.091322295
0.082498945 -0.043629926 0.07932883 0.2863921 -0.028807448 -0.020444952 0.26099497 0.07317593
-0.07915306 0.34287113 0.021431731 0.09046833 0.054333895 0.050497275 0.08194011 0.04452063
0.4089489 0.06178638 0.12562454 -0.03598659 0.0827669 0.5155583 -0.08175216 0.12267507
0.5254517 -0.21647762 -0.6810851 0.04801652 -0.5804871 -0.030904505 0.33286357 -0.005547332
0.15043211 0.47056335 0.5118577 0.21850619 -0.107627675 0.014322463 0.13098666 -0.0062077786
-0.022482289 -0.72074896 0.008847254 0.4952979 0.45087647 -0.81054705 0.12375805 -0.34992197
0.42950094 0.17360811 0.09895445 -0.30351084 -1.3109704 -0.102817446 0.19573998 0.00898776
0.4227082 0.47355857 0.46491846 0.47305247 -0.006341461 0.4565964 0.38638538 0.24549375
0.4074743 0.0010222878 0.077486046 0.21273638 0.35910735 0.38261586 -0.24455403 -0.43664363
0.5270442 0.1450247 -0.053060737 0.4872075 -0.06295471 0.09368476 0.08441282 0.29026285
0.52292424 0.5299831 0.4569591 -0.112215556 0.20423038 0.07471733 0.06921097 0.19485886
0.18205322 -0.22464982 0.38194114 0.54795843 -0.9198031 -0.04046553 0.08977038 -0.16615342
0.061973732 0.16438766 0.22381862 0.03290137 0.3152054 0.28821006 0.45378378 0.026861398
0.08616946 0.20358413 0.0059706946 0.28855038 0.40039596 0.13781539 0.02032217 0.53570205
0.2993261 -0.11660924 -0.05715571 0.35131863 0.5639973 -0.103049695 -0.62199444 0.38411027
0.41393834 -0.22409745 0.44782448 0.0038599956 0.036388867 0.6713864 0.19709565 0.19480899
0.16830347 -0.015833609 0.36915505 -0.08688174 0.53636897 0.54856646 -0.39353448 0.33092988
-0.0286032 -0.5186871 0.26961818 0.49799067 0.05822329 0.17511031 -0.010693335 0.37635067
